…
03-03 12:41:46.525  5580  5603 I chatty  : uid=10113(u0_a113) expire 22 lines
03-03 12:41:46.634  5580  5603 I caffe_jni: I0303 12:41:46.634296  5603 net.cpp:102] Creating Layer rfcn_bbox
03-03 12:41:46.634  5580  5603 I caffe_jni: I0303 12:41:46.634318  5603 net.cpp:436] rfcn_bbox <- conv_new_1_conv_new_1_relu_0_split_1
03-03 12:41:46.634  5580  5603 I caffe_jni: I0303 12:41:46.634346  5603 net.cpp:410] rfcn_bbox -> rfcn_bbox
03-03 12:41:46.675  5580  5603 I caffe_jni: I0303 12:41:46.675609  5603 net.cpp:152] Setting up rfcn_bbox
03-03 12:41:46.675  5580  5603 I caffe_jni: I0303 12:41:46.675678  5603 net.cpp:159] Top shape: 1 392 14 14 (76832)
03-03 12:41:46.675  5580  5603 I caffe_jni: I0303 12:41:46.675704  5603 net.cpp:167] Memory required for data: 272367852
03-03 12:41:46.675  5580  5603 I caffe_jni: I0303 12:41:46.675730  5603 layer_factory.hpp:77] Creating layer psroipooled_cls_rois
03-03 12:41:46.675  5580  5603 I caffe_jni: I0303 12:41:46.675765  5603 net.cpp:102] Creating Layer psroipooled_cls_rois
03-03 12:41:46.675  5580  5603 I caffe_jni: I0303 12:41:46.675787  5603 net.cpp:436] psroipooled_cls_rois <- rfcn_cls
03-03 12:41:46.675  5580  5603 I caffe_jni: I0303 12:41:46.675808  5603 net.cpp:436] psroipooled_cls_rois <- rois_proposal_0_split_0
03-03 12:41:46.675  5580  5603 I caffe_jni: I0303 12:41:46.675832  5603 net.cpp:410] psroipooled_cls_rois -> psroipooled_cls_rois
03-03 12:41:46.675  5580  5603 I caffe_jni: I0303 12:41:46.675858  5603 psroi_pooling_layer.cpp:28] Spatial scale: 0.0625
03-03 12:41:46.675  5580  5603 I caffe_jni: I0303 12:41:46.675904  5603 psroi_pooling_layer.cpp:44] psroipooling reshape
03-03 12:41:46.675  5580  5603 I caffe_jni: I0303 12:41:46.675925  5603 net.cpp:152] Setting up psroipooled_cls_rois
03-03 12:41:46.675  5580  5603 I caffe_jni: I0303 12:41:46.675947  5603 net.cpp:159] Top shape: 300 21 7 7 (308700)
03-03 12:41:46.675  5580  5603 I caffe_jni: I0303 12:41:46.675973  5603 net.cpp:167] Memory required for data: 273602652
03-03 12:41:46.675  5580  5603 I caffe_jni: I0303 12:41:46.675990  5603 layer_factory.hpp:77] Creating layer ave_cls_score_rois
03-03 12:41:46.676  5580  5603 I caffe_jni: I0303 12:41:46.676012  5603 net.cpp:102] Creating Layer ave_cls_score_rois
03-03 12:41:46.676  5580  5603 I caffe_jni: I0303 12:41:46.676036  5603 net.cpp:436] ave_cls_score_rois <- psroipooled_cls_rois
03-03 12:41:46.676  5580  5603 I caffe_jni: I0303 12:41:46.676057  5603 net.cpp:410] ave_cls_score_rois -> cls_score
03-03 12:41:46.676  5580  5603 I caffe_jni: I0303 12:41:46.676082  5603 net.cpp:152] Setting up ave_cls_score_rois
03-03 12:41:46.676  5580  5603 I caffe_jni: I0303 12:41:46.676098  5603 net.cpp:159] Top shape: 300 21 1 1 (6300)
03-03 12:41:46.676  5580  5603 I caffe_jni: I0303 12:41:46.676120  5603 net.cpp:167] Memory required for data: 273627852
03-03 12:41:46.676  5580  5603 I caffe_jni: I0303 12:41:46.676143  5603 layer_factory.hpp:77] Creating layer psroipooled_loc_rois
03-03 12:41:46.676  5580  5603 I caffe_jni: I0303 12:41:46.676167  5603 net.cpp:102] Creating Layer psroipooled_loc_rois
03-03 12:41:46.676  5580  5603 I caffe_jni: I0303 12:41:46.676183  5603 net.cpp:436] psroipooled_loc_rois <- rfcn_bbox
03-03 12:41:46.676  5580  5603 I caffe_jni: I0303 12:41:46.676203  5603 net.cpp:436] psroipooled_loc_rois <- rois_proposal_0_split_1
03-03 12:41:46.676  5580  5603 I caffe_jni: I0303 12:41:46.676221  5603 net.cpp:410] psroipooled_loc_rois -> psroipooled_loc_rois
03-03 12:41:46.676  5580  5603 I caffe_jni: I0303 12:41:46.676242  5603 psroi_pooling_layer.cpp:28] Spatial scale: 0.0625
03-03 12:41:46.676  5580  5603 I caffe_jni: I0303 12:41:46.676266  5603 psroi_pooling_layer.cpp:44] psroipooling reshape
03-03 12:41:46.676  5580  5603 I caffe_jni: I0303 12:41:46.676295  5603 net.cpp:152] Setting up psroipooled_loc_rois
03-03 12:41:46.676  5580  5603 I caffe_jni: I0303 12:41:46.676309  5603 net.cpp:159] Top shape: 300 8 7 7 (117600)
03-03 12:41:46.676  5580  5603 I caffe_jni: I0303 12:41:46.676327  5603 net.cpp:167] Memory required for data: 274098252
03-03 12:41:46.676  5580  5603 I caffe_jni: I0303 12:41:46.676344  5603 layer_factory.hpp:77] Creating layer ave_bbox_pred_rois
03-03 12:41:46.676  5580  5603 I caffe_jni: I0303 12:41:46.676363  5603 net.cpp:102] Creating Layer ave_bbox_pred_rois
03-03 12:41:46.676  5580  5603 I caffe_jni: I0303 12:41:46.676379  5603 net.cpp:436] ave_bbox_pred_rois <- psroipooled_loc_rois
03-03 12:41:46.676  5580  5603 I caffe_jni: I0303 12:41:46.676401  5603 net.cpp:410] ave_bbox_pred_rois -> bbox_pred_pre
03-03 12:41:46.676  5580  5603 I caffe_jni: I0303 12:41:46.676429  5603 net.cpp:152] Setting up ave_bbox_pred_rois
03-03 12:41:46.676  5580  5603 I caffe_jni: I0303 12:41:46.676445  5603 net.cpp:159] Top shape: 300 8 1 1 (2400)
03-03 12:41:46.676  5580  5603 I caffe_jni: I0303 12:41:46.676463  5603 net.cpp:167] Memory required for data: 274107852
03-03 12:41:46.676  5580  5603 I caffe_jni: I0303 12:41:46.676481  5603 layer_factory.hpp:77] Creating layer cls_prob
03-03 12:41:46.676  5580  5603 I caffe_jni: I0303 12:41:46.676501  5603 net.cpp:102] Creating Layer cls_prob
03-03 12:41:46.676  5580  5603 I caffe_jni: I0303 12:41:46.676518  5603 net.cpp:436] cls_prob <- cls_score
03-03 12:41:46.676  5580  5603 I caffe_jni: I0303 12:41:46.676540  5603 net.cpp:410] cls_prob -> cls_prob_pre
03-03 12:41:46.676  5580  5603 I caffe_jni: I0303 12:41:46.676573  5603 net.cpp:152] Setting up cls_prob
03-03 12:41:46.676  5580  5603 I caffe_jni: I0303 12:41:46.676590  5603 net.cpp:159] Top shape: 300 21 1 1 (6300)
03-03 12:41:46.676  5580  5603 I caffe_jni: I0303 12:41:46.676610  5603 net.cpp:167] Memory required for data: 274133052
03-03 12:41:46.676  5580  5603 I caffe_jni: I0303 12:41:46.676627  5603 layer_factory.hpp:77] Creating layer cls_prob_reshape
03-03 12:41:46.676  5580  5603 I caffe_jni: I0303 12:41:46.676648  5603 net.cpp:102] Creating Layer cls_prob_reshape
03-03 12:41:46.676  5580  5603 I caffe_jni: I0303 12:41:46.676664  5603 net.cpp:436] cls_prob_reshape <- cls_prob_pre
03-03 12:41:46.676  5580  5603 I caffe_jni: I0303 12:41:46.676686  5603 net.cpp:410] cls_prob_reshape -> cls_prob
03-03 12:41:46.676  5580  5603 I caffe_jni: I0303 12:41:46.676718  5603 net.cpp:152] Setting up cls_prob_reshape
03-03 12:41:46.676  5580  5603 I caffe_jni: I0303 12:41:46.676735  5603 net.cpp:159] Top shape: 300 21 (6300)
03-03 12:41:46.676  5580  5603 I caffe_jni: I0303 12:41:46.676753  5603 net.cpp:167] Memory required for data: 274158252
03-03 12:41:46.676  5580  5603 I caffe_jni: I0303 12:41:46.676769  5603 layer_factory.hpp:77] Creating layer bbox_pred_reshape
03-03 12:41:46.676  5580  5603 I caffe_jni: I0303 12:41:46.676785  5603 net.cpp:102] Creating Layer bbox_pred_reshape
03-03 12:41:46.676  5580  5603 I caffe_jni: I0303 12:41:46.676800  5603 net.cpp:436] bbox_pred_reshape <- bbox_pred_pre
03-03 12:41:46.676  5580  5603 I caffe_jni: I0303 12:41:46.676821  5603 net.cpp:410] bbox_pred_reshape -> bbox_pred
03-03 12:41:46.676  5580  5603 I caffe_jni: I0303 12:41:46.676847  5603 net.cpp:152] Setting up bbox_pred_reshape
03-03 12:41:46.676  5580  5603 I caffe_jni: I0303 12:41:46.676870  5603 net.cpp:159] Top shape: 300 8 (2400)
03-03 12:41:46.676  5580  5603 I caffe_jni: I0303 12:41:46.676887  5603 net.cpp:167] Memory required for data: 274167852
03-03 12:41:46.676  5580  5603 I caffe_jni: I0303 12:41:46.676903  5603 net.cpp:230] bbox_pred_reshape does not need backward computation.
03-03 12:41:46.676  5580  5603 I caffe_jni: I0303 12:41:46.676919  5603 net.cpp:230] cls_prob_reshape does not need backward computation.
…
03-03 12:41:56.213  5580  5580 I caffe_jni:   top: "prob"
03-03 12:41:56.213  5580  5580 I caffe_jni: }
03-03 12:41:56.213  5580  5580 I caffe_jni: I0303 12:41:56.213660  5580 layer_factory.hpp:77] Creating layer data
03-03 12:41:56.213  5580  5580 I caffe_jni: I0303 12:41:56.213696  5580 net.cpp:102] Creating Layer data
03-03 12:41:56.213  5580  5580 I caffe_jni: I0303 12:41:56.213733  5580 net.cpp:410] data -> data
03-03 12:41:56.213  5580  5580 I caffe_jni: I0303 12:41:56.213765  5580 net.cpp:152] Setting up data
03-03 12:41:56.213  5580  5580 I caffe_jni: I0303 12:41:56.213790  5580 net.cpp:159] Top shape: 10 3 227 227 (1545870)
03-03 12:41:56.213  5580  5580 I caffe_jni: I0303 12:41:56.213811  5580 net.cpp:167] Memory required for data: 6183480
03-03 12:41:56.213  5580  5580 I caffe_jni: I0303 12:41:56.213829  5580 layer_factory.hpp:77] Creating layer conv1
03-03 12:41:56.213  5580  5580 I caffe_jni: I0303 12:41:56.213853  5580 net.cpp:102] Creating Layer conv1
03-03 12:41:56.213  5580  5580 I caffe_jni: I0303 12:41:56.213871  5580 net.cpp:436] conv1 <- data
03-03 12:41:56.213  5580  5580 I caffe_jni: I0303 12:41:56.213888  5580 net.cpp:410] conv1 -> conv1
03-03 12:41:56.214  5580  5580 I caffe_jni: I0303 12:41:56.214032  5580 net.cpp:152] Setting up conv1
03-03 12:41:56.214  5580  5580 I caffe_jni: I0303 12:41:56.214058  5580 net.cpp:159] Top shape: 10 96 55 55 (2904000)
03-03 12:41:56.214  5580  5580 I caffe_jni: I0303 12:41:56.214078  5580 net.cpp:167] Memory required for data: 17799480
03-03 12:41:56.214  5580  5580 I caffe_jni: I0303 12:41:56.214109  5580 layer_factory.hpp:77] Creating layer relu1
03-03 12:41:56.214  5580  5580 I caffe_jni: I0303 12:41:56.214143  5580 net.cpp:102] Creating Layer relu1
03-03 12:41:56.214  5580  5580 I caffe_jni: I0303 12:41:56.214159  5580 net.cpp:436] relu1 <- conv1
03-03 12:41:56.214  5580  5580 I caffe_jni: I0303 12:41:56.214179  5580 net.cpp:397] relu1 -> conv1 (in-place)
03-03 12:41:56.214  5580  5580 I caffe_jni: I0303 12:41:56.214198  5580 net.cpp:152] Setting up relu1
03-03 12:41:56.214  5580  5580 I caffe_jni: I0303 12:41:56.214215  5580 net.cpp:159] Top shape: 10 96 55 55 (2904000)
03-03 12:41:56.214  5580  5580 I caffe_jni: I0303 12:41:56.214237  5580 net.cpp:167] Memory required for data: 29415480
03-03 12:41:56.214  5580  5580 I caffe_jni: I0303 12:41:56.214259  5580 layer_factory.hpp:77] Creating layer pool1
03-03 12:41:56.214  5580  5580 I caffe_jni: I0303 12:41:56.214278  5580 net.cpp:102] Creating Layer pool1
03-03 12:41:56.214  5580  5580 I caffe_jni: I0303 12:41:56.214293  5580 net.cpp:436] pool1 <- conv1
03-03 12:41:56.214  5580  5580 I caffe_jni: I0303 12:41:56.214311  5580 net.cpp:410] pool1 -> pool1
03-03 12:41:56.214  5580  5580 I caffe_jni: I0303 12:41:56.214339  5580 net.cpp:152] Setting up pool1
03-03 12:41:56.214  5580  5580 I caffe_jni: I0303 12:41:56.214357  5580 net.cpp:159] Top shape: 10 96 27 27 (699840)
03-03 12:41:56.214  5580  5580 I caffe_jni: I0303 12:41:56.214401  5580 net.cpp:167] Memory required for data: 32214840
03-03 12:41:56.214  5580  5580 I caffe_jni: I0303 12:41:56.214423  5580 layer_factory.hpp:77] Creating layer norm1
03-03 12:41:56.214  5580  5580 I caffe_jni: I0303 12:41:56.214443  5580 net.cpp:102] Creating Layer norm1
03-03 12:41:56.214  5580  5580 I caffe_jni: I0303 12:41:56.214467  5580 net.cpp:436] norm1 <- pool1
03-03 12:41:56.214  5580  5580 I caffe_jni: I0303 12:41:56.214483  5580 net.cpp:410] norm1 -> norm1
03-03 12:41:56.214  5580  5580 I caffe_jni: I0303 12:41:56.214515  5580 net.cpp:152] Setting up norm1
03-03 12:41:56.214  5580  5580 I caffe_jni: I0303 12:41:56.214532  5580 net.cpp:159] Top shape: 10 96 27 27 (699840)
03-03 12:41:56.214  5580  5580 I caffe_jni: I0303 12:41:56.214551  5580 net.cpp:167] Memory required for data: 35014200
03-03 12:41:56.214  5580  5580 I caffe_jni: I0303 12:41:56.214571  5580 layer_factory.hpp:77] Creating layer conv2
03-03 12:41:56.214  5580  5580 I caffe_jni: I0303 12:41:56.214597  5580 net.cpp:102] Creating Layer conv2
03-03 12:41:56.214  5580  5580 I caffe_jni: I0303 12:41:56.214614  5580 net.cpp:436] conv2 <- norm1
03-03 12:41:56.214  5580  5580 I caffe_jni: I0303 12:41:56.214633  5580 net.cpp:410] conv2 -> conv2
03-03 12:41:56.215  5580  5580 I caffe_jni: I0303 12:41:56.215334  5580 net.cpp:152] Setting up conv2
03-03 12:41:56.215  5580  5580 I caffe_jni: I0303 12:41:56.215379  5580 net.cpp:159] Top shape: 10 256 27 27 (1866240)
03-03 12:41:56.215  5580  5580 I caffe_jni: I0303 12:41:56.215404  5580 net.cpp:167] Memory required for data: 42479160
03-03 12:41:56.215  5580  5580 I caffe_jni: I0303 12:41:56.215431  5580 layer_factory.hpp:77] Creating layer relu2
03-03 12:41:56.215  5580  5580 I caffe_jni: I0303 12:41:56.215456  5580 net.cpp:102] Creating Layer relu2
03-03 12:41:56.215  5580  5580 I caffe_jni: I0303 12:41:56.215473  5580 net.cpp:436] relu2 <- conv2
03-03 12:41:56.215  5580  5580 I caffe_jni: I0303 12:41:56.215492  5580 net.cpp:397] relu2 -> conv2 (in-place)
03-03 12:41:56.215  5580  5580 I caffe_jni: I0303 12:41:56.215514  5580 net.cpp:152] Setting up relu2
03-03 12:41:56.215  5580  5580 I caffe_jni: I0303 12:41:56.215535  5580 net.cpp:159] Top shape: 10 256 27 27 (1866240)
03-03 12:41:56.215  5580  5580 I caffe_jni: I0303 12:41:56.215560  5580 net.cpp:167] Memory required for data: 49944120
03-03 12:41:56.215  5580  5580 I caffe_jni: I0303 12:41:56.215576  5580 layer_factory.hpp:77] Creating layer pool2
03-03 12:41:56.215  5580  5580 I caffe_jni: I0303 12:41:56.215595  5580 net.cpp:102] Creating Layer pool2
03-03 12:41:56.215  5580  5580 I caffe_jni: I0303 12:41:56.215611  5580 net.cpp:436] pool2 <- conv2
03-03 12:41:56.215  5580  5580 I caffe_jni: I0303 12:41:56.215628  5580 net.cpp:410] pool2 -> pool2
03-03 12:41:56.215  5580  5580 I caffe_jni: I0303 12:41:56.215654  5580 net.cpp:152] Setting up pool2
03-03 12:41:56.215  5580  5580 I caffe_jni: I0303 12:41:56.215677  5580 net.cpp:159] Top shape: 10 256 13 13 (432640)
03-03 12:41:56.215  5580  5580 I caffe_jni: I0303 12:41:56.215701  5580 net.cpp:167] Memory required for data: 51674680
03-03 12:41:56.215  5580  5580 I caffe_jni: I0303 12:41:56.215716  5580 layer_factory.hpp:77] Creating layer norm2
03-03 12:41:56.215  5580  5580 I caffe_jni: I0303 12:41:56.215737  5580 net.cpp:102] Creating Layer norm2
03-03 12:41:56.215  5580  5580 I caffe_jni: I0303 12:41:56.215754  5580 net.cpp:436] norm2 <- pool2
03-03 12:41:56.215  5580  5580 I caffe_jni: I0303 12:41:56.215771  5580 net.cpp:410] norm2 -> norm2
03-03 12:41:56.215  5580  5580 I caffe_jni: I0303 12:41:56.215800  5580 net.cpp:152] Setting up norm2
03-03 12:41:56.215  5580  5580 I caffe_jni: I0303 12:41:56.215821  5580 net.cpp:159] Top shape: 10 256 13 13 (432640)
03-03 12:41:56.215  5580  5580 I caffe_jni: I0303 12:41:56.215844  5580 net.cpp:167] Memory required for data: 53405240
03-03 12:41:56.215  5580  5580 I caffe_jni: I0303 12:41:56.215859  5580 layer_factory.hpp:77] Creating layer conv3
03-03 12:41:56.215  5580  5580 I caffe_jni: I0303 12:41:56.215883  5580 net.cpp:102] Creating Layer conv3
03-03 12:41:56.215  5580  5580 I caffe_jni: I0303 12:41:56.215899  5580 net.cpp:436] conv3 <- norm2
03-03 12:41:56.215  5580  5580 I caffe_jni: I0303 12:41:56.215920  5580 net.cpp:410] conv3 -> conv3
03-03 12:41:56.217  5580  5580 I caffe_jni: I0303 12:41:56.217799  5580 net.cpp:152] Setting up conv3
03-03 12:41:56.217  5580  5580 I caffe_jni: I0303 12:41:56.217900  5580 net.cpp:159] Top shape: 10 384 13 13 (648960)
03-03 12:41:56.217  5580  5580 I caffe_jni: I0303 12:41:56.217939  5580 net.cpp:167] Memory required for data: 56001080
03-03 12:41:56.217  5580  5580 I caffe_jni: I0303 12:41:56.217972  5580 layer_factory.hpp:77] Creating layer relu3
03-03 12:41:56.218  5580  5580 I caffe_jni: I0303 12:41:56.218003  5580 net.cpp:102] Creating Layer relu3
03-03 12:41:56.218  5580  5580 I caffe_jni: I0303 12:41:56.218021  5580 net.cpp:436] relu3 <- conv3
03-03 12:41:56.218  5580  5580 I caffe_jni: I0303 12:41:56.218041  5580 net.cpp:397] relu3 -> conv3 (in-place)
03-03 12:41:56.218  5580  5580 I caffe_jni: I0303 12:41:56.218072  5580 net.cpp:152] Setting up relu3
03-03 12:41:56.218  5580  5580 I caffe_jni: I0303 12:41:56.218093  5580 net.cpp:159] Top shape: 10 384 13 13 (648960)
03-03 12:41:56.218  5580  5580 I caffe_jni: I0303 12:41:56.218119  5580 net.cpp:167] Memory required for data: 58596920
03-03 12:41:56.218  5580  5580 I caffe_jni: I0303 12:41:56.218137  5580 layer_factory.hpp:77] Creating layer conv4
03-03 12:41:56.218  5580  5580 I caffe_jni: I0303 12:41:56.218161  5580 net.cpp:102] Creating Layer conv4
03-03 12:41:56.218  5580  5580 I caffe_jni: I0303 12:41:56.218179  5580 net.cpp:436] conv4 <- conv3
03-03 12:41:56.218  5580  5580 I caffe_jni: I0303 12:41:56.218197  5580 net.cpp:410] conv4 -> conv4
03-03 12:41:56.219  5580  5580 I caffe_jni: I0303 12:41:56.219619  5580 net.cpp:152] Setting up conv4
03-03 12:41:56.219  5580  5580 I caffe_jni: I0303 12:41:56.219702  5580 net.cpp:159] Top shape: 10 384 13 13 (648960)
03-03 12:41:56.219  5580  5580 I caffe_jni: I0303 12:41:56.219739  5580 net.cpp:167] Memory required for data: 61192760
03-03 12:41:56.219  5580  5580 I caffe_jni: I0303 12:41:56.219766  5580 layer_factory.hpp:77] Creating layer relu4
03-03 12:41:56.219  5580  5580 I caffe_jni: I0303 12:41:56.219797  5580 net.cpp:102] Creating Layer relu4
03-03 12:41:56.219  5580  5580 I caffe_jni: I0303 12:41:56.219815  5580 net.cpp:436] relu4 <- conv4
03-03 12:41:56.219  5580  5580 I caffe_jni: I0303 12:41:56.219836  5580 net.cpp:397] relu4 -> conv4 (in-place)
03-03 12:41:56.219  5580  5580 I caffe_jni: I0303 12:41:56.219861  5580 net.cpp:152] Setting up relu4
03-03 12:41:56.219  5580  5580 I caffe_jni: I0303 12:41:56.219882  5580 net.cpp:159] Top shape: 10 384 13 13 (648960)
03-03 12:41:56.219  5580  5580 I caffe_jni: I0303 12:41:56.219907  5580 net.cpp:167] Memory required for data: 63788600
03-03 12:41:56.219  5580  5580 I caffe_jni: I0303 12:41:56.219924  5580 layer_factory.hpp:77] Creating layer conv5
03-03 12:41:56.219  5580  5580 I caffe_jni: I0303 12:41:56.219949  5580 net.cpp:102] Creating Layer conv5
03-03 12:41:56.219  5580  5580 I caffe_jni: I0303 12:41:56.219965  5580 net.cpp:436] conv5 <- conv4
03-03 12:41:56.219  5580  5580 I caffe_jni: I0303 12:41:56.219985  5580 net.cpp:410] conv5 -> conv5
03-03 12:41:56.220  5580  5580 I caffe_jni: I0303 12:41:56.220958  5580 net.cpp:152] Setting up conv5
03-03 12:41:56.221  5580  5580 I caffe_jni: I0303 12:41:56.221010  5580 net.cpp:159] Top shape: 10 256 13 13 (432640)
03-03 12:41:56.221  5580  5580 I caffe_jni: I0303 12:41:56.221043  5580 net.cpp:167] Memory required for data: 65519160
03-03 12:41:56.221  5580  5580 I caffe_jni: I0303 12:41:56.221087  5580 layer_factory.hpp:77] Creating layer relu5
03-03 12:41:56.221  5580  5580 I caffe_jni: I0303 12:41:56.221114  5580 net.cpp:102] Creating Layer relu5
03-03 12:41:56.221  5580  5580 I caffe_jni: I0303 12:41:56.221132  5580 net.cpp:436] relu5 <- conv5
03-03 12:41:56.221  5580  5580 I caffe_jni: I0303 12:41:56.221153  5580 net.cpp:397] relu5 -> conv5 (in-place)
03-03 12:41:56.221  5580  5580 I caffe_jni: I0303 12:41:56.221175  5580 net.cpp:152] Setting up relu5
03-03 12:41:56.221  5580  5580 I caffe_jni: I0303 12:41:56.221191  5580 net.cpp:159] Top shape: 10 256 13 13 (432640)
03-03 12:41:56.221  5580  5580 I caffe_jni: I0303 12:41:56.221231  5580 net.cpp:167] Memory required for data: 67249720
03-03 12:41:56.221  5580  5580 I caffe_jni: I0303 12:41:56.221257  5580 layer_factory.hpp:77] Creating layer pool5
03-03 12:41:56.221  5580  5580 I caffe_jni: I0303 12:41:56.221278  5580 net.cpp:102] Creating Layer pool5
03-03 12:41:56.221  5580  5580 I caffe_jni: I0303 12:41:56.221295  5580 net.cpp:436] pool5 <- conv5
03-03 12:41:56.221  5580  5580 I caffe_jni: I0303 12:41:56.221314  5580 net.cpp:410] pool5 -> pool5
03-03 12:41:56.221  5580  5580 I caffe_jni: I0303 12:41:56.221343  5580 net.cpp:152] Setting up pool5
03-03 12:41:56.221  5580  5580 I caffe_jni: I0303 12:41:56.221360  5580 net.cpp:159] Top shape: 10 256 6 6 (92160)
03-03 12:41:56.221  5580  5580 I caffe_jni: I0303 12:41:56.221385  5580 net.cpp:167] Memory required for data: 67618360
03-03 12:41:56.221  5580  5580 I caffe_jni: I0303 12:41:56.221407  5580 layer_factory.hpp:77] Creating layer fc6
03-03 12:41:56.221  5580  5580 I caffe_jni: I0303 12:41:56.221441  5580 net.cpp:102] Creating Layer fc6
03-03 12:41:56.221  5580  5580 I caffe_jni: I0303 12:41:56.221459  5580 net.cpp:436] fc6 <- pool5
03-03 12:41:56.221  5580  5580 I caffe_jni: I0303 12:41:56.221478  5580 net.cpp:410] fc6 -> fc6
03-03 12:41:56.296  5580  5580 I caffe_jni: I0303 12:41:56.296207  5580 net.cpp:152] Setting up fc6
03-03 12:41:56.296  5580  5580 I caffe_jni: I0303 12:41:56.296298  5580 net.cpp:159] Top shape: 10 4096 (40960)
03-03 12:41:56.296  5580  5580 I caffe_jni: I0303 12:41:56.296326  5580 net.cpp:167] Memory required for data: 67782200
03-03 12:41:56.296  5580  5580 I caffe_jni: I0303 12:41:56.296351  5580 layer_factory.hpp:77] Creating layer relu6
03-03 12:41:56.296  5580  5580 I caffe_jni: I0303 12:41:56.296386  5580 net.cpp:102] Creating Layer relu6
03-03 12:41:56.296  5580  5580 I caffe_jni: I0303 12:41:56.296408  5580 net.cpp:436] relu6 <- fc6
03-03 12:41:56.296  5580  5580 I caffe_jni: I0303 12:41:56.296430  5580 net.cpp:397] relu6 -> fc6 (in-place)
03-03 12:41:56.296  5580  5580 I caffe_jni: I0303 12:41:56.296455  5580 net.cpp:152] Setting up relu6
03-03 12:41:56.296  5580  5580 I caffe_jni: I0303 12:41:56.296494  5580 net.cpp:159] Top shape: 10 4096 (40960)
03-03 12:41:56.296  5580  5580 I caffe_jni: I0303 12:41:56.296516  5580 net.cpp:167] Memory required for data: 67946040
03-03 12:41:56.296  5580  5580 I caffe_jni: I0303 12:41:56.296533  5580 layer_factory.hpp:77] Creating layer drop6
03-03 12:41:56.296  5580  5580 I caffe_jni: I0303 12:41:56.296561  5580 net.cpp:102] Creating Layer drop6
03-03 12:41:56.296  5580  5580 I caffe_jni: I0303 12:41:56.296583  5580 net.cpp:436] drop6 <- fc6
03-03 12:41:56.296  5580  5580 I caffe_jni: I0303 12:41:56.296607  5580 net.cpp:397] drop6 -> fc6 (in-place)
03-03 12:41:56.296  5580  5580 I caffe_jni: I0303 12:41:56.296629  5580 net.cpp:152] Setting up drop6
03-03 12:41:56.296  5580  5580 I caffe_jni: I0303 12:41:56.296645  5580 net.cpp:159] Top shape: 10 4096 (40960)
03-03 12:41:56.296  5580  5580 I caffe_jni: I0303 12:41:56.296663  5580 net.cpp:167] Memory required for data: 68109880
03-03 12:41:56.296  5580  5580 I caffe_jni: I0303 12:41:56.296679  5580 layer_factory.hpp:77] Creating layer fc7
03-03 12:41:56.296  5580  5580 I caffe_jni: I0303 12:41:56.296700  5580 net.cpp:102] Creating Layer fc7
03-03 12:41:56.296  5580  5580 I caffe_jni: I0303 12:41:56.296718  5580 net.cpp:436] fc7 <- fc6
03-03 12:41:56.296  5580  5580 I caffe_jni: I0303 12:41:56.296741  5580 net.cpp:410] fc7 -> fc7
03-03 12:41:56.329  5580  5580 I caffe_jni: I0303 12:41:56.329480  5580 net.cpp:152] Setting up fc7
03-03 12:41:56.329  5580  5580 I caffe_jni: I0303 12:41:56.329586  5580 net.cpp:159] Top shape: 10 4096 (40960)
03-03 12:41:56.329  5580  5580 I caffe_jni: I0303 12:41:56.329617  5580 net.cpp:167] Memory required for data: 68273720
03-03 12:41:56.329  5580  5580 I caffe_jni: I0303 12:41:56.329648  5580 layer_factory.hpp:77] Creating layer relu7
03-03 12:41:56.329  5580  5580 I caffe_jni: I0303 12:41:56.329684  5580 net.cpp:102] Creating Layer relu7
03-03 12:41:56.329  5580  5580 I caffe_jni: I0303 12:41:56.329705  5580 net.cpp:436] relu7 <- fc7
03-03 12:41:56.329  5580  5580 I caffe_jni: I0303 12:41:56.329730  5580 net.cpp:397] relu7 -> fc7 (in-place)
03-03 12:41:56.329  5580  5580 I caffe_jni: I0303 12:41:56.329758  5580 net.cpp:152] Setting up relu7
03-03 12:41:56.329  5580  5580 I caffe_jni: I0303 12:41:56.329779  5580 net.cpp:159] Top shape: 10 4096 (40960)
03-03 12:41:56.329  5580  5580 I caffe_jni: I0303 12:41:56.329802  5580 net.cpp:167] Memory required for data: 68437560
03-03 12:41:56.329  5580  5580 I caffe_jni: I0303 12:41:56.329821  5580 layer_factory.hpp:77] Creating layer drop7
03-03 12:41:56.329  5580  5580 I caffe_jni: I0303 12:41:56.329851  5580 net.cpp:102] Creating Layer drop7
03-03 12:41:56.329  5580  5580 I caffe_jni: I0303 12:41:56.329877  5580 net.cpp:436] drop7 <- fc7
03-03 12:41:56.329  5580  5580 I caffe_jni: I0303 12:41:56.329900  5580 net.cpp:397] drop7 -> fc7 (in-place)
03-03 12:41:56.329  5580  5580 I caffe_jni: I0303 12:41:56.329926  5580 net.cpp:152] Setting up drop7
03-03 12:41:56.329  5580  5580 I caffe_jni: I0303 12:41:56.329944  5580 net.cpp:159] Top shape: 10 4096 (40960)
03-03 12:41:56.329  5580  5580 I caffe_jni: I0303 12:41:56.329967  5580 net.cpp:167] Memory required for data: 68601400
03-03 12:41:56.329  5580  5580 I caffe_jni: I0303 12:41:56.329987  5580 layer_factory.hpp:77] Creating layer fc8
03-03 12:41:56.330  5580  5580 I caffe_jni: I0303 12:41:56.330011  5580 net.cpp:102] Creating Layer fc8
03-03 12:41:56.330  5580  5580 I caffe_jni: I0303 12:41:56.330137  5580 net.cpp:436] fc8 <- fc7
03-03 12:41:56.331  5580  5580 I caffe_jni: I0303 12:41:56.331207  5580 net.cpp:410] fc8 -> fc8
03-03 12:41:56.341  5580  5580 I caffe_jni: I0303 12:41:56.341193  5580 net.cpp:152] Setting up fc8
03-03 12:41:56.341  5580  5580 I caffe_jni: I0303 12:41:56.341334  5580 net.cpp:159] Top shape: 10 1000 (10000)
03-03 12:41:56.341  5580  5580 I caffe_jni: I0303 12:41:56.341365  5580 net.cpp:167] Memory required for data: 68641400
03-03 12:41:56.341  5580  5580 I caffe_jni: I0303 12:41:56.341401  5580 layer_factory.hpp:77] Creating layer prob
03-03 12:41:56.341  5580  5580 I caffe_jni: I0303 12:41:56.341441  5580 net.cpp:102] Creating Layer prob
03-03 12:41:56.341  5580  5580 I caffe_jni: I0303 12:41:56.341462  5580 net.cpp:436] prob <- fc8
03-03 12:41:56.341  5580  5580 I caffe_jni: I0303 12:41:56.341487  5580 net.cpp:410] prob -> prob
03-03 12:41:56.341  5580  5580 I caffe_jni: I0303 12:41:56.341531  5580 net.cpp:152] Setting up prob
03-03 12:41:56.341  5580  5580 I caffe_jni: I0303 12:41:56.341552  5580 net.cpp:159] Top shape: 10 1000 (10000)
03-03 12:41:56.341  5580  5580 I caffe_jni: I0303 12:41:56.341573  5580 net.cpp:167] Memory required for data: 68681400
03-03 12:41:56.341  5580  5580 I caffe_jni: I0303 12:41:56.341596  5580 net.cpp:230] prob does not need backward computation.
03-03 12:41:56.341  5580  5580 I caffe_jni: I0303 12:41:56.341620  5580 net.cpp:230] fc8 does not need backward computation.
03-03 12:41:56.341  5580  5580 I caffe_jni: I0303 12:41:56.341640  5580 net.cpp:230] drop7 does not need backward computation.
…
03-03 12:44:03.343  5955  5955 I caffe_jni:   top: "prob"
03-03 12:44:03.343  5955  5955 I caffe_jni: }
03-03 12:44:03.343  5955  5955 I caffe_jni: I0303 12:44:03.343961  5955 layer_factory.hpp:77] Creating layer data
03-03 12:44:03.343  5955  5955 I caffe_jni: I0303 12:44:03.343993  5955 net.cpp:102] Creating Layer data
03-03 12:44:03.344  5955  5955 I caffe_jni: I0303 12:44:03.344015  5955 net.cpp:410] data -> data
03-03 12:44:03.344  5955  5955 I caffe_jni: I0303 12:44:03.344049  5955 net.cpp:152] Setting up data
03-03 12:44:03.344  5955  5955 I caffe_jni: I0303 12:44:03.344068  5955 net.cpp:159] Top shape: 10 3 227 227 (1545870)
03-03 12:44:03.344  5955  5955 I caffe_jni: I0303 12:44:03.344090  5955 net.cpp:167] Memory required for data: 6183480
03-03 12:44:03.344  5955  5955 I caffe_jni: I0303 12:44:03.344107  5955 layer_factory.hpp:77] Creating layer conv1
03-03 12:44:03.344  5955  5955 I caffe_jni: I0303 12:44:03.344131  5955 net.cpp:102] Creating Layer conv1
03-03 12:44:03.344  5955  5955 I caffe_jni: I0303 12:44:03.344147  5955 net.cpp:436] conv1 <- data
03-03 12:44:03.344  5955  5955 I caffe_jni: I0303 12:44:03.344168  5955 net.cpp:410] conv1 -> conv1
03-03 12:44:03.344  5955  5955 I caffe_jni: I0303 12:44:03.344300  5955 net.cpp:152] Setting up conv1
03-03 12:44:03.344  5955  5955 I caffe_jni: I0303 12:44:03.344319  5955 net.cpp:159] Top shape: 10 96 55 55 (2904000)
03-03 12:44:03.344  5955  5955 I caffe_jni: I0303 12:44:03.344338  5955 net.cpp:167] Memory required for data: 17799480
03-03 12:44:03.344  5955  5955 I caffe_jni: I0303 12:44:03.344362  5955 layer_factory.hpp:77] Creating layer relu1
03-03 12:44:03.344  5955  5955 I caffe_jni: I0303 12:44:03.344383  5955 net.cpp:102] Creating Layer relu1
03-03 12:44:03.344  5955  5955 I caffe_jni: I0303 12:44:03.344400  5955 net.cpp:436] relu1 <- conv1
03-03 12:44:03.344  5955  5955 I caffe_jni: I0303 12:44:03.344416  5955 net.cpp:397] relu1 -> conv1 (in-place)
03-03 12:44:03.344  5955  5955 I caffe_jni: I0303 12:44:03.344437  5955 net.cpp:152] Setting up relu1
03-03 12:44:03.344  5955  5955 I caffe_jni: I0303 12:44:03.344454  5955 net.cpp:159] Top shape: 10 96 55 55 (2904000)
03-03 12:44:03.344  5955  5955 I caffe_jni: I0303 12:44:03.344470  5955 net.cpp:167] Memory required for data: 29415480
03-03 12:44:03.344  5955  5955 I caffe_jni: I0303 12:44:03.344485  5955 layer_factory.hpp:77] Creating layer pool1
03-03 12:44:03.344  5955  5955 I caffe_jni: I0303 12:44:03.344502  5955 net.cpp:102] Creating Layer pool1
03-03 12:44:03.344  5955  5955 I caffe_jni: I0303 12:44:03.344517  5955 net.cpp:436] pool1 <- conv1
03-03 12:44:03.344  5955  5955 I caffe_jni: I0303 12:44:03.344533  5955 net.cpp:410] pool1 -> pool1
03-03 12:44:03.344  5955  5955 I caffe_jni: I0303 12:44:03.344563  5955 net.cpp:152] Setting up pool1
03-03 12:44:03.344  5955  5955 I caffe_jni: I0303 12:44:03.344579  5955 net.cpp:159] Top shape: 10 96 27 27 (699840)
03-03 12:44:03.344  5955  5955 I caffe_jni: I0303 12:44:03.344596  5955 net.cpp:167] Memory required for data: 32214840
03-03 12:44:03.344  5955  5955 I caffe_jni: I0303 12:44:03.344610  5955 layer_factory.hpp:77] Creating layer norm1
03-03 12:44:03.344  5955  5955 I caffe_jni: I0303 12:44:03.344629  5955 net.cpp:102] Creating Layer norm1
03-03 12:44:03.344  5955  5955 I caffe_jni: I0303 12:44:03.344643  5955 net.cpp:436] norm1 <- pool1
03-03 12:44:03.344  5955  5955 I caffe_jni: I0303 12:44:03.344660  5955 net.cpp:410] norm1 -> norm1
03-03 12:44:03.344  5955  5955 I caffe_jni: I0303 12:44:03.344683  5955 net.cpp:152] Setting up norm1
03-03 12:44:03.344  5955  5955 I caffe_jni: I0303 12:44:03.344698  5955 net.cpp:159] Top shape: 10 96 27 27 (699840)
03-03 12:44:03.344  5955  5955 I caffe_jni: I0303 12:44:03.344717  5955 net.cpp:167] Memory required for data: 35014200
03-03 12:44:03.344  5955  5955 I caffe_jni: I0303 12:44:03.344732  5955 layer_factory.hpp:77] Creating layer conv2
03-03 12:44:03.344  5955  5955 I caffe_jni: I0303 12:44:03.344750  5955 net.cpp:102] Creating Layer conv2
03-03 12:44:03.344  5955  5955 I caffe_jni: I0303 12:44:03.344765  5955 net.cpp:436] conv2 <- norm1
03-03 12:44:03.344  5955  5955 I caffe_jni: I0303 12:44:03.344782  5955 net.cpp:410] conv2 -> conv2
03-03 12:44:03.345  5955  5955 I caffe_jni: I0303 12:44:03.345423  5955 net.cpp:152] Setting up conv2
03-03 12:44:03.345  5955  5955 I caffe_jni: I0303 12:44:03.345460  5955 net.cpp:159] Top shape: 10 256 27 27 (1866240)
03-03 12:44:03.345  5955  5955 I caffe_jni: I0303 12:44:03.345481  5955 net.cpp:167] Memory required for data: 42479160
03-03 12:44:03.345  5955  5955 I caffe_jni: I0303 12:44:03.345505  5955 layer_factory.hpp:77] Creating layer relu2
03-03 12:44:03.345  5955  5955 I caffe_jni: I0303 12:44:03.345526  5955 net.cpp:102] Creating Layer relu2
03-03 12:44:03.345  5955  5955 I caffe_jni: I0303 12:44:03.345543  5955 net.cpp:436] relu2 <- conv2
03-03 12:44:03.345  5955  5955 I caffe_jni: I0303 12:44:03.345562  5955 net.cpp:397] relu2 -> conv2 (in-place)
03-03 12:44:03.345  5955  5955 I caffe_jni: I0303 12:44:03.345582  5955 net.cpp:152] Setting up relu2
03-03 12:44:03.345  5955  5955 I caffe_jni: I0303 12:44:03.345597  5955 net.cpp:159] Top shape: 10 256 27 27 (1866240)
03-03 12:44:03.345  5955  5955 I caffe_jni: I0303 12:44:03.345615  5955 net.cpp:167] Memory required for data: 49944120
03-03 12:44:03.345  5955  5955 I caffe_jni: I0303 12:44:03.345630  5955 layer_factory.hpp:77] Creating layer pool2
03-03 12:44:03.345  5955  5955 I caffe_jni: I0303 12:44:03.345648  5955 net.cpp:102] Creating Layer pool2
03-03 12:44:03.345  5955  5955 I caffe_jni: I0303 12:44:03.345662  5955 net.cpp:436] pool2 <- conv2
03-03 12:44:03.345  5955  5955 I caffe_jni: I0303 12:44:03.345681  5955 net.cpp:410] pool2 -> pool2
03-03 12:44:03.345  5955  5955 I caffe_jni: I0303 12:44:03.345705  5955 net.cpp:152] Setting up pool2
03-03 12:44:03.345  5955  5955 I caffe_jni: I0303 12:44:03.345721  5955 net.cpp:159] Top shape: 10 256 13 13 (432640)
03-03 12:44:03.345  5955  5955 I caffe_jni: I0303 12:44:03.345737  5955 net.cpp:167] Memory required for data: 51674680
03-03 12:44:03.345  5955  5955 I caffe_jni: I0303 12:44:03.345759  5955 layer_factory.hpp:77] Creating layer norm2
03-03 12:44:03.345  5955  5955 I caffe_jni: I0303 12:44:03.345779  5955 net.cpp:102] Creating Layer norm2
03-03 12:44:03.345  5955  5955 I caffe_jni: I0303 12:44:03.345794  5955 net.cpp:436] norm2 <- pool2
03-03 12:44:03.345  5955  5955 I caffe_jni: I0303 12:44:03.345811  5955 net.cpp:410] norm2 -> norm2
03-03 12:44:03.345  5955  5955 I caffe_jni: I0303 12:44:03.345832  5955 net.cpp:152] Setting up norm2
03-03 12:44:03.345  5955  5955 I caffe_jni: I0303 12:44:03.345847  5955 net.cpp:159] Top shape: 10 256 13 13 (432640)
03-03 12:44:03.345  5955  5955 I caffe_jni: I0303 12:44:03.345865  5955 net.cpp:167] Memory required for data: 53405240
03-03 12:44:03.345  5955  5955 I caffe_jni: I0303 12:44:03.345880  5955 layer_factory.hpp:77] Creating layer conv3
03-03 12:44:03.345  5955  5955 I caffe_jni: I0303 12:44:03.345898  5955 net.cpp:102] Creating Layer conv3
03-03 12:44:03.345  5955  5955 I caffe_jni: I0303 12:44:03.345916  5955 net.cpp:436] conv3 <- norm2
03-03 12:44:03.345  5955  5955 I caffe_jni: I0303 12:44:03.345934  5955 net.cpp:410] conv3 -> conv3
03-03 12:44:03.347  5955  5955 I caffe_jni: I0303 12:44:03.347755  5955 net.cpp:152] Setting up conv3
03-03 12:44:03.347  5955  5955 I caffe_jni: I0303 12:44:03.347839  5955 net.cpp:159] Top shape: 10 384 13 13 (648960)
03-03 12:44:03.347  5955  5955 I caffe_jni: I0303 12:44:03.347867  5955 net.cpp:167] Memory required for data: 56001080
03-03 12:44:03.347  5955  5955 I caffe_jni: I0303 12:44:03.347898  5955 layer_factory.hpp:77] Creating layer relu3
03-03 12:44:03.347  5955  5955 I caffe_jni: I0303 12:44:03.347924  5955 net.cpp:102] Creating Layer relu3
03-03 12:44:03.347  5955  5955 I caffe_jni: I0303 12:44:03.347944  5955 net.cpp:436] relu3 <- conv3
03-03 12:44:03.347  5955  5955 I caffe_jni: I0303 12:44:03.347975  5955 net.cpp:397] relu3 -> conv3 (in-place)
03-03 12:44:03.348  5955  5955 I caffe_jni: I0303 12:44:03.348001  5955 net.cpp:152] Setting up relu3
03-03 12:44:03.348  5955  5955 I caffe_jni: I0303 12:44:03.348017  5955 net.cpp:159] Top shape: 10 384 13 13 (648960)
03-03 12:44:03.348  5955  5955 I caffe_jni: I0303 12:44:03.348035  5955 net.cpp:167] Memory required for data: 58596920
03-03 12:44:03.348  5955  5955 I caffe_jni: I0303 12:44:03.348052  5955 layer_factory.hpp:77] Creating layer conv4
03-03 12:44:03.348  5955  5955 I caffe_jni: I0303 12:44:03.348075  5955 net.cpp:102] Creating Layer conv4
03-03 12:44:03.348  5955  5955 I caffe_jni: I0303 12:44:03.348093  5955 net.cpp:436] conv4 <- conv3
03-03 12:44:03.348  5955  5955 I caffe_jni: I0303 12:44:03.348110  5955 net.cpp:410] conv4 -> conv4
03-03 12:44:03.349  5955  5955 I caffe_jni: I0303 12:44:03.349601  5955 net.cpp:152] Setting up conv4
03-03 12:44:03.349  5955  5955 I caffe_jni: I0303 12:44:03.349687  5955 net.cpp:159] Top shape: 10 384 13 13 (648960)
03-03 12:44:03.349  5955  5955 I caffe_jni: I0303 12:44:03.349716  5955 net.cpp:167] Memory required for data: 61192760
03-03 12:44:03.349  5955  5955 I caffe_jni: I0303 12:44:03.349741  5955 layer_factory.hpp:77] Creating layer relu4
03-03 12:44:03.349  5955  5955 I caffe_jni: I0303 12:44:03.349769  5955 net.cpp:102] Creating Layer relu4
03-03 12:44:03.349  5955  5955 I caffe_jni: I0303 12:44:03.349787  5955 net.cpp:436] relu4 <- conv4
03-03 12:44:03.349  5955  5955 I caffe_jni: I0303 12:44:03.349809  5955 net.cpp:397] relu4 -> conv4 (in-place)
03-03 12:44:03.349  5955  5955 I caffe_jni: I0303 12:44:03.349840  5955 net.cpp:152] Setting up relu4
03-03 12:44:03.349  5955  5955 I caffe_jni: I0303 12:44:03.349865  5955 net.cpp:159] Top shape: 10 384 13 13 (648960)
03-03 12:44:03.349  5955  5955 I caffe_jni: I0303 12:44:03.349884  5955 net.cpp:167] Memory required for data: 63788600
03-03 12:44:03.349  5955  5955 I caffe_jni: I0303 12:44:03.349900  5955 layer_factory.hpp:77] Creating layer conv5
03-03 12:44:03.349  5955  5955 I caffe_jni: I0303 12:44:03.349923  5955 net.cpp:102] Creating Layer conv5
03-03 12:44:03.349  5955  5955 I caffe_jni: I0303 12:44:03.349939  5955 net.cpp:436] conv5 <- conv4
03-03 12:44:03.349  5955  5955 I caffe_jni: I0303 12:44:03.349961  5955 net.cpp:410] conv5 -> conv5
03-03 12:44:03.350  5955  5955 I caffe_jni: I0303 12:44:03.350898  5955 net.cpp:152] Setting up conv5
03-03 12:44:03.350  5955  5955 I caffe_jni: I0303 12:44:03.350953  5955 net.cpp:159] Top shape: 10 256 13 13 (432640)
03-03 12:44:03.350  5955  5955 I caffe_jni: I0303 12:44:03.350986  5955 net.cpp:167] Memory required for data: 65519160
03-03 12:44:03.351  5955  5955 I caffe_jni: I0303 12:44:03.351016  5955 layer_factory.hpp:77] Creating layer relu5
03-03 12:44:03.351  5955  5955 I caffe_jni: I0303 12:44:03.351042  5955 net.cpp:102] Creating Layer relu5
03-03 12:44:03.351  5955  5955 I caffe_jni: I0303 12:44:03.351058  5955 net.cpp:436] relu5 <- conv5
03-03 12:44:03.351  5955  5955 I caffe_jni: I0303 12:44:03.351078  5955 net.cpp:397] relu5 -> conv5 (in-place)
03-03 12:44:03.351  5955  5955 I caffe_jni: I0303 12:44:03.351104  5955 net.cpp:152] Setting up relu5
03-03 12:44:03.351  5955  5955 I caffe_jni: I0303 12:44:03.351121  5955 net.cpp:159] Top shape: 10 256 13 13 (432640)
03-03 12:44:03.351  5955  5955 I caffe_jni: I0303 12:44:03.351145  5955 net.cpp:167] Memory required for data: 67249720
03-03 12:44:03.351  5955  5955 I caffe_jni: I0303 12:44:03.351161  5955 layer_factory.hpp:77] Creating layer pool5
03-03 12:44:03.351  5955  5955 I caffe_jni: I0303 12:44:03.351182  5955 net.cpp:102] Creating Layer pool5
03-03 12:44:03.351  5955  5955 I caffe_jni: I0303 12:44:03.351198  5955 net.cpp:436] pool5 <- conv5
03-03 12:44:03.351  5955  5955 I caffe_jni: I0303 12:44:03.351217  5955 net.cpp:410] pool5 -> pool5
03-03 12:44:03.351  5955  5955 I caffe_jni: I0303 12:44:03.351248  5955 net.cpp:152] Setting up pool5
03-03 12:44:03.351  5955  5955 I caffe_jni: I0303 12:44:03.351265  5955 net.cpp:159] Top shape: 10 256 6 6 (92160)
03-03 12:44:03.351  5955  5955 I caffe_jni: I0303 12:44:03.351285  5955 net.cpp:167] Memory required for data: 67618360
03-03 12:44:03.351  5955  5955 I caffe_jni: I0303 12:44:03.351307  5955 layer_factory.hpp:77] Creating layer fc6
03-03 12:44:03.351  5955  5955 I caffe_jni: I0303 12:44:03.351341  5955 net.cpp:102] Creating Layer fc6
03-03 12:44:03.351  5955  5955 I caffe_jni: I0303 12:44:03.351358  5955 net.cpp:436] fc6 <- pool5
…
03-03 12:44:03.420   742  1828 D DE N HWC: apply:55: FEATURE_HUE: mEnable=0 enable=0
03-03 12:44:03.420   742  1828 D DE N HWC: apply:55: FEATURE_SAT: mEnable=0 enable=0
03-03 12:44:03.420   742  1828 D DE N HWC: apply:55: FEATURE_PANEL_INFO: mEnable=0 enable=0
03-03 12:44:03.420   742  1828 D DE N HWC: apply:55: FEATURE_DDIC_RGBW: mEnable=0 enable=0
03-03 12:44:03.420   742  1828 D DE N HWC: apply:55: FEATURE_DDIC_CABC: mEnable=0 enable=0
03-03 12:44:03.428  5955  5955 I caffe_jni: I0303 12:44:03.428162  5955 net.cpp:152] Setting up fc6
03-03 12:44:03.428  5955  5955 I caffe_jni: I0303 12:44:03.428257  5955 net.cpp:159] Top shape: 10 4096 (40960)
03-03 12:44:03.428  5955  5955 I caffe_jni: I0303 12:44:03.428289  5955 net.cpp:167] Memory required for data: 67782200
03-03 12:44:03.428  5955  5955 I caffe_jni: I0303 12:44:03.428315  5955 layer_factory.hpp:77] Creating layer relu6
03-03 12:44:03.428  5955  5955 I caffe_jni: I0303 12:44:03.428344  5955 net.cpp:102] Creating Layer relu6
03-03 12:44:03.428  5955  5955 I caffe_jni: I0303 12:44:03.428364  5955 net.cpp:436] relu6 <- fc6
03-03 12:44:03.428  5955  5955 I caffe_jni: I0303 12:44:03.428385  5955 net.cpp:397] relu6 -> fc6 (in-place)
03-03 12:44:03.428  5955  5955 I caffe_jni: I0303 12:44:03.428411  5955 net.cpp:152] Setting up relu6
03-03 12:44:03.428  5955  5955 I caffe_jni: I0303 12:44:03.428431  5955 net.cpp:159] Top shape: 10 4096 (40960)
03-03 12:44:03.428  5955  5955 I caffe_jni: I0303 12:44:03.428453  5955 net.cpp:167] Memory required for data: 67946040
03-03 12:44:03.428  5955  5955 I caffe_jni: I0303 12:44:03.428469  5955 layer_factory.hpp:77] Creating layer drop6
03-03 12:44:03.428  5955  5955 I caffe_jni: I0303 12:44:03.428499  5955 net.cpp:102] Creating Layer drop6
03-03 12:44:03.428  5955  5955 I caffe_jni: I0303 12:44:03.428517  5955 net.cpp:436] drop6 <- fc6
03-03 12:44:03.428  5955  5955 I caffe_jni: I0303 12:44:03.428534  5955 net.cpp:397] drop6 -> fc6 (in-place)
03-03 12:44:03.428  5955  5955 I caffe_jni: I0303 12:44:03.428557  5955 net.cpp:152] Setting up drop6
03-03 12:44:03.428  5955  5955 I caffe_jni: I0303 12:44:03.428576  5955 net.cpp:159] Top shape: 10 4096 (40960)
03-03 12:44:03.428  5955  5955 I caffe_jni: I0303 12:44:03.428599  5955 net.cpp:167] Memory required for data: 68109880
03-03 12:44:03.428  5955  5955 I caffe_jni: I0303 12:44:03.428617  5955 layer_factory.hpp:77] Creating layer fc7
03-03 12:44:03.428  5955  5955 I caffe_jni: I0303 12:44:03.428638  5955 net.cpp:102] Creating Layer fc7
03-03 12:44:03.428  5955  5955 I caffe_jni: I0303 12:44:03.428655  5955 net.cpp:436] fc7 <- fc6
03-03 12:44:03.428  5955  5955 I caffe_jni: I0303 12:44:03.428671  5955 net.cpp:410] fc7 -> fc7
03-03 12:44:03.436   742  1826 D DE N VH : run:148: Stop
03-03 12:44:03.461  5955  5955 I caffe_jni: I0303 12:44:03.461671  5955 net.cpp:152] Setting up fc7
03-03 12:44:03.461  5955  5955 I caffe_jni: I0303 12:44:03.461778  5955 net.cpp:159] Top shape: 10 4096 (40960)
03-03 12:44:03.461  5955  5955 I caffe_jni: I0303 12:44:03.461809  5955 net.cpp:167] Memory required for data: 68273720
03-03 12:44:03.461  5955  5955 I caffe_jni: I0303 12:44:03.461840  5955 layer_factory.hpp:77] Creating layer relu7
03-03 12:44:03.461  5955  5955 I caffe_jni: I0303 12:44:03.461879  5955 net.cpp:102] Creating Layer relu7
03-03 12:44:03.461  5955  5955 I caffe_jni: I0303 12:44:03.461901  5955 net.cpp:436] relu7 <- fc7
03-03 12:44:03.461  5955  5955 I caffe_jni: I0303 12:44:03.461925  5955 net.cpp:397] relu7 -> fc7 (in-place)
03-03 12:44:03.461  5955  5955 I caffe_jni: I0303 12:44:03.461952  5955 net.cpp:152] Setting up relu7
03-03 12:44:03.461  5955  5955 I caffe_jni: I0303 12:44:03.461971  5955 net.cpp:159] Top shape: 10 4096 (40960)
03-03 12:44:03.461  5955  5955 I caffe_jni: I0303 12:44:03.461992  5955 net.cpp:167] Memory required for data: 68437560
03-03 12:44:03.462  5955  5955 I caffe_jni: I0303 12:44:03.462010  5955 layer_factory.hpp:77] Creating layer drop7
03-03 12:44:03.462  5955  5955 I caffe_jni: I0303 12:44:03.462038  5955 net.cpp:102] Creating Layer drop7
03-03 12:44:03.462  5955  5955 I caffe_jni: I0303 12:44:03.462057  5955 net.cpp:436] drop7 <- fc7
03-03 12:44:03.462  5955  5955 I caffe_jni: I0303 12:44:03.462076  5955 net.cpp:397] drop7 -> fc7 (in-place)
03-03 12:44:03.462  5955  5955 I caffe_jni: I0303 12:44:03.462102  5955 net.cpp:152] Setting up drop7
03-03 12:44:03.462  5955  5955 I caffe_jni: I0303 12:44:03.462122  5955 net.cpp:159] Top shape: 10 4096 (40960)
03-03 12:44:03.462  5955  5955 I caffe_jni: I0303 12:44:03.462143  5955 net.cpp:167] Memory required for data: 68601400
03-03 12:44:03.462  5955  5955 I caffe_jni: I0303 12:44:03.462162  5955 layer_factory.hpp:77] Creating layer fc8
03-03 12:44:03.462  5955  5955 I caffe_jni: I0303 12:44:03.462185  5955 net.cpp:102] Creating Layer fc8
03-03 12:44:03.462  5955  5955 I caffe_jni: I0303 12:44:03.462208  5955 net.cpp:436] fc8 <- fc7
03-03 12:44:03.462  5955  5955 I caffe_jni: I0303 12:44:03.462229  5955 net.cpp:410] fc8 -> fc8
03-03 12:44:03.472  5955  5955 I caffe_jni: I0303 12:44:03.472229  5955 net.cpp:152] Setting up fc8
03-03 12:44:03.472  5955  5955 I caffe_jni: I0303 12:44:03.472337  5955 net.cpp:159] Top shape: 10 1000 (10000)
03-03 12:44:03.472  5955  5955 I caffe_jni: I0303 12:44:03.472368  5955 net.cpp:167] Memory required for data: 68641400
03-03 12:44:03.472  5955  5955 I caffe_jni: I0303 12:44:03.472399  5955 layer_factory.hpp:77] Creating layer prob
03-03 12:44:03.472  5955  5955 I caffe_jni: I0303 12:44:03.472434  5955 net.cpp:102] Creating Layer prob
03-03 12:44:03.472  5955  5955 I caffe_jni: I0303 12:44:03.472455  5955 net.cpp:436] prob <- fc8
03-03 12:44:03.472  5955  5955 I caffe_jni: I0303 12:44:03.472479  5955 net.cpp:410] prob -> prob
03-03 12:44:03.472  5955  5955 I caffe_jni: I0303 12:44:03.472525  5955 net.cpp:152] Setting up prob
03-03 12:44:03.472  5955  5955 I caffe_jni: I0303 12:44:03.472546  5955 net.cpp:159] Top shape: 10 1000 (10000)
03-03 12:44:03.472  5955  5955 I caffe_jni: I0303 12:44:03.472568  5955 net.cpp:167] Memory required for data: 68681400
03-03 12:44:03.472  5955  5955 I caffe_jni: I0303 12:44:03.472589  5955 net.cpp:230] prob does not need backward computation.
03-03 12:44:03.472  5955  5955 I caffe_jni: I0303 12:44:03.472612  5955 net.cpp:230] fc8 does not need backward computation.
03-03 12:44:03.472  5955  5955 I caffe_jni: I0303 12:44:03.472631  5955 net.cpp:230] drop7 does not need backward computation.
…
