…
02-12 15:37:53.025   719   719 I Pged-IPgedBinderService: ****action is 1, pid num is 3***
02-12 15:37:53.025   719   719 I Pged-Freezer: freezePids
02-12 15:37:53.025   719   719 I Pged-Freezer: Freeze process: 15422
02-12 15:37:53.026   719   719 I Pged-Freezer: Freeze process: 12981
02-12 15:37:53.061 16929 16929 V ActivityThread: ActivityThread,callActivityOnCreate
02-12 15:37:53.098 16929 16929 I caffe_jni: I0212 15:37:53.098702 16929 net.cpp:397] relu3 -> conv3 (in-place)
02-12 15:37:53.098 16929 16929 I caffe_jni: I0212 15:37:53.098731 16929 net.cpp:152] Setting up relu3
02-12 15:37:53.098 16929 16929 I caffe_jni: I0212 15:37:53.098757 16929 net.cpp:159] Top shape: 10 384 13 13 (648960)
02-12 15:37:53.098 16929 16929 I caffe_jni: I0212 15:37:53.098778 16929 net.cpp:167] Memory required for data: 58596920
02-12 15:37:53.098 16929 16929 I caffe_jni: I0212 15:37:53.098798 16929 layer_factory.hpp:77] Creating layer conv4
02-12 15:37:53.098 16929 16929 I caffe_jni: I0212 15:37:53.098825 16929 net.cpp:102] Creating Layer conv4
02-12 15:37:53.098 16929 16929 I caffe_jni: I0212 15:37:53.098843 16929 net.cpp:436] conv4 <- conv3
02-12 15:37:53.098 16929 16929 I caffe_jni: I0212 15:37:53.098866 16929 net.cpp:410] conv4 -> conv4
02-12 15:37:53.100 16929 16929 I caffe_jni: I0212 15:37:53.100325 16929 net.cpp:152] Setting up conv4
02-12 15:37:53.100 16929 16929 I caffe_jni: I0212 15:37:53.100412 16929 net.cpp:159] Top shape: 10 384 13 13 (648960)
02-12 15:37:53.100 16929 16929 I caffe_jni: I0212 15:37:53.100450 16929 net.cpp:167] Memory required for data: 61192760
02-12 15:37:53.100 16929 16929 I caffe_jni: I0212 15:37:53.100478 16929 layer_factory.hpp:77] Creating layer relu4
02-12 15:37:53.100 16929 16929 I caffe_jni: I0212 15:37:53.100507 16929 net.cpp:102] Creating Layer relu4
02-12 15:37:53.100 16929 16929 I caffe_jni: I0212 15:37:53.100528 16929 net.cpp:436] relu4 <- conv4
02-12 15:37:53.100 16929 16929 I caffe_jni: I0212 15:37:53.100551 16929 net.cpp:397] relu4 -> conv4 (in-place)
02-12 15:37:53.100 16929 16929 I caffe_jni: I0212 15:37:53.100579 16929 net.cpp:152] Setting up relu4
02-12 15:37:53.100 16929 16929 I caffe_jni: I0212 15:37:53.100596 16929 net.cpp:159] Top shape: 10 384 13 13 (648960)
02-12 15:37:53.100 16929 16929 I caffe_jni: I0212 15:37:53.100620 16929 net.cpp:167] Memory required for data: 63788600
02-12 15:37:53.100 16929 16929 I caffe_jni: I0212 15:37:53.100646 16929 layer_factory.hpp:77] Creating layer conv5
02-12 15:37:53.100 16929 16929 I caffe_jni: I0212 15:37:53.100677 16929 net.cpp:102] Creating Layer conv5
02-12 15:37:53.100 16929 16929 I caffe_jni: I0212 15:37:53.100697 16929 net.cpp:436] conv5 <- conv4
02-12 15:37:53.100 16929 16929 I caffe_jni: I0212 15:37:53.100718 16929 net.cpp:410] conv5 -> conv5
02-12 15:37:53.101 16929 16929 I caffe_jni: I0212 15:37:53.101704 16929 net.cpp:152] Setting up conv5
02-12 15:37:53.101 16929 16929 I caffe_jni: I0212 15:37:53.101760 16929 net.cpp:159] Top shape: 10 256 13 13 (432640)
02-12 15:37:53.101 16929 16929 I caffe_jni: I0212 15:37:53.101790 16929 net.cpp:167] Memory required for data: 65519160
02-12 15:37:53.101 16929 16929 I caffe_jni: I0212 15:37:53.101825 16929 layer_factory.hpp:77] Creating layer relu5
02-12 15:37:53.101 16929 16929 I caffe_jni: I0212 15:37:53.101851 16929 net.cpp:102] Creating Layer relu5
02-12 15:37:53.101 16929 16929 I caffe_jni: I0212 15:37:53.101871 16929 net.cpp:436] relu5 <- conv5
02-12 15:37:53.101 16929 16929 I caffe_jni: I0212 15:37:53.101891 16929 net.cpp:397] relu5 -> conv5 (in-place)
02-12 15:37:53.101 16929 16929 I caffe_jni: I0212 15:37:53.101917 16929 net.cpp:152] Setting up relu5
02-12 15:37:53.101 16929 16929 I caffe_jni: I0212 15:37:53.101934 16929 net.cpp:159] Top shape: 10 256 13 13 (432640)
02-12 15:37:53.101 16929 16929 I caffe_jni: I0212 15:37:53.101955 16929 net.cpp:167] Memory required for data: 67249720
02-12 15:37:53.101 16929 16929 I caffe_jni: I0212 15:37:53.101974 16929 layer_factory.hpp:77] Creating layer pool5
02-12 15:37:53.102 16929 16929 I caffe_jni: I0212 15:37:53.101997 16929 net.cpp:102] Creating Layer pool5
02-12 15:37:53.102 16929 16929 I caffe_jni: I0212 15:37:53.102020 16929 net.cpp:436] pool5 <- conv5
02-12 15:37:53.102 16929 16929 I caffe_jni: I0212 15:37:53.102041 16929 net.cpp:410] pool5 -> pool5
02-12 15:37:53.102 16929 16929 I caffe_jni: I0212 15:37:53.102074 16929 net.cpp:152] Setting up pool5
02-12 15:37:53.102 16929 16929 I caffe_jni: I0212 15:37:53.102093 16929 net.cpp:159] Top shape: 10 256 6 6 (92160)
02-12 15:37:53.102 16929 16929 I caffe_jni: I0212 15:37:53.102115 16929 net.cpp:167] Memory required for data: 67618360
02-12 15:37:53.102 16929 16929 I caffe_jni: I0212 15:37:53.102134 16929 layer_factory.hpp:77] Creating layer fc6
02-12 15:37:53.102 16929 16929 I caffe_jni: I0212 15:37:53.102159 16929 net.cpp:102] Creating Layer fc6
02-12 15:37:53.102 16929 16929 I caffe_jni: I0212 15:37:53.102177 16929 net.cpp:436] fc6 <- pool5
02-12 15:37:53.102 16929 16929 I caffe_jni: I0212 15:37:53.102197 16929 net.cpp:410] fc6 -> fc6
02-12 15:37:53.136  2005 20339 D HwRecentsLockUtils: Search
02-12 15:37:53.136  1900  3785 E HsmCoreServiceImpl: onTransact in code is: 103
02-12 15:37:53.136  1900  3785 I MediaProcessHandler: playingUids: 
02-12 15:37:53.137  1256  2753 I chatty  : uid=1000(system) Binder:1256_10 expire 20 lines
02-12 15:37:53.179 16929 16929 I caffe_jni: I0212 15:37:53.179802 16929 net.cpp:152] Setting up fc6
02-12 15:37:53.179 16929 16929 I caffe_jni: I0212 15:37:53.179878 16929 net.cpp:159] Top shape: 10 4096 (40960)
02-12 15:37:53.179 16929 16929 I caffe_jni: I0212 15:37:53.179913 16929 net.cpp:167] Memory required for data: 67782200
02-12 15:37:53.179 16929 16929 I caffe_jni: I0212 15:37:53.179942 16929 layer_factory.hpp:77] Creating layer relu6
02-12 15:37:53.179 16929 16929 I caffe_jni: I0212 15:37:53.179971 16929 net.cpp:102] Creating Layer relu6
02-12 15:37:53.179 16929 16929 I caffe_jni: I0212 15:37:53.179992 16929 net.cpp:436] relu6 <- fc6
02-12 15:37:53.180 16929 16929 I caffe_jni: I0212 15:37:53.180016 16929 net.cpp:397] relu6 -> fc6 (in-place)
02-12 15:37:53.180 16929 16929 I caffe_jni: I0212 15:37:53.180040 16929 net.cpp:152] Setting up relu6
02-12 15:37:53.180 16929 16929 I caffe_jni: I0212 15:37:53.180058 16929 net.cpp:159] Top shape: 10 4096 (40960)
02-12 15:37:53.180 16929 16929 I caffe_jni: I0212 15:37:53.180078 16929 net.cpp:167] Memory required for data: 67946040
02-12 15:37:53.180 16929 16929 I caffe_jni: I0212 15:37:53.180097 16929 layer_factory.hpp:77] Creating layer drop6
02-12 15:37:53.180 16929 16929 I caffe_jni: I0212 15:37:53.180126 16929 net.cpp:102] Creating Layer drop6
02-12 15:37:53.180 16929 16929 I caffe_jni: I0212 15:37:53.180145 16929 net.cpp:436] drop6 <- fc6
02-12 15:37:53.180 16929 16929 I caffe_jni: I0212 15:37:53.180164 16929 net.cpp:397] drop6 -> fc6 (in-place)
02-12 15:37:53.180 16929 16929 I caffe_jni: I0212 15:37:53.180192 16929 net.cpp:152] Setting up drop6
02-12 15:37:53.180 16929 16929 I caffe_jni: I0212 15:37:53.180212 16929 net.cpp:159] Top shape: 10 4096 (40960)
02-12 15:37:53.180 16929 16929 I caffe_jni: I0212 15:37:53.180233 16929 net.cpp:167] Memory required for data: 68109880
02-12 15:37:53.180 16929 16929 I caffe_jni: I0212 15:37:53.180256 16929 layer_factory.hpp:77] Creating layer fc7
02-12 15:37:53.180 16929 16929 I caffe_jni: I0212 15:37:53.180284 16929 net.cpp:102] Creating Layer fc7
02-12 15:37:53.180 16929 16929 I caffe_jni: I0212 15:37:53.180302 16929 net.cpp:436] fc7 <- fc6
02-12 15:37:53.180 16929 16929 I caffe_jni: I0212 15:37:53.180321 16929 net.cpp:410] fc7 -> fc7
02-12 15:37:53.214 16929 16929 I caffe_jni: I0212 15:37:53.214293 16929 net.cpp:152] Setting up fc7
02-12 15:37:53.214 16929 16929 I caffe_jni: I0212 15:37:53.214380 16929 net.cpp:159] Top shape: 10 4096 (40960)
02-12 15:37:53.214 16929 16929 I caffe_jni: I0212 15:37:53.214418 16929 net.cpp:167] Memory required for data: 68273720
02-12 15:37:53.214 16929 16929 I caffe_jni: I0212 15:37:53.214449 16929 layer_factory.hpp:77] Creating layer relu7
02-12 15:37:53.214 16929 16929 I caffe_jni: I0212 15:37:53.214478 16929 net.cpp:102] Creating Layer relu7
02-12 15:37:53.214 16929 16929 I caffe_jni: I0212 15:37:53.214506 16929 net.cpp:436] relu7 <- fc7
02-12 15:37:53.214 16929 16929 I caffe_jni: I0212 15:37:53.214531 16929 net.cpp:397] relu7 -> fc7 (in-place)
02-12 15:37:53.214 16929 16929 I caffe_jni: I0212 15:37:53.214557 16929 net.cpp:152] Setting up relu7
02-12 15:37:53.214 16929 16929 I caffe_jni: I0212 15:37:53.214577 16929 net.cpp:159] Top shape: 10 4096 (40960)
02-12 15:37:53.214 16929 16929 I caffe_jni: I0212 15:37:53.214597 16929 net.cpp:167] Memory required for data: 68437560
02-12 15:37:53.214 16929 16929 I caffe_jni: I0212 15:37:53.214622 16929 layer_factory.hpp:77] Creating layer drop7
02-12 15:37:53.214 16929 16929 I caffe_jni: I0212 15:37:53.214649 16929 net.cpp:102] Creating Layer drop7
02-12 15:37:53.214 16929 16929 I caffe_jni: I0212 15:37:53.214668 16929 net.cpp:436] drop7 <- fc7
02-12 15:37:53.214 16929 16929 I caffe_jni: I0212 15:37:53.214687 16929 net.cpp:397] drop7 -> fc7 (in-place)
02-12 15:37:53.214 16929 16929 I caffe_jni: I0212 15:37:53.214712 16929 net.cpp:152] Setting up drop7
02-12 15:37:53.214 16929 16929 I caffe_jni: I0212 15:37:53.214730 16929 net.cpp:159] Top shape: 10 4096 (40960)
02-12 15:37:53.214 16929 16929 I caffe_jni: I0212 15:37:53.214752 16929 net.cpp:167] Memory required for data: 68601400
02-12 15:37:53.214 16929 16929 I caffe_jni: I0212 15:37:53.214776 16929 layer_factory.hpp:77] Creating layer fc8
02-12 15:37:53.214 16929 16929 I caffe_jni: I0212 15:37:53.214810 16929 net.cpp:102] Creating Layer fc8
02-12 15:37:53.214 16929 16929 I caffe_jni: I0212 15:37:53.214830 16929 net.cpp:436] fc8 <- fc7
02-12 15:37:53.214 16929 16929 I caffe_jni: I0212 15:37:53.214854 16929 net.cpp:410] fc8 -> fc8
02-12 15:37:53.223 16929 16929 I caffe_jni: I0212 15:37:53.223083 16929 net.cpp:152] Setting up fc8
02-12 15:37:53.223 16929 16929 I caffe_jni: I0212 15:37:53.223168 16929 net.cpp:159] Top shape: 10 1000 (10000)
02-12 15:37:53.223 16929 16929 I caffe_jni: I0212 15:37:53.223212 16929 net.cpp:167] Memory required for data: 68641400
02-12 15:37:53.223 16929 16929 I caffe_jni: I0212 15:37:53.223249 16929 layer_factory.hpp:77] Creating layer prob
02-12 15:37:53.223 16929 16929 I caffe_jni: I0212 15:37:53.223278 16929 net.cpp:102] Creating Layer prob
02-12 15:37:53.223 16929 16929 I caffe_jni: I0212 15:37:53.223299 16929 net.cpp:436] prob <- fc8
02-12 15:37:53.223 16929 16929 I caffe_jni: I0212 15:37:53.223322 16929 net.cpp:410] prob -> prob
02-12 15:37:53.223 16929 16929 I caffe_jni: I0212 15:37:53.223372 16929 net.cpp:152] Setting up prob
02-12 15:37:53.223 16929 16929 I caffe_jni: I0212 15:37:53.223393 16929 net.cpp:159] Top shape: 10 1000 (10000)
02-12 15:37:53.223 16929 16929 I caffe_jni: I0212 15:37:53.223419 16929 net.cpp:167] Memory required for data: 68681400
02-12 15:37:53.223 16929 16929 I caffe_jni: I0212 15:37:53.223445 16929 net.cpp:230] prob does not need backward computation.
02-12 15:37:53.223 16929 16929 I caffe_jni: I0212 15:37:53.223464 16929 net.cpp:230] fc8 does not need backward computation.
02-12 15:37:53.223 16929 16929 I caffe_jni: I0212 15:37:53.223482 16929 net.cpp:230] drop7 does not need backward computation.
…
02-12 15:38:54.686 17022 17022 I caffe_jni:   top: "prob"
02-12 15:38:54.686 17022 17022 I caffe_jni: }
02-12 15:38:54.686 17022 17022 I caffe_jni: I0212 15:38:54.686573 17022 layer_factory.hpp:77] Creating layer data
02-12 15:38:54.686 17022 17022 I caffe_jni: I0212 15:38:54.686616 17022 net.cpp:102] Creating Layer data
02-12 15:38:54.686 17022 17022 I caffe_jni: I0212 15:38:54.686640 17022 net.cpp:410] data -> data
02-12 15:38:54.686 17022 17022 I caffe_jni: I0212 15:38:54.686678 17022 net.cpp:152] Setting up data
02-12 15:38:54.686 17022 17022 I caffe_jni: I0212 15:38:54.686698 17022 net.cpp:159] Top shape: 10 3 227 227 (1545870)
02-12 15:38:54.686 17022 17022 I caffe_jni: I0212 15:38:54.686725 17022 net.cpp:167] Memory required for data: 6183480
02-12 15:38:54.686 17022 17022 I caffe_jni: I0212 15:38:54.686744 17022 layer_factory.hpp:77] Creating layer conv1
02-12 15:38:54.686 17022 17022 I caffe_jni: I0212 15:38:54.686769 17022 net.cpp:102] Creating Layer conv1
02-12 15:38:54.686 17022 17022 I caffe_jni: I0212 15:38:54.686787 17022 net.cpp:436] conv1 <- data
02-12 15:38:54.686 17022 17022 I caffe_jni: I0212 15:38:54.686806 17022 net.cpp:410] conv1 -> conv1
02-12 15:38:54.687 17022 17022 I caffe_jni: I0212 15:38:54.687700 17022 net.cpp:152] Setting up conv1
02-12 15:38:54.687 17022 17022 I caffe_jni: I0212 15:38:54.687747 17022 net.cpp:159] Top shape: 10 96 55 55 (2904000)
02-12 15:38:54.687 17022 17022 I caffe_jni: I0212 15:38:54.687775 17022 net.cpp:167] Memory required for data: 17799480
02-12 15:38:54.687 17022 17022 I caffe_jni: I0212 15:38:54.687808 17022 layer_factory.hpp:77] Creating layer relu1
02-12 15:38:54.687 17022 17022 I caffe_jni: I0212 15:38:54.687832 17022 net.cpp:102] Creating Layer relu1
02-12 15:38:54.687 17022 17022 I caffe_jni: I0212 15:38:54.687851 17022 net.cpp:436] relu1 <- conv1
02-12 15:38:54.687 17022 17022 I caffe_jni: I0212 15:38:54.687871 17022 net.cpp:397] relu1 -> conv1 (in-place)
02-12 15:38:54.687 17022 17022 I caffe_jni: I0212 15:38:54.687893 17022 net.cpp:152] Setting up relu1
02-12 15:38:54.687 17022 17022 I caffe_jni: I0212 15:38:54.687911 17022 net.cpp:159] Top shape: 10 96 55 55 (2904000)
02-12 15:38:54.687 17022 17022 I caffe_jni: I0212 15:38:54.687932 17022 net.cpp:167] Memory required for data: 29415480
02-12 15:38:54.687 17022 17022 I caffe_jni: I0212 15:38:54.687950 17022 layer_factory.hpp:77] Creating layer pool1
02-12 15:38:54.687 17022 17022 I caffe_jni: I0212 15:38:54.687970 17022 net.cpp:102] Creating Layer pool1
02-12 15:38:54.687 17022 17022 I caffe_jni: I0212 15:38:54.687988 17022 net.cpp:436] pool1 <- conv1
02-12 15:38:54.688 17022 17022 I caffe_jni: I0212 15:38:54.688006 17022 net.cpp:410] pool1 -> pool1
02-12 15:38:54.688 17022 17022 I caffe_jni: I0212 15:38:54.688037 17022 net.cpp:152] Setting up pool1
02-12 15:38:54.688 17022 17022 I caffe_jni: I0212 15:38:54.688056 17022 net.cpp:159] Top shape: 10 96 27 27 (699840)
02-12 15:38:54.688 17022 17022 I caffe_jni: I0212 15:38:54.688078 17022 net.cpp:167] Memory required for data: 32214840
02-12 15:38:54.688 17022 17022 I caffe_jni: I0212 15:38:54.688097 17022 layer_factory.hpp:77] Creating layer norm1
02-12 15:38:54.688 17022 17022 I caffe_jni: I0212 15:38:54.688117 17022 net.cpp:102] Creating Layer norm1
02-12 15:38:54.688 17022 17022 I caffe_jni: I0212 15:38:54.688135 17022 net.cpp:436] norm1 <- pool1
02-12 15:38:54.688 17022 17022 I caffe_jni: I0212 15:38:54.688155 17022 net.cpp:410] norm1 -> norm1
02-12 15:38:54.688 17022 17022 I caffe_jni: I0212 15:38:54.688182 17022 net.cpp:152] Setting up norm1
02-12 15:38:54.688 17022 17022 I caffe_jni: I0212 15:38:54.688200 17022 net.cpp:159] Top shape: 10 96 27 27 (699840)
02-12 15:38:54.688 17022 17022 I caffe_jni: I0212 15:38:54.688228 17022 net.cpp:167] Memory required for data: 35014200
02-12 15:38:54.688 17022 17022 I caffe_jni: I0212 15:38:54.688247 17022 layer_factory.hpp:77] Creating layer conv2
02-12 15:38:54.688 17022 17022 I caffe_jni: I0212 15:38:54.688269 17022 net.cpp:102] Creating Layer conv2
02-12 15:38:54.688 17022 17022 I caffe_jni: I0212 15:38:54.688287 17022 net.cpp:436] conv2 <- norm1
02-12 15:38:54.688 17022 17022 I caffe_jni: I0212 15:38:54.688307 17022 net.cpp:410] conv2 -> conv2
02-12 15:38:54.688 17022 17022 I caffe_jni: I0212 15:38:54.688937 17022 net.cpp:152] Setting up conv2
02-12 15:38:54.688 17022 17022 I caffe_jni: I0212 15:38:54.688982 17022 net.cpp:159] Top shape: 10 256 27 27 (1866240)
02-12 15:38:54.689 17022 17022 I caffe_jni: I0212 15:38:54.689010 17022 net.cpp:167] Memory required for data: 42479160
02-12 15:38:54.689 17022 17022 I caffe_jni: I0212 15:38:54.689039 17022 layer_factory.hpp:77] Creating layer relu2
02-12 15:38:54.689 17022 17022 I caffe_jni: I0212 15:38:54.689064 17022 net.cpp:102] Creating Layer relu2
02-12 15:38:54.689 17022 17022 I caffe_jni: I0212 15:38:54.689081 17022 net.cpp:436] relu2 <- conv2
02-12 15:38:54.689 17022 17022 I caffe_jni: I0212 15:38:54.689100 17022 net.cpp:397] relu2 -> conv2 (in-place)
02-12 15:38:54.689 17022 17022 I caffe_jni: I0212 15:38:54.689123 17022 net.cpp:152] Setting up relu2
02-12 15:38:54.689 17022 17022 I caffe_jni: I0212 15:38:54.689141 17022 net.cpp:159] Top shape: 10 256 27 27 (1866240)
02-12 15:38:54.689 17022 17022 I caffe_jni: I0212 15:38:54.689162 17022 net.cpp:167] Memory required for data: 49944120
02-12 15:38:54.689 17022 17022 I caffe_jni: I0212 15:38:54.689180 17022 layer_factory.hpp:77] Creating layer pool2
02-12 15:38:54.689 17022 17022 I caffe_jni: I0212 15:38:54.689201 17022 net.cpp:102] Creating Layer pool2
02-12 15:38:54.689 17022 17022 I caffe_jni: I0212 15:38:54.689218 17022 net.cpp:436] pool2 <- conv2
02-12 15:38:54.689 17022 17022 I caffe_jni: I0212 15:38:54.689237 17022 net.cpp:410] pool2 -> pool2
02-12 15:38:54.689 17022 17022 I caffe_jni: I0212 15:38:54.689265 17022 net.cpp:152] Setting up pool2
02-12 15:38:54.689 17022 17022 I caffe_jni: I0212 15:38:54.689282 17022 net.cpp:159] Top shape: 10 256 13 13 (432640)
02-12 15:38:54.689 17022 17022 I caffe_jni: I0212 15:38:54.689306 17022 net.cpp:167] Memory required for data: 51674680
02-12 15:38:54.689 17022 17022 I caffe_jni: I0212 15:38:54.689324 17022 layer_factory.hpp:77] Creating layer norm2
02-12 15:38:54.689 17022 17022 I caffe_jni: I0212 15:38:54.689345 17022 net.cpp:102] Creating Layer norm2
02-12 15:38:54.689 17022 17022 I caffe_jni: I0212 15:38:54.689363 17022 net.cpp:436] norm2 <- pool2
02-12 15:38:54.689 17022 17022 I caffe_jni: I0212 15:38:54.689381 17022 net.cpp:410] norm2 -> norm2
02-12 15:38:54.689 17022 17022 I caffe_jni: I0212 15:38:54.689406 17022 net.cpp:152] Setting up norm2
02-12 15:38:54.689 17022 17022 I caffe_jni: I0212 15:38:54.689424 17022 net.cpp:159] Top shape: 10 256 13 13 (432640)
02-12 15:38:54.689 17022 17022 I caffe_jni: I0212 15:38:54.689445 17022 net.cpp:167] Memory required for data: 53405240
02-12 15:38:54.689 17022 17022 I caffe_jni: I0212 15:38:54.689463 17022 layer_factory.hpp:77] Creating layer conv3
02-12 15:38:54.689 17022 17022 I caffe_jni: I0212 15:38:54.689484 17022 net.cpp:102] Creating Layer conv3
02-12 15:38:54.689 17022 17022 I caffe_jni: I0212 15:38:54.689502 17022 net.cpp:436] conv3 <- norm2
02-12 15:38:54.689 17022 17022 I caffe_jni: I0212 15:38:54.689522 17022 net.cpp:410] conv3 -> conv3
02-12 15:38:54.691 17022 17022 I caffe_jni: I0212 15:38:54.691360 17022 net.cpp:152] Setting up conv3
02-12 15:38:54.691 17022 17022 I caffe_jni: I0212 15:38:54.691453 17022 net.cpp:159] Top shape: 10 384 13 13 (648960)
02-12 15:38:54.691 17022 17022 I caffe_jni: I0212 15:38:54.691493 17022 net.cpp:167] Memory required for data: 56001080
02-12 15:38:54.691 17022 17022 I caffe_jni: I0212 15:38:54.691529 17022 layer_factory.hpp:77] Creating layer relu3
02-12 15:38:54.691 17022 17022 I caffe_jni: I0212 15:38:54.691567 17022 net.cpp:102] Creating Layer relu3
02-12 15:38:54.691 17022 17022 I caffe_jni: I0212 15:38:54.691589 17022 net.cpp:436] relu3 <- conv3
02-12 15:38:54.691 17022 17022 I caffe_jni: I0212 15:38:54.691618 17022 net.cpp:397] relu3 -> conv3 (in-place)
02-12 15:38:54.691 17022 17022 I caffe_jni: I0212 15:38:54.691646 17022 net.cpp:152] Setting up relu3
02-12 15:38:54.691 17022 17022 I caffe_jni: I0212 15:38:54.691666 17022 net.cpp:159] Top shape: 10 384 13 13 (648960)
02-12 15:38:54.691 17022 17022 I caffe_jni: I0212 15:38:54.691694 17022 net.cpp:167] Memory required for data: 58596920
02-12 15:38:54.691 17022 17022 I caffe_jni: I0212 15:38:54.691722 17022 layer_factory.hpp:77] Creating layer conv4
02-12 15:38:54.691 17022 17022 I caffe_jni: I0212 15:38:54.691751 17022 net.cpp:102] Creating Layer conv4
02-12 15:38:54.691 17022 17022 I caffe_jni: I0212 15:38:54.691769 17022 net.cpp:436] conv4 <- conv3
02-12 15:38:54.691 17022 17022 I caffe_jni: I0212 15:38:54.691788 17022 net.cpp:410] conv4 -> conv4
02-12 15:38:54.693 17022 17022 I caffe_jni: I0212 15:38:54.693228 17022 net.cpp:152] Setting up conv4
02-12 15:38:54.693 17022 17022 I caffe_jni: I0212 15:38:54.693310 17022 net.cpp:159] Top shape: 10 384 13 13 (648960)
02-12 15:38:54.693 17022 17022 I caffe_jni: I0212 15:38:54.693349 17022 net.cpp:167] Memory required for data: 61192760
02-12 15:38:54.693 17022 17022 I caffe_jni: I0212 15:38:54.693382 17022 layer_factory.hpp:77] Creating layer relu4
02-12 15:38:54.693 17022 17022 I caffe_jni: I0212 15:38:54.693413 17022 net.cpp:102] Creating Layer relu4
02-12 15:38:54.693 17022 17022 I caffe_jni: I0212 15:38:54.693431 17022 net.cpp:436] relu4 <- conv4
02-12 15:38:54.693 17022 17022 I caffe_jni: I0212 15:38:54.693462 17022 net.cpp:397] relu4 -> conv4 (in-place)
02-12 15:38:54.693 17022 17022 I caffe_jni: I0212 15:38:54.693497 17022 net.cpp:152] Setting up relu4
02-12 15:38:54.693 17022 17022 I caffe_jni: I0212 15:38:54.693516 17022 net.cpp:159] Top shape: 10 384 13 13 (648960)
02-12 15:38:54.693 17022 17022 I caffe_jni: I0212 15:38:54.693537 17022 net.cpp:167] Memory required for data: 63788600
02-12 15:38:54.693 17022 17022 I caffe_jni: I0212 15:38:54.693555 17022 layer_factory.hpp:77] Creating layer conv5
02-12 15:38:54.693 17022 17022 I caffe_jni: I0212 15:38:54.693596 17022 net.cpp:102] Creating Layer conv5
02-12 15:38:54.693 17022 17022 I caffe_jni: I0212 15:38:54.693616 17022 net.cpp:436] conv5 <- conv4
02-12 15:38:54.693 17022 17022 I caffe_jni: I0212 15:38:54.693639 17022 net.cpp:410] conv5 -> conv5
02-12 15:38:54.694 17022 17022 I caffe_jni: I0212 15:38:54.694633 17022 net.cpp:152] Setting up conv5
02-12 15:38:54.694 17022 17022 I caffe_jni: I0212 15:38:54.694690 17022 net.cpp:159] Top shape: 10 256 13 13 (432640)
02-12 15:38:54.694 17022 17022 I caffe_jni: I0212 15:38:54.694720 17022 net.cpp:167] Memory required for data: 65519160
02-12 15:38:54.694 17022 17022 I caffe_jni: I0212 15:38:54.694757 17022 layer_factory.hpp:77] Creating layer relu5
02-12 15:38:54.694 17022 17022 I caffe_jni: I0212 15:38:54.694792 17022 net.cpp:102] Creating Layer relu5
02-12 15:38:54.694 17022 17022 I caffe_jni: I0212 15:38:54.694818 17022 net.cpp:436] relu5 <- conv5
02-12 15:38:54.694 17022 17022 I caffe_jni: I0212 15:38:54.694841 17022 net.cpp:397] relu5 -> conv5 (in-place)
02-12 15:38:54.694 17022 17022 I caffe_jni: I0212 15:38:54.694865 17022 net.cpp:152] Setting up relu5
02-12 15:38:54.694 17022 17022 I caffe_jni: I0212 15:38:54.694882 17022 net.cpp:159] Top shape: 10 256 13 13 (432640)
02-12 15:38:54.694 17022 17022 I caffe_jni: I0212 15:38:54.694905 17022 net.cpp:167] Memory required for data: 67249720
02-12 15:38:54.694 17022 17022 I caffe_jni: I0212 15:38:54.694924 17022 layer_factory.hpp:77] Creating layer pool5
02-12 15:38:54.694 17022 17022 I caffe_jni: I0212 15:38:54.694947 17022 net.cpp:102] Creating Layer pool5
02-12 15:38:54.694 17022 17022 I caffe_jni: I0212 15:38:54.694967 17022 net.cpp:436] pool5 <- conv5
02-12 15:38:54.694 17022 17022 I caffe_jni: I0212 15:38:54.694986 17022 net.cpp:410] pool5 -> pool5
02-12 15:38:54.695 17022 17022 I caffe_jni: I0212 15:38:54.695017 17022 net.cpp:152] Setting up pool5
02-12 15:38:54.695 17022 17022 I caffe_jni: I0212 15:38:54.695067 17022 net.cpp:159] Top shape: 10 256 6 6 (92160)
02-12 15:38:54.695 17022 17022 I caffe_jni: I0212 15:38:54.695096 17022 net.cpp:167] Memory required for data: 67618360
02-12 15:38:54.695 17022 17022 I caffe_jni: I0212 15:38:54.695116 17022 layer_factory.hpp:77] Creating layer fc6
02-12 15:38:54.695 17022 17022 I caffe_jni: I0212 15:38:54.695140 17022 net.cpp:102] Creating Layer fc6
02-12 15:38:54.695 17022 17022 I caffe_jni: I0212 15:38:54.695158 17022 net.cpp:436] fc6 <- pool5
…
02-12 15:38:54.762   703  1834 D DE N HWC: apply:55: FEATURE_HUE: mEnable=0 enable=0
02-12 15:38:54.762   703  1834 D DE N HWC: apply:55: FEATURE_SAT: mEnable=0 enable=0
02-12 15:38:54.762   703  1834 D DE N HWC: apply:55: FEATURE_PANEL_INFO: mEnable=0 enable=0
02-12 15:38:54.762   703  1834 D DE N HWC: apply:55: FEATURE_DDIC_RGBW: mEnable=0 enable=0
02-12 15:38:54.762   703  1834 D DE N HWC: apply:55: FEATURE_DDIC_CABC: mEnable=0 enable=0
02-12 15:38:54.773 17022 17022 I caffe_jni: I0212 15:38:54.773304 17022 net.cpp:152] Setting up fc6
02-12 15:38:54.773 17022 17022 I caffe_jni: I0212 15:38:54.773380 17022 net.cpp:159] Top shape: 10 4096 (40960)
02-12 15:38:54.773 17022 17022 I caffe_jni: I0212 15:38:54.773408 17022 net.cpp:167] Memory required for data: 67782200
02-12 15:38:54.773 17022 17022 I caffe_jni: I0212 15:38:54.773437 17022 layer_factory.hpp:77] Creating layer relu6
02-12 15:38:54.773 17022 17022 I caffe_jni: I0212 15:38:54.773466 17022 net.cpp:102] Creating Layer relu6
02-12 15:38:54.773 17022 17022 I caffe_jni: I0212 15:38:54.773486 17022 net.cpp:436] relu6 <- fc6
02-12 15:38:54.773 17022 17022 I caffe_jni: I0212 15:38:54.773509 17022 net.cpp:397] relu6 -> fc6 (in-place)
02-12 15:38:54.773 17022 17022 I caffe_jni: I0212 15:38:54.773535 17022 net.cpp:152] Setting up relu6
02-12 15:38:54.773 17022 17022 I caffe_jni: I0212 15:38:54.773558 17022 net.cpp:159] Top shape: 10 4096 (40960)
02-12 15:38:54.773 17022 17022 I caffe_jni: I0212 15:38:54.773581 17022 net.cpp:167] Memory required for data: 67946040
02-12 15:38:54.773 17022 17022 I caffe_jni: I0212 15:38:54.773600 17022 layer_factory.hpp:77] Creating layer drop6
02-12 15:38:54.773 17022 17022 I caffe_jni: I0212 15:38:54.773630 17022 net.cpp:102] Creating Layer drop6
02-12 15:38:54.773 17022 17022 I caffe_jni: I0212 15:38:54.773648 17022 net.cpp:436] drop6 <- fc6
02-12 15:38:54.773 17022 17022 I caffe_jni: I0212 15:38:54.773669 17022 net.cpp:397] drop6 -> fc6 (in-place)
02-12 15:38:54.773 17022 17022 I caffe_jni: I0212 15:38:54.773694 17022 net.cpp:152] Setting up drop6
02-12 15:38:54.773 17022 17022 I caffe_jni: I0212 15:38:54.773712 17022 net.cpp:159] Top shape: 10 4096 (40960)
02-12 15:38:54.773 17022 17022 I caffe_jni: I0212 15:38:54.773731 17022 net.cpp:167] Memory required for data: 68109880
02-12 15:38:54.773 17022 17022 I caffe_jni: I0212 15:38:54.773749 17022 layer_factory.hpp:77] Creating layer fc7
02-12 15:38:54.773 17022 17022 I caffe_jni: I0212 15:38:54.773772 17022 net.cpp:102] Creating Layer fc7
02-12 15:38:54.773 17022 17022 I caffe_jni: I0212 15:38:54.773789 17022 net.cpp:436] fc7 <- fc6
02-12 15:38:54.773 17022 17022 I caffe_jni: I0212 15:38:54.773808 17022 net.cpp:410] fc7 -> fc7
02-12 15:38:54.778   703  1832 D DE N VH : run:148: Stop
02-12 15:38:54.808 17022 17022 I caffe_jni: I0212 15:38:54.808425 17022 net.cpp:152] Setting up fc7
02-12 15:38:54.808 17022 17022 I caffe_jni: I0212 15:38:54.808495 17022 net.cpp:159] Top shape: 10 4096 (40960)
02-12 15:38:54.808 17022 17022 I caffe_jni: I0212 15:38:54.808526 17022 net.cpp:167] Memory required for data: 68273720
02-12 15:38:54.808 17022 17022 I caffe_jni: I0212 15:38:54.808557 17022 layer_factory.hpp:77] Creating layer relu7
02-12 15:38:54.808 17022 17022 I caffe_jni: I0212 15:38:54.808585 17022 net.cpp:102] Creating Layer relu7
02-12 15:38:54.808 17022 17022 I caffe_jni: I0212 15:38:54.808612 17022 net.cpp:436] relu7 <- fc7
02-12 15:38:54.808 17022 17022 I caffe_jni: I0212 15:38:54.808636 17022 net.cpp:397] relu7 -> fc7 (in-place)
02-12 15:38:54.808 17022 17022 I caffe_jni: I0212 15:38:54.808663 17022 net.cpp:152] Setting up relu7
02-12 15:38:54.808 17022 17022 I caffe_jni: I0212 15:38:54.808681 17022 net.cpp:159] Top shape: 10 4096 (40960)
02-12 15:38:54.808 17022 17022 I caffe_jni: I0212 15:38:54.808717 17022 net.cpp:167] Memory required for data: 68437560
02-12 15:38:54.808 17022 17022 I caffe_jni: I0212 15:38:54.808737 17022 layer_factory.hpp:77] Creating layer drop7
02-12 15:38:54.808 17022 17022 I caffe_jni: I0212 15:38:54.808760 17022 net.cpp:102] Creating Layer drop7
02-12 15:38:54.808 17022 17022 I caffe_jni: I0212 15:38:54.808779 17022 net.cpp:436] drop7 <- fc7
02-12 15:38:54.808 17022 17022 I caffe_jni: I0212 15:38:54.808797 17022 net.cpp:397] drop7 -> fc7 (in-place)
02-12 15:38:54.808 17022 17022 I caffe_jni: I0212 15:38:54.808822 17022 net.cpp:152] Setting up drop7
02-12 15:38:54.808 17022 17022 I caffe_jni: I0212 15:38:54.808840 17022 net.cpp:159] Top shape: 10 4096 (40960)
02-12 15:38:54.808 17022 17022 I caffe_jni: I0212 15:38:54.808862 17022 net.cpp:167] Memory required for data: 68601400
02-12 15:38:54.808 17022 17022 I caffe_jni: I0212 15:38:54.808881 17022 layer_factory.hpp:77] Creating layer fc8
02-12 15:38:54.808 17022 17022 I caffe_jni: I0212 15:38:54.808904 17022 net.cpp:102] Creating Layer fc8
02-12 15:38:54.808 17022 17022 I caffe_jni: I0212 15:38:54.808923 17022 net.cpp:436] fc8 <- fc7
02-12 15:38:54.808 17022 17022 I caffe_jni: I0212 15:38:54.808948 17022 net.cpp:410] fc8 -> fc8
02-12 15:38:54.817 17022 17022 I caffe_jni: I0212 15:38:54.817138 17022 net.cpp:152] Setting up fc8
02-12 15:38:54.817 17022 17022 I caffe_jni: I0212 15:38:54.817225 17022 net.cpp:159] Top shape: 10 1000 (10000)
02-12 15:38:54.817 17022 17022 I caffe_jni: I0212 15:38:54.817263 17022 net.cpp:167] Memory required for data: 68641400
02-12 15:38:54.817 17022 17022 I caffe_jni: I0212 15:38:54.817293 17022 layer_factory.hpp:77] Creating layer prob
02-12 15:38:54.817 17022 17022 I caffe_jni: I0212 15:38:54.817322 17022 net.cpp:102] Creating Layer prob
02-12 15:38:54.817 17022 17022 I caffe_jni: I0212 15:38:54.817342 17022 net.cpp:436] prob <- fc8
02-12 15:38:54.817 17022 17022 I caffe_jni: I0212 15:38:54.817368 17022 net.cpp:410] prob -> prob
02-12 15:38:54.817 17022 17022 I caffe_jni: I0212 15:38:54.817410 17022 net.cpp:152] Setting up prob
02-12 15:38:54.817 17022 17022 I caffe_jni: I0212 15:38:54.817430 17022 net.cpp:159] Top shape: 10 1000 (10000)
02-12 15:38:54.817 17022 17022 I caffe_jni: I0212 15:38:54.817451 17022 net.cpp:167] Memory required for data: 68681400
02-12 15:38:54.817 17022 17022 I caffe_jni: I0212 15:38:54.817471 17022 net.cpp:230] prob does not need backward computation.
02-12 15:38:54.817 17022 17022 I caffe_jni: I0212 15:38:54.817489 17022 net.cpp:230] fc8 does not need backward computation.
02-12 15:38:54.817 17022 17022 I caffe_jni: I0212 15:38:54.817515 17022 net.cpp:230] drop7 does not need backward computation.
…
02-12 15:39:10.614 17163 17163 I caffe_jni:   top: "prob"
02-12 15:39:10.614 17163 17163 I caffe_jni: }
02-12 15:39:10.614 17163 17163 I caffe_jni: I0212 15:39:10.614964 17163 layer_factory.hpp:77] Creating layer data
02-12 15:39:10.615 17163 17163 I caffe_jni: I0212 15:39:10.615003 17163 net.cpp:102] Creating Layer data
02-12 15:39:10.615 17163 17163 I caffe_jni: I0212 15:39:10.615028 17163 net.cpp:410] data -> data
02-12 15:39:10.615 17163 17163 I caffe_jni: I0212 15:39:10.615078 17163 net.cpp:152] Setting up data
02-12 15:39:10.615 17163 17163 I caffe_jni: I0212 15:39:10.615098 17163 net.cpp:159] Top shape: 10 3 227 227 (1545870)
02-12 15:39:10.615 17163 17163 I caffe_jni: I0212 15:39:10.615126 17163 net.cpp:167] Memory required for data: 6183480
02-12 15:39:10.615 17163 17163 I caffe_jni: I0212 15:39:10.615146 17163 layer_factory.hpp:77] Creating layer conv1
02-12 15:39:10.615 17163 17163 I caffe_jni: I0212 15:39:10.615171 17163 net.cpp:102] Creating Layer conv1
02-12 15:39:10.615 17163 17163 I caffe_jni: I0212 15:39:10.615190 17163 net.cpp:436] conv1 <- data
02-12 15:39:10.615 17163 17163 I caffe_jni: I0212 15:39:10.615211 17163 net.cpp:410] conv1 -> conv1
02-12 15:39:10.615 17163 17163 I caffe_jni: I0212 15:39:10.615366 17163 net.cpp:152] Setting up conv1
02-12 15:39:10.615 17163 17163 I caffe_jni: I0212 15:39:10.615396 17163 net.cpp:159] Top shape: 10 96 55 55 (2904000)
02-12 15:39:10.615 17163 17163 I caffe_jni: I0212 15:39:10.615419 17163 net.cpp:167] Memory required for data: 17799480
02-12 15:39:10.615 17163 17163 I caffe_jni: I0212 15:39:10.615447 17163 layer_factory.hpp:77] Creating layer relu1
02-12 15:39:10.615 17163 17163 I caffe_jni: I0212 15:39:10.615469 17163 net.cpp:102] Creating Layer relu1
02-12 15:39:10.615 17163 17163 I caffe_jni: I0212 15:39:10.615489 17163 net.cpp:436] relu1 <- conv1
02-12 15:39:10.615 17163 17163 I caffe_jni: I0212 15:39:10.615507 17163 net.cpp:397] relu1 -> conv1 (in-place)
02-12 15:39:10.615 17163 17163 I caffe_jni: I0212 15:39:10.615530 17163 net.cpp:152] Setting up relu1
02-12 15:39:10.615 17163 17163 I caffe_jni: I0212 15:39:10.615547 17163 net.cpp:159] Top shape: 10 96 55 55 (2904000)
02-12 15:39:10.615 17163 17163 I caffe_jni: I0212 15:39:10.615568 17163 net.cpp:167] Memory required for data: 29415480
02-12 15:39:10.615 17163 17163 I caffe_jni: I0212 15:39:10.615586 17163 layer_factory.hpp:77] Creating layer pool1
02-12 15:39:10.615 17163 17163 I caffe_jni: I0212 15:39:10.615604 17163 net.cpp:102] Creating Layer pool1
02-12 15:39:10.615 17163 17163 I caffe_jni: I0212 15:39:10.615622 17163 net.cpp:436] pool1 <- conv1
02-12 15:39:10.615 17163 17163 I caffe_jni: I0212 15:39:10.615640 17163 net.cpp:410] pool1 -> pool1
02-12 15:39:10.615 17163 17163 I caffe_jni: I0212 15:39:10.615670 17163 net.cpp:152] Setting up pool1
02-12 15:39:10.615 17163 17163 I caffe_jni: I0212 15:39:10.615689 17163 net.cpp:159] Top shape: 10 96 27 27 (699840)
02-12 15:39:10.615 17163 17163 I caffe_jni: I0212 15:39:10.615711 17163 net.cpp:167] Memory required for data: 32214840
02-12 15:39:10.615 17163 17163 I caffe_jni: I0212 15:39:10.615730 17163 layer_factory.hpp:77] Creating layer norm1
02-12 15:39:10.615 17163 17163 I caffe_jni: I0212 15:39:10.615749 17163 net.cpp:102] Creating Layer norm1
02-12 15:39:10.615 17163 17163 I caffe_jni: I0212 15:39:10.615767 17163 net.cpp:436] norm1 <- pool1
02-12 15:39:10.615 17163 17163 I caffe_jni: I0212 15:39:10.615787 17163 net.cpp:410] norm1 -> norm1
02-12 15:39:10.615 17163 17163 I caffe_jni: I0212 15:39:10.615814 17163 net.cpp:152] Setting up norm1
02-12 15:39:10.615 17163 17163 I caffe_jni: I0212 15:39:10.615833 17163 net.cpp:159] Top shape: 10 96 27 27 (699840)
02-12 15:39:10.615 17163 17163 I caffe_jni: I0212 15:39:10.615854 17163 net.cpp:167] Memory required for data: 35014200
02-12 15:39:10.615 17163 17163 I caffe_jni: I0212 15:39:10.615872 17163 layer_factory.hpp:77] Creating layer conv2
02-12 15:39:10.615 17163 17163 I caffe_jni: I0212 15:39:10.615893 17163 net.cpp:102] Creating Layer conv2
02-12 15:39:10.615 17163 17163 I caffe_jni: I0212 15:39:10.615911 17163 net.cpp:436] conv2 <- norm1
02-12 15:39:10.615 17163 17163 I caffe_jni: I0212 15:39:10.615931 17163 net.cpp:410] conv2 -> conv2
02-12 15:39:10.616 17163 17163 I caffe_jni: I0212 15:39:10.616549 17163 net.cpp:152] Setting up conv2
02-12 15:39:10.616 17163 17163 I caffe_jni: I0212 15:39:10.616592 17163 net.cpp:159] Top shape: 10 256 27 27 (1866240)
02-12 15:39:10.616 17163 17163 I caffe_jni: I0212 15:39:10.616618 17163 net.cpp:167] Memory required for data: 42479160
02-12 15:39:10.616 17163 17163 I caffe_jni: I0212 15:39:10.616647 17163 layer_factory.hpp:77] Creating layer relu2
02-12 15:39:10.616 17163 17163 I caffe_jni: I0212 15:39:10.616670 17163 net.cpp:102] Creating Layer relu2
02-12 15:39:10.616 17163 17163 I caffe_jni: I0212 15:39:10.616689 17163 net.cpp:436] relu2 <- conv2
02-12 15:39:10.616 17163 17163 I caffe_jni: I0212 15:39:10.616709 17163 net.cpp:397] relu2 -> conv2 (in-place)
02-12 15:39:10.616 17163 17163 I caffe_jni: I0212 15:39:10.616732 17163 net.cpp:152] Setting up relu2
02-12 15:39:10.616 17163 17163 I caffe_jni: I0212 15:39:10.616750 17163 net.cpp:159] Top shape: 10 256 27 27 (1866240)
02-12 15:39:10.616 17163 17163 I caffe_jni: I0212 15:39:10.616771 17163 net.cpp:167] Memory required for data: 49944120
02-12 15:39:10.616 17163 17163 I caffe_jni: I0212 15:39:10.616791 17163 layer_factory.hpp:77] Creating layer pool2
02-12 15:39:10.616 17163 17163 I caffe_jni: I0212 15:39:10.616811 17163 net.cpp:102] Creating Layer pool2
02-12 15:39:10.616 17163 17163 I caffe_jni: I0212 15:39:10.616828 17163 net.cpp:436] pool2 <- conv2
02-12 15:39:10.616 17163 17163 I caffe_jni: I0212 15:39:10.616848 17163 net.cpp:410] pool2 -> pool2
02-12 15:39:10.616 17163 17163 I caffe_jni: I0212 15:39:10.616876 17163 net.cpp:152] Setting up pool2
02-12 15:39:10.616 17163 17163 I caffe_jni: I0212 15:39:10.616895 17163 net.cpp:159] Top shape: 10 256 13 13 (432640)
02-12 15:39:10.616 17163 17163 I caffe_jni: I0212 15:39:10.616916 17163 net.cpp:167] Memory required for data: 51674680
02-12 15:39:10.616 17163 17163 I caffe_jni: I0212 15:39:10.616936 17163 layer_factory.hpp:77] Creating layer norm2
02-12 15:39:10.616 17163 17163 I caffe_jni: I0212 15:39:10.616960 17163 net.cpp:102] Creating Layer norm2
02-12 15:39:10.616 17163 17163 I caffe_jni: I0212 15:39:10.616978 17163 net.cpp:436] norm2 <- pool2
02-12 15:39:10.617 17163 17163 I caffe_jni: I0212 15:39:10.616997 17163 net.cpp:410] norm2 -> norm2
02-12 15:39:10.617 17163 17163 I caffe_jni: I0212 15:39:10.617022 17163 net.cpp:152] Setting up norm2
02-12 15:39:10.617 17163 17163 I caffe_jni: I0212 15:39:10.617041 17163 net.cpp:159] Top shape: 10 256 13 13 (432640)
02-12 15:39:10.617 17163 17163 I caffe_jni: I0212 15:39:10.617063 17163 net.cpp:167] Memory required for data: 53405240
02-12 15:39:10.617 17163 17163 I caffe_jni: I0212 15:39:10.617080 17163 layer_factory.hpp:77] Creating layer conv3
02-12 15:39:10.617 17163 17163 I caffe_jni: I0212 15:39:10.617103 17163 net.cpp:102] Creating Layer conv3
02-12 15:39:10.617 17163 17163 I caffe_jni: I0212 15:39:10.617120 17163 net.cpp:436] conv3 <- norm2
02-12 15:39:10.617 17163 17163 I caffe_jni: I0212 15:39:10.617139 17163 net.cpp:410] conv3 -> conv3
02-12 15:39:10.618 17163 17163 I caffe_jni: I0212 15:39:10.618875 17163 net.cpp:152] Setting up conv3
02-12 15:39:10.618 17163 17163 I caffe_jni: I0212 15:39:10.618963 17163 net.cpp:159] Top shape: 10 384 13 13 (648960)
02-12 15:39:10.619 17163 17163 I caffe_jni: I0212 15:39:10.619004 17163 net.cpp:167] Memory required for data: 56001080
02-12 15:39:10.619 17163 17163 I caffe_jni: I0212 15:39:10.619060 17163 layer_factory.hpp:77] Creating layer relu3
02-12 15:39:10.619 17163 17163 I caffe_jni: I0212 15:39:10.619092 17163 net.cpp:102] Creating Layer relu3
02-12 15:39:10.619 17163 17163 I caffe_jni: I0212 15:39:10.619112 17163 net.cpp:436] relu3 <- conv3
02-12 15:39:10.619 17163 17163 I caffe_jni: I0212 15:39:10.619135 17163 net.cpp:397] relu3 -> conv3 (in-place)
02-12 15:39:10.619 17163 17163 I caffe_jni: I0212 15:39:10.619164 17163 net.cpp:152] Setting up relu3
02-12 15:39:10.619 17163 17163 I caffe_jni: I0212 15:39:10.619195 17163 net.cpp:159] Top shape: 10 384 13 13 (648960)
02-12 15:39:10.619 17163 17163 I caffe_jni: I0212 15:39:10.619218 17163 net.cpp:167] Memory required for data: 58596920
02-12 15:39:10.619 17163 17163 I caffe_jni: I0212 15:39:10.619238 17163 layer_factory.hpp:77] Creating layer conv4
02-12 15:39:10.619 17163 17163 I caffe_jni: I0212 15:39:10.619264 17163 net.cpp:102] Creating Layer conv4
02-12 15:39:10.619 17163 17163 I caffe_jni: I0212 15:39:10.619288 17163 net.cpp:436] conv4 <- conv3
02-12 15:39:10.619 17163 17163 I caffe_jni: I0212 15:39:10.619308 17163 net.cpp:410] conv4 -> conv4
02-12 15:39:10.620 17163 17163 I caffe_jni: I0212 15:39:10.620703 17163 net.cpp:152] Setting up conv4
02-12 15:39:10.620 17163 17163 I caffe_jni: I0212 15:39:10.620791 17163 net.cpp:159] Top shape: 10 384 13 13 (648960)
02-12 15:39:10.620 17163 17163 I caffe_jni: I0212 15:39:10.620831 17163 net.cpp:167] Memory required for data: 61192760
02-12 15:39:10.620 17163 17163 I caffe_jni: I0212 15:39:10.620860 17163 layer_factory.hpp:77] Creating layer relu4
02-12 15:39:10.620 17163 17163 I caffe_jni: I0212 15:39:10.620892 17163 net.cpp:102] Creating Layer relu4
02-12 15:39:10.620 17163 17163 I caffe_jni: I0212 15:39:10.620913 17163 net.cpp:436] relu4 <- conv4
02-12 15:39:10.620 17163 17163 I caffe_jni: I0212 15:39:10.620936 17163 net.cpp:397] relu4 -> conv4 (in-place)
02-12 15:39:10.620 17163 17163 I caffe_jni: I0212 15:39:10.620964 17163 net.cpp:152] Setting up relu4
02-12 15:39:10.620 17163 17163 I caffe_jni: I0212 15:39:10.620981 17163 net.cpp:159] Top shape: 10 384 13 13 (648960)
02-12 15:39:10.621 17163 17163 I caffe_jni: I0212 15:39:10.621004 17163 net.cpp:167] Memory required for data: 63788600
02-12 15:39:10.621 17163 17163 I caffe_jni: I0212 15:39:10.621024 17163 layer_factory.hpp:77] Creating layer conv5
02-12 15:39:10.621 17163 17163 I caffe_jni: I0212 15:39:10.621052 17163 net.cpp:102] Creating Layer conv5
02-12 15:39:10.621 17163 17163 I caffe_jni: I0212 15:39:10.621076 17163 net.cpp:436] conv5 <- conv4
02-12 15:39:10.621 17163 17163 I caffe_jni: I0212 15:39:10.621105 17163 net.cpp:410] conv5 -> conv5
02-12 15:39:10.622 17163 17163 I caffe_jni: I0212 15:39:10.622087 17163 net.cpp:152] Setting up conv5
02-12 15:39:10.622 17163 17163 I caffe_jni: I0212 15:39:10.622138 17163 net.cpp:159] Top shape: 10 256 13 13 (432640)
02-12 15:39:10.622 17163 17163 I caffe_jni: I0212 15:39:10.622167 17163 net.cpp:167] Memory required for data: 65519160
02-12 15:39:10.622 17163 17163 I caffe_jni: I0212 15:39:10.622203 17163 layer_factory.hpp:77] Creating layer relu5
02-12 15:39:10.622  1256  1845 I chatty  : uid=1000(system) WiFiArpStateMac expire 14 lines
02-12 15:39:10.622 17163 17163 I caffe_jni: I0212 15:39:10.622231 17163 net.cpp:102] Creating Layer relu5
02-12 15:39:10.622 17163 17163 I caffe_jni: I0212 15:39:10.622251 17163 net.cpp:436] relu5 <- conv5
02-12 15:39:10.622 17163 17163 I caffe_jni: I0212 15:39:10.622272 17163 net.cpp:397] relu5 -> conv5 (in-place)
02-12 15:39:10.622 17163 17163 I caffe_jni: I0212 15:39:10.622295 17163 net.cpp:152] Setting up relu5
02-12 15:39:10.622 17163 17163 I caffe_jni: I0212 15:39:10.622313 17163 net.cpp:159] Top shape: 10 256 13 13 (432640)
02-12 15:39:10.622 17163 17163 I caffe_jni: I0212 15:39:10.622335 17163 net.cpp:167] Memory required for data: 67249720
02-12 15:39:10.622 17163 17163 I caffe_jni: I0212 15:39:10.622354 17163 layer_factory.hpp:77] Creating layer pool5
02-12 15:39:10.622 17163 17163 I caffe_jni: I0212 15:39:10.622380 17163 net.cpp:102] Creating Layer pool5
02-12 15:39:10.622 17163 17163 I caffe_jni: I0212 15:39:10.622397 17163 net.cpp:436] pool5 <- conv5
02-12 15:39:10.622 17163 17163 I caffe_jni: I0212 15:39:10.622419 17163 net.cpp:410] pool5 -> pool5
02-12 15:39:10.622 17163 17163 I caffe_jni: I0212 15:39:10.622450 17163 net.cpp:152] Setting up pool5
02-12 15:39:10.622 17163 17163 I caffe_jni: I0212 15:39:10.622476 17163 net.cpp:159] Top shape: 10 256 6 6 (92160)
02-12 15:39:10.622 17163 17163 I caffe_jni: I0212 15:39:10.622498 17163 net.cpp:167] Memory required for data: 67618360
02-12 15:39:10.622 17163 17163 I caffe_jni: I0212 15:39:10.622519 17163 layer_factory.hpp:77] Creating layer fc6
02-12 15:39:10.622 17163 17163 I caffe_jni: I0212 15:39:10.622545 17163 net.cpp:102] Creating Layer fc6
02-12 15:39:10.622 17163 17163 I caffe_jni: I0212 15:39:10.622563 17163 net.cpp:436] fc6 <- pool5
02-12 15:39:10.622 17163 17163 I caffe_jni: I0212 15:39:10.622583 17163 net.cpp:410] fc6 -> fc6
02-12 15:39:10.642  2005  2845 D HwRecentsLockUtils: Search
02-12 15:39:10.642  1900  3785 E HsmCoreServiceImpl: onTransact in code is: 103
02-12 15:39:10.643  1900  3785 I MediaProcessHandler: playingUids: 
02-12 15:39:10.675   703  1831 D DE N ^EP: onChange:103:  mode=0x1c mAmbientLux=300 mAmbientLuxOffset=0 biasedAmbientLux=0 r=32768 g=32768 b=32768
02-12 15:39:10.676   703  1831 D DE N VH : start:45: Wake up
02-12 15:39:10.676   703  1832 D DE N VH : run:118: Start
02-12 15:39:10.700 17163 17163 I caffe_jni: I0212 15:39:10.700388 17163 net.cpp:152] Setting up fc6
02-12 15:39:10.700 17163 17163 I caffe_jni: I0212 15:39:10.700462 17163 net.cpp:159] Top shape: 10 4096 (40960)
02-12 15:39:10.700 17163 17163 I caffe_jni: I0212 15:39:10.700490 17163 net.cpp:167] Memory required for data: 67782200
02-12 15:39:10.700 17163 17163 I caffe_jni: I0212 15:39:10.700527 17163 layer_factory.hpp:77] Creating layer relu6
02-12 15:39:10.700 17163 17163 I caffe_jni: I0212 15:39:10.700556 17163 net.cpp:102] Creating Layer relu6
02-12 15:39:10.700 17163 17163 I caffe_jni: I0212 15:39:10.700577 17163 net.cpp:436] relu6 <- fc6
02-12 15:39:10.700 17163 17163 I caffe_jni: I0212 15:39:10.700600 17163 net.cpp:397] relu6 -> fc6 (in-place)
02-12 15:39:10.700 17163 17163 I caffe_jni: I0212 15:39:10.700626 17163 net.cpp:152] Setting up relu6
02-12 15:39:10.700 17163 17163 I caffe_jni: I0212 15:39:10.700645 17163 net.cpp:159] Top shape: 10 4096 (40960)
02-12 15:39:10.700 17163 17163 I caffe_jni: I0212 15:39:10.700665 17163 net.cpp:167] Memory required for data: 67946040
02-12 15:39:10.700 17163 17163 I caffe_jni: I0212 15:39:10.700685 17163 layer_factory.hpp:77] Creating layer drop6
02-12 15:39:10.700 17163 17163 I caffe_jni: I0212 15:39:10.700716 17163 net.cpp:102] Creating Layer drop6
02-12 15:39:10.700 17163 17163 I caffe_jni: I0212 15:39:10.700733 17163 net.cpp:436] drop6 <- fc6
02-12 15:39:10.700 17163 17163 I caffe_jni: I0212 15:39:10.700754 17163 net.cpp:397] drop6 -> fc6 (in-place)
02-12 15:39:10.700 17163 17163 I caffe_jni: I0212 15:39:10.700783 17163 net.cpp:152] Setting up drop6
02-12 15:39:10.700 17163 17163 I caffe_jni: I0212 15:39:10.700801 17163 net.cpp:159] Top shape: 10 4096 (40960)
02-12 15:39:10.700 17163 17163 I caffe_jni: I0212 15:39:10.700822 17163 net.cpp:167] Memory required for data: 68109880
02-12 15:39:10.700 17163 17163 I caffe_jni: I0212 15:39:10.700841 17163 layer_factory.hpp:77] Creating layer fc7
02-12 15:39:10.700 17163 17163 I caffe_jni: I0212 15:39:10.700867 17163 net.cpp:102] Creating Layer fc7
02-12 15:39:10.700 17163 17163 I caffe_jni: I0212 15:39:10.700886 17163 net.cpp:436] fc7 <- fc6
02-12 15:39:10.700 17163 17163 I caffe_jni: I0212 15:39:10.700907 17163 net.cpp:410] fc7 -> fc7
02-12 15:39:10.724   703  1834 D DE N HWC: apply:55: FEATURE_CONTRAST: mEnable=0 enable=0
02-12 15:39:10.724   703  1834 D DE N HWC: apply:55: FEATURE_BLC: mEnable=0 enable=0
02-12 15:39:10.724   703  1834 D DE N ABT: mergeXccOperating:550: Xcc Operation cannot be merged,seg:0,mode:0x1c,datamode:0xffffffff
02-12 15:39:10.724   703  1834 D DE N HWC: apply:55: FEATURE_HUE: mEnable=0 enable=0
02-12 15:39:10.724   703  1834 D DE N HWC: apply:55: FEATURE_SAT: mEnable=0 enable=0
02-12 15:39:10.724   703  1834 D DE N HWC: apply:55: FEATURE_PANEL_INFO: mEnable=0 enable=0
02-12 15:39:10.724   703  1834 D DE N HWC: apply:55: FEATURE_DDIC_RGBW: mEnable=0 enable=0
02-12 15:39:10.724   703  1834 D DE N HWC: apply:55: FEATURE_DDIC_CABC: mEnable=0 enable=0
02-12 15:39:10.735 17163 17163 I caffe_jni: I0212 15:39:10.735128 17163 net.cpp:152] Setting up fc7
02-12 15:39:10.735 17163 17163 I caffe_jni: I0212 15:39:10.735203 17163 net.cpp:159] Top shape: 10 4096 (40960)
02-12 15:39:10.735 17163 17163 I caffe_jni: I0212 15:39:10.735240 17163 net.cpp:167] Memory required for data: 68273720
02-12 15:39:10.735 17163 17163 I caffe_jni: I0212 15:39:10.735276 17163 layer_factory.hpp:77] Creating layer relu7
02-12 15:39:10.735 17163 17163 I caffe_jni: I0212 15:39:10.735306 17163 net.cpp:102] Creating Layer relu7
02-12 15:39:10.735 17163 17163 I caffe_jni: I0212 15:39:10.735327 17163 net.cpp:436] relu7 <- fc7
02-12 15:39:10.735 17163 17163 I caffe_jni: I0212 15:39:10.735352 17163 net.cpp:397] relu7 -> fc7 (in-place)
02-12 15:39:10.735 17163 17163 I caffe_jni: I0212 15:39:10.735378 17163 net.cpp:152] Setting up relu7
02-12 15:39:10.735 17163 17163 I caffe_jni: I0212 15:39:10.735395 17163 net.cpp:159] Top shape: 10 4096 (40960)
02-12 15:39:10.735 17163 17163 I caffe_jni: I0212 15:39:10.735416 17163 net.cpp:167] Memory required for data: 68437560
02-12 15:39:10.735 17163 17163 I caffe_jni: I0212 15:39:10.735435 17163 layer_factory.hpp:77] Creating layer drop7
02-12 15:39:10.735 17163 17163 I caffe_jni: I0212 15:39:10.735460 17163 net.cpp:102] Creating Layer drop7
02-12 15:39:10.735 17163 17163 I caffe_jni: I0212 15:39:10.735478 17163 net.cpp:436] drop7 <- fc7
02-12 15:39:10.735 17163 17163 I caffe_jni: I0212 15:39:10.735502 17163 net.cpp:397] drop7 -> fc7 (in-place)
02-12 15:39:10.735 17163 17163 I caffe_jni: I0212 15:39:10.735532 17163 net.cpp:152] Setting up drop7
02-12 15:39:10.735 17163 17163 I caffe_jni: I0212 15:39:10.735551 17163 net.cpp:159] Top shape: 10 4096 (40960)
02-12 15:39:10.735 17163 17163 I caffe_jni: I0212 15:39:10.735571 17163 net.cpp:167] Memory required for data: 68601400
02-12 15:39:10.735 17163 17163 I caffe_jni: I0212 15:39:10.735590 17163 layer_factory.hpp:77] Creating layer fc8
02-12 15:39:10.735 17163 17163 I caffe_jni: I0212 15:39:10.735612 17163 net.cpp:102] Creating Layer fc8
02-12 15:39:10.735 17163 17163 I caffe_jni: I0212 15:39:10.735630 17163 net.cpp:436] fc8 <- fc7
02-12 15:39:10.735 17163 17163 I caffe_jni: I0212 15:39:10.735649 17163 net.cpp:410] fc8 -> fc8
02-12 15:39:10.740   703  1832 D DE N VH : run:148: Stop
02-12 15:39:10.743 17163 17163 I caffe_jni: I0212 15:39:10.743868 17163 net.cpp:152] Setting up fc8
02-12 15:39:10.743 17163 17163 I caffe_jni: I0212 15:39:10.743949 17163 net.cpp:159] Top shape: 10 1000 (10000)
02-12 15:39:10.743 17163 17163 I caffe_jni: I0212 15:39:10.743985 17163 net.cpp:167] Memory required for data: 68641400
02-12 15:39:10.744 17163 17163 I caffe_jni: I0212 15:39:10.744024 17163 layer_factory.hpp:77] Creating layer prob
02-12 15:39:10.744 17163 17163 I caffe_jni: I0212 15:39:10.744053 17163 net.cpp:102] Creating Layer prob
02-12 15:39:10.744 17163 17163 I caffe_jni: I0212 15:39:10.744073 17163 net.cpp:436] prob <- fc8
02-12 15:39:10.744 17163 17163 I caffe_jni: I0212 15:39:10.744096 17163 net.cpp:410] prob -> prob
02-12 15:39:10.744 17163 17163 I caffe_jni: I0212 15:39:10.744138 17163 net.cpp:152] Setting up prob
02-12 15:39:10.744 17163 17163 I caffe_jni: I0212 15:39:10.744158 17163 net.cpp:159] Top shape: 10 1000 (10000)
02-12 15:39:10.744 17163 17163 I caffe_jni: I0212 15:39:10.744179 17163 net.cpp:167] Memory required for data: 68681400
02-12 15:39:10.744 17163 17163 I caffe_jni: I0212 15:39:10.744199 17163 net.cpp:230] prob does not need backward computation.
02-12 15:39:10.744 17163 17163 I caffe_jni: I0212 15:39:10.744217 17163 net.cpp:230] fc8 does not need backward computation.
02-12 15:39:10.744 17163 17163 I caffe_jni: I0212 15:39:10.744235 17163 net.cpp:230] drop7 does not need backward computation.
…
