…
03-06 14:36:06.949  2004  2004 D StatusBarIconController: setIconVisibility icon is null or visibility not change visibility=false
03-06 14:36:06.962   622   622 I GRALLOC : 	 shrFd=10,fmt=0x1,intFmt=0x200000001,btStrd=4352,size=9547776,pid=622 
03-06 14:36:06.962   622   622 I GRALLOC : 	 yuv=2,w=1080,h=2160,Stride u=0 v=0,offset u=0 v=0 
03-06 14:36:06.962   622   622 I GRALLOC : 	 iova_size=9547776,conUsg=0xb00,proUsg=0xb00,	 strd=1088,[afbc]HdrStrd=1088 PyldStrd=69632 Scrmbl=2,ionhnd = 1 
03-06 14:36:06.991 16666 16714 I chatty  : uid=10113(u0_a113) /system/bin/hwnffserver expire 10 lines
03-06 14:36:06.996 16666 16714 I caffe_jni: I0306 14:36:06.996708 16714 net.cpp:159] Top shape: 1 512 14 14 (100352)
03-06 14:36:06.996 16666 16714 I caffe_jni: I0306 14:36:06.996740 16714 net.cpp:167] Memory required for data: 228200460
03-06 14:36:06.996 16666 16714 I caffe_jni: I0306 14:36:06.996767 16714 layer_factory.hpp:77] Creating layer bn5a_branch2b
03-06 14:36:06.996 16666 16714 I caffe_jni: I0306 14:36:06.996798 16714 net.cpp:102] Creating Layer bn5a_branch2b
03-06 14:36:06.996 16666 16714 I caffe_jni: I0306 14:36:06.996819 16714 net.cpp:436] bn5a_branch2b <- res5a_branch2b
03-06 14:36:06.996 16666 16714 I caffe_jni: I0306 14:36:06.996843 16714 net.cpp:397] bn5a_branch2b -> res5a_branch2b (in-place)
03-06 14:36:06.996 16666 16714 I caffe_jni: I0306 14:36:06.996922 16714 net.cpp:152] Setting up bn5a_branch2b
03-06 14:36:06.996 16666 16714 I caffe_jni: I0306 14:36:06.996944 16714 net.cpp:159] Top shape: 1 512 14 14 (100352)
03-06 14:36:06.996 16666 16714 I caffe_jni: I0306 14:36:06.996964 16714 net.cpp:167] Memory required for data: 228601868
03-06 14:36:06.996 16666 16714 I caffe_jni: I0306 14:36:06.996987 16714 layer_factory.hpp:77] Creating layer scale5a_branch2b
03-06 14:36:06.997 16666 16714 I caffe_jni: I0306 14:36:06.997010 16714 net.cpp:102] Creating Layer scale5a_branch2b
03-06 14:36:06.997 16666 16714 I caffe_jni: I0306 14:36:06.997027 16714 net.cpp:436] scale5a_branch2b <- res5a_branch2b
03-06 14:36:06.997 16666 16714 I caffe_jni: I0306 14:36:06.997046 16714 net.cpp:397] scale5a_branch2b -> res5a_branch2b (in-place)
03-06 14:36:06.997 16666 16714 I caffe_jni: I0306 14:36:06.997082 16714 layer_factory.hpp:77] Creating layer scale5a_branch2b
03-06 14:36:06.997 16666 16714 I caffe_jni: I0306 14:36:06.997120 16714 net.cpp:152] Setting up scale5a_branch2b
03-06 14:36:06.997 16666 16714 I caffe_jni: I0306 14:36:06.997141 16714 net.cpp:159] Top shape: 1 512 14 14 (100352)
03-06 14:36:06.997 16666 16714 I caffe_jni: I0306 14:36:06.997159 16714 net.cpp:167] Memory required for data: 229003276
03-06 14:36:06.997 16666 16714 I caffe_jni: I0306 14:36:06.997180 16714 layer_factory.hpp:77] Creating layer res5a_branch2b_relu
03-06 14:36:06.997 16666 16714 I caffe_jni: I0306 14:36:06.997201 16714 net.cpp:102] Creating Layer res5a_branch2b_relu
03-06 14:36:06.997 16666 16714 I caffe_jni: I0306 14:36:06.997217 16714 net.cpp:436] res5a_branch2b_relu <- res5a_branch2b
03-06 14:36:06.997 16666 16714 I caffe_jni: I0306 14:36:06.997234 16714 net.cpp:397] res5a_branch2b_relu -> res5a_branch2b (in-place)
03-06 14:36:06.997 16666 16714 I caffe_jni: I0306 14:36:06.997254 16714 net.cpp:152] Setting up res5a_branch2b_relu
03-06 14:36:06.997 16666 16714 I caffe_jni: I0306 14:36:06.997270 16714 net.cpp:159] Top shape: 1 512 14 14 (100352)
03-06 14:36:06.997 16666 16714 I caffe_jni: I0306 14:36:06.997289 16714 net.cpp:167] Memory required for data: 229404684
03-06 14:36:06.997 16666 16714 I caffe_jni: I0306 14:36:06.997305 16714 layer_factory.hpp:77] Creating layer res5a_branch2c
03-06 14:36:06.997 16666 16714 I caffe_jni: I0306 14:36:06.997330 16714 net.cpp:102] Creating Layer res5a_branch2c
03-06 14:36:06.997 16666 16714 I caffe_jni: I0306 14:36:06.997347 16714 net.cpp:436] res5a_branch2c <- res5a_branch2b
03-06 14:36:06.997 16666 16714 I caffe_jni: I0306 14:36:06.997370 16714 net.cpp:410] res5a_branch2c -> res5a_branch2c
03-06 14:36:06.999 16666 16714 I caffe_jni: I0306 14:36:06.999382 16714 net.cpp:152] Setting up res5a_branch2c
03-06 14:36:06.999 16666 16714 I caffe_jni: I0306 14:36:06.999475 16714 net.cpp:159] Top shape: 1 2048 14 14 (401408)
03-06 14:36:06.999 16666 16714 I caffe_jni: I0306 14:36:06.999508 16714 net.cpp:167] Memory required for data: 231010316
03-06 14:36:06.999 16666 16714 I caffe_jni: I0306 14:36:06.999534 16714 layer_factory.hpp:77] Creating layer bn5a_branch2c
03-06 14:36:06.999 16666 16714 I caffe_jni: I0306 14:36:06.999565 16714 net.cpp:102] Creating Layer bn5a_branch2c
03-06 14:36:06.999 16666 16714 I caffe_jni: I0306 14:36:06.999595 16714 net.cpp:436] bn5a_branch2c <- res5a_branch2c
03-06 14:36:06.999 16666 16714 I caffe_jni: I0306 14:36:06.999621 16714 net.cpp:397] bn5a_branch2c -> res5a_branch2c (in-place)
03-06 14:36:06.999 16666 16714 I caffe_jni: I0306 14:36:06.999685 16714 net.cpp:152] Setting up bn5a_branch2c
03-06 14:36:06.999 16666 16714 I caffe_jni: I0306 14:36:06.999718 16714 net.cpp:159] Top shape: 1 2048 14 14 (401408)
03-06 14:36:06.999 16666 16714 I caffe_jni: I0306 14:36:06.999738 16714 net.cpp:167] Memory required for data: 232615948
03-06 14:36:06.999 16666 16714 I caffe_jni: I0306 14:36:06.999763 16714 layer_factory.hpp:77] Creating layer scale5a_branch2c
03-06 14:36:06.999 16666 16714 I caffe_jni: I0306 14:36:06.999788 16714 net.cpp:102] Creating Layer scale5a_branch2c
03-06 14:36:06.999 16666 16714 I caffe_jni: I0306 14:36:06.999807 16714 net.cpp:436] scale5a_branch2c <- res5a_branch2c
03-06 14:36:06.999 16666 16714 I caffe_jni: I0306 14:36:06.999826 16714 net.cpp:397] scale5a_branch2c -> res5a_branch2c (in-place)
03-06 14:36:06.999 16666 16714 I caffe_jni: I0306 14:36:06.999861 16714 layer_factory.hpp:77] Creating layer scale5a_branch2c
03-06 14:36:06.999 16666 16714 I caffe_jni: I0306 14:36:06.999904 16714 net.cpp:152] Setting up scale5a_branch2c
03-06 14:36:06.999 16666 16714 I caffe_jni: I0306 14:36:06.999924 16714 net.cpp:159] Top shape: 1 2048 14 14 (401408)
03-06 14:36:06.999 16666 16714 I caffe_jni: I0306 14:36:06.999946 16714 net.cpp:167] Memory required for data: 234221580
03-06 14:36:06.999 16666 16714 I caffe_jni: I0306 14:36:06.999966 16714 layer_factory.hpp:77] Creating layer res5a
03-06 14:36:06.999 16666 16714 I caffe_jni: I0306 14:36:06.999987 16714 net.cpp:102] Creating Layer res5a
03-06 14:36:07.000 16666 16714 I caffe_jni: I0306 14:36:07.000005 16714 net.cpp:436] res5a <- res5a_branch1
03-06 14:36:07.000 16666 16714 I caffe_jni: I0306 14:36:07.000021 16714 net.cpp:436] res5a <- res5a_branch2c
03-06 14:36:07.000 16666 16714 I caffe_jni: I0306 14:36:07.000039 16714 net.cpp:410] res5a -> res5a
03-06 14:36:07.000 16666 16714 I caffe_jni: I0306 14:36:07.000066 16714 net.cpp:152] Setting up res5a
03-06 14:36:07.000 16666 16714 I caffe_jni: I0306 14:36:07.000084 16714 net.cpp:159] Top shape: 1 2048 14 14 (401408)
03-06 14:36:07.000 16666 16714 I caffe_jni: I0306 14:36:07.000107 16714 net.cpp:167] Memory required for data: 235827212
03-06 14:36:07.000 16666 16714 I caffe_jni: I0306 14:36:07.000123 16714 layer_factory.hpp:77] Creating layer res5a_relu
03-06 14:36:07.000 16666 16714 I caffe_jni: I0306 14:36:07.000144 16714 net.cpp:102] Creating Layer res5a_relu
03-06 14:36:07.000 16666 16714 I caffe_jni: I0306 14:36:07.000161 16714 net.cpp:436] res5a_relu <- res5a
03-06 14:36:07.000 16666 16714 I caffe_jni: I0306 14:36:07.000180 16714 net.cpp:397] res5a_relu -> res5a (in-place)
03-06 14:36:07.000 16666 16714 I caffe_jni: I0306 14:36:07.000203 16714 net.cpp:152] Setting up res5a_relu
03-06 14:36:07.000 16666 16714 I caffe_jni: I0306 14:36:07.000224 16714 net.cpp:159] Top shape: 1 2048 14 14 (401408)
03-06 14:36:07.000 16666 16714 I caffe_jni: I0306 14:36:07.000241 16714 net.cpp:167] Memory required for data: 237432844
03-06 14:36:07.000 16666 16714 I caffe_jni: I0306 14:36:07.000257 16714 layer_factory.hpp:77] Creating layer res5a_res5a_relu_0_split
03-06 14:36:07.000 16666 16714 I caffe_jni: I0306 14:36:07.000277 16714 net.cpp:102] Creating Layer res5a_res5a_relu_0_split
03-06 14:36:07.000 16666 16714 I caffe_jni: I0306 14:36:07.000293 16714 net.cpp:436] res5a_res5a_relu_0_split <- res5a
03-06 14:36:07.000 16666 16714 I caffe_jni: I0306 14:36:07.000310 16714 net.cpp:410] res5a_res5a_relu_0_split -> res5a_res5a_relu_0_split_0
03-06 14:36:07.000 16666 16714 I caffe_jni: I0306 14:36:07.000334 16714 net.cpp:410] res5a_res5a_relu_0_split -> res5a_res5a_relu_0_split_1
03-06 14:36:07.000 16666 16714 I caffe_jni: I0306 14:36:07.000360 16714 net.cpp:152] Setting up res5a_res5a_relu_0_split
03-06 14:36:07.000 16666 16714 I caffe_jni: I0306 14:36:07.000375 16714 net.cpp:159] Top shape: 1 2048 14 14 (401408)
03-06 14:36:07.000 16666 16714 I caffe_jni: I0306 14:36:07.000393 16714 net.cpp:159] Top shape: 1 2048 14 14 (401408)
03-06 14:36:07.000 16666 16714 I caffe_jni: I0306 14:36:07.000411 16714 net.cpp:167] Memory required for data: 240644108
03-06 14:36:07.000 16666 16714 I caffe_jni: I0306 14:36:07.000427 16714 layer_factory.hpp:77] Creating layer res5b_branch2a
03-06 14:36:07.000 16666 16714 I caffe_jni: I0306 14:36:07.000450 16714 net.cpp:102] Creating Layer res5b_branch2a
03-06 14:36:07.000 16666 16714 I caffe_jni: I0306 14:36:07.000470 16714 net.cpp:436] res5b_branch2a <- res5a_res5a_relu_0_split_0
03-06 14:36:07.000 16666 16714 I caffe_jni: I0306 14:36:07.000493 16714 net.cpp:410] res5b_branch2a -> res5b_branch2a
03-06 14:36:07.002 16666 16714 I caffe_jni: I0306 14:36:07.002532 16714 net.cpp:152] Setting up res5b_branch2a
03-06 14:36:07.002 16666 16714 I caffe_jni: I0306 14:36:07.002627 16714 net.cpp:159] Top shape: 1 512 14 14 (100352)
03-06 14:36:07.002 16666 16714 I caffe_jni: I0306 14:36:07.002667 16714 net.cpp:167] Memory required for data: 241045516
03-06 14:36:07.002 16666 16714 I caffe_jni: I0306 14:36:07.002694 16714 layer_factory.hpp:77] Creating layer bn5b_branch2a
03-06 14:36:07.002 16666 16714 I caffe_jni: I0306 14:36:07.002729 16714 net.cpp:102] Creating Layer bn5b_branch2a
03-06 14:36:07.002 16666 16714 I caffe_jni: I0306 14:36:07.002753 16714 net.cpp:436] bn5b_branch2a <- res5b_branch2a
03-06 14:36:07.002 16666 16714 I caffe_jni: I0306 14:36:07.002775 16714 net.cpp:397] bn5b_branch2a -> res5b_branch2a (in-place)
03-06 14:36:07.002 16666 16714 I caffe_jni: I0306 14:36:07.002827 16714 net.cpp:152] Setting up bn5b_branch2a
03-06 14:36:07.002 16666 16714 I caffe_jni: I0306 14:36:07.002852 16714 net.cpp:159] Top shape: 1 512 14 14 (100352)
03-06 14:36:07.002 16666 16714 I caffe_jni: I0306 14:36:07.002871 16714 net.cpp:167] Memory required for data: 241446924
03-06 14:36:07.002 16666 16714 I caffe_jni: I0306 14:36:07.002892 16714 layer_factory.hpp:77] Creating layer scale5b_branch2a
03-06 14:36:07.002 16666 16714 I caffe_jni: I0306 14:36:07.002915 16714 net.cpp:102] Creating Layer scale5b_branch2a
03-06 14:36:07.002 16666 16714 I caffe_jni: I0306 14:36:07.002931 16714 net.cpp:436] scale5b_branch2a <- res5b_branch2a
03-06 14:36:07.002 16666 16714 I caffe_jni: I0306 14:36:07.002951 16714 net.cpp:397] scale5b_branch2a -> res5b_branch2a (in-place)
03-06 14:36:07.002 16666 16714 I caffe_jni: I0306 14:36:07.002986 16714 layer_factory.hpp:77] Creating layer scale5b_branch2a
03-06 14:36:07.003 16666 16714 I caffe_jni: I0306 14:36:07.003031 16714 net.cpp:152] Setting up scale5b_branch2a
03-06 14:36:07.003 16666 16714 I caffe_jni: I0306 14:36:07.003048 16714 net.cpp:159] Top shape: 1 512 14 14 (100352)
03-06 14:36:07.003 16666 16714 I caffe_jni: I0306 14:36:07.003067 16714 net.cpp:167] Memory required for data: 241848332
03-06 14:36:07.003 16666 16714 I caffe_jni: I0306 14:36:07.003087 16714 layer_factory.hpp:77] Creating layer res5b_branch2a_relu
03-06 14:36:07.003 16666 16714 I caffe_jni: I0306 14:36:07.003108 16714 net.cpp:102] Creating Layer res5b_branch2a_relu
03-06 14:36:07.003 16666 16714 I caffe_jni: I0306 14:36:07.003126 16714 net.cpp:436] res5b_branch2a_relu <- res5b_branch2a
03-06 14:36:07.003 16666 16714 I caffe_jni: I0306 14:36:07.003149 16714 net.cpp:397] res5b_branch2a_relu -> res5b_branch2a (in-place)
03-06 14:36:07.003 16666 16714 I caffe_jni: I0306 14:36:07.003170 16714 net.cpp:152] Setting up res5b_branch2a_relu
03-06 14:36:07.003 16666 16714 I caffe_jni: I0306 14:36:07.003186 16714 net.cpp:159] Top shape: 1 512 14 14 (100352)
03-06 14:36:07.003 16666 16714 I caffe_jni: I0306 14:36:07.003204 16714 net.cpp:167] Memory required for data: 242249740
03-06 14:36:07.003 16666 16714 I caffe_jni: I0306 14:36:07.003221 16714 layer_factory.hpp:77] Creating layer res5b_branch2b
03-06 14:36:07.003 16666 16714 I caffe_jni: I0306 14:36:07.003244 16714 net.cpp:102] Creating Layer res5b_branch2b
03-06 14:36:07.003 16666 16714 I caffe_jni: I0306 14:36:07.003263 16714 net.cpp:436] res5b_branch2b <- res5b_branch2a
03-06 14:36:07.003 16666 16714 I caffe_jni: I0306 14:36:07.003286 16714 net.cpp:410] res5b_branch2b -> res5b_branch2b
03-06 14:36:07.007 16666 16714 I caffe_jni: I0306 14:36:07.007814 16714 net.cpp:152] Setting up res5b_branch2b
03-06 14:36:07.007 16666 16714 I caffe_jni: I0306 14:36:07.007907 16714 net.cpp:159] Top shape: 1 512 14 14 (100352)
03-06 14:36:07.007 16666 16714 I caffe_jni: I0306 14:36:07.007939 16714 net.cpp:167] Memory required for data: 242651148
03-06 14:36:07.007 16666 16714 I caffe_jni: I0306 14:36:07.007964 16714 layer_factory.hpp:77] Creating layer bn5b_branch2b
03-06 14:36:07.007 16666 16714 I caffe_jni: I0306 14:36:07.007994 16714 net.cpp:102] Creating Layer bn5b_branch2b
03-06 14:36:07.008 16666 16714 I caffe_jni: I0306 14:36:07.008015 16714 net.cpp:436] bn5b_branch2b <- res5b_branch2b
03-06 14:36:07.008 16666 16714 I caffe_jni: I0306 14:36:07.008040 16714 net.cpp:397] bn5b_branch2b -> res5b_branch2b (in-place)
03-06 14:36:07.008 16666 16714 I caffe_jni: I0306 14:36:07.008090 16714 net.cpp:152] Setting up bn5b_branch2b
03-06 14:36:07.008 16666 16714 I caffe_jni: I0306 14:36:07.008111 16714 net.cpp:159] Top shape: 1 512 14 14 (100352)
03-06 14:36:07.008 16666 16714 I caffe_jni: I0306 14:36:07.008131 16714 net.cpp:167] Memory required for data: 243052556
03-06 14:36:07.008 16666 16714 I caffe_jni: I0306 14:36:07.008152 16714 layer_factory.hpp:77] Creating layer scale5b_branch2b
03-06 14:36:07.008 16666 16714 I caffe_jni: I0306 14:36:07.008173 16714 net.cpp:102] Creating Layer scale5b_branch2b
03-06 14:36:07.008 16666 16714 I caffe_jni: I0306 14:36:07.008191 16714 net.cpp:436] scale5b_branch2b <- res5b_branch2b
03-06 14:36:07.008 16666 16714 I caffe_jni: I0306 14:36:07.008208 16714 net.cpp:397] scale5b_branch2b -> res5b_branch2b (in-place)
03-06 14:36:07.008 16666 16714 I caffe_jni: I0306 14:36:07.008242 16714 layer_factory.hpp:77] Creating layer scale5b_branch2b
03-06 14:36:07.008 16666 16714 I caffe_jni: I0306 14:36:07.008285 16714 net.cpp:152] Setting up scale5b_branch2b
03-06 14:36:07.008 16666 16714 I caffe_jni: I0306 14:36:07.008303 16714 net.cpp:159] Top shape: 1 512 14 14 (100352)
03-06 14:36:07.008 16666 16714 I caffe_jni: I0306 14:36:07.008322 16714 net.cpp:167] Memory required for data: 243453964
03-06 14:36:07.008 16666 16714 I caffe_jni: I0306 14:36:07.008342 16714 layer_factory.hpp:77] Creating layer res5b_branch2b_relu
03-06 14:36:07.008 16666 16714 I caffe_jni: I0306 14:36:07.008366 16714 net.cpp:102] Creating Layer res5b_branch2b_relu
03-06 14:36:07.008 16666 16714 I caffe_jni: I0306 14:36:07.008386 16714 net.cpp:436] res5b_branch2b_relu <- res5b_branch2b
03-06 14:36:07.008 16666 16714 I caffe_jni: I0306 14:36:07.008406 16714 net.cpp:397] res5b_branch2b_relu -> res5b_branch2b (in-place)
03-06 14:36:07.008 16666 16714 I caffe_jni: I0306 14:36:07.008426 16714 net.cpp:152] Setting up res5b_branch2b_relu
03-06 14:36:07.008 16666 16714 I caffe_jni: I0306 14:36:07.008443 16714 net.cpp:159] Top shape: 1 512 14 14 (100352)
03-06 14:36:07.008 16666 16714 I caffe_jni: I0306 14:36:07.008460 16714 net.cpp:167] Memory required for data: 243855372
03-06 14:36:07.008 16666 16714 I caffe_jni: I0306 14:36:07.008476 16714 layer_factory.hpp:77] Creating layer res5b_branch2c
03-06 14:36:07.008 16666 16714 I caffe_jni: I0306 14:36:07.008500 16714 net.cpp:102] Creating Layer res5b_branch2c
03-06 14:36:07.008 16666 16714 I caffe_jni: I0306 14:36:07.008520 16714 net.cpp:436] res5b_branch2c <- res5b_branch2b
03-06 14:36:07.008 16666 16714 I caffe_jni: I0306 14:36:07.008539 16714 net.cpp:410] res5b_branch2c -> res5b_branch2c
03-06 14:36:07.010 16666 16714 I caffe_jni: I0306 14:36:07.010617 16714 net.cpp:152] Setting up res5b_branch2c
03-06 14:36:07.010 16666 16714 I caffe_jni: I0306 14:36:07.010715 16714 net.cpp:159] Top shape: 1 2048 14 14 (401408)
03-06 14:36:07.010 16666 16714 I caffe_jni: I0306 14:36:07.010751 16714 net.cpp:167] Memory required for data: 245461004
03-06 14:36:07.010 16666 16714 I caffe_jni: I0306 14:36:07.010776 16714 layer_factory.hpp:77] Creating layer bn5b_branch2c
03-06 14:36:07.010 16666 16714 I caffe_jni: I0306 14:36:07.010807 16714 net.cpp:102] Creating Layer bn5b_branch2c
03-06 14:36:07.010 16666 16714 I caffe_jni: I0306 14:36:07.010828 16714 net.cpp:436] bn5b_branch2c <- res5b_branch2c
03-06 14:36:07.010 16666 16714 I caffe_jni: I0306 14:36:07.010852 16714 net.cpp:397] bn5b_branch2c -> res5b_branch2c (in-place)
03-06 14:36:07.010 16666 16714 I caffe_jni: I0306 14:36:07.010912 16714 net.cpp:152] Setting up bn5b_branch2c
03-06 14:36:07.010 16666 16714 I caffe_jni: I0306 14:36:07.010934 16714 net.cpp:159] Top shape: 1 2048 14 14 (401408)
03-06 14:36:07.010 16666 16714 I caffe_jni: I0306 14:36:07.010954 16714 net.cpp:167] Memory required for data: 247066636
03-06 14:36:07.010 16666 16714 I caffe_jni: I0306 14:36:07.010977 16714 layer_factory.hpp:77] Creating layer scale5b_branch2c
03-06 14:36:07.011 16666 16714 I caffe_jni: I0306 14:36:07.010998 16714 net.cpp:102] Creating Layer scale5b_branch2c
03-06 14:36:07.011 16666 16714 I caffe_jni: I0306 14:36:07.011016 16714 net.cpp:436] scale5b_branch2c <- res5b_branch2c
03-06 14:36:07.011 16666 16714 I caffe_jni: I0306 14:36:07.011036 16714 net.cpp:397] scale5b_branch2c -> res5b_branch2c (in-place)
03-06 14:36:07.011 16666 16714 I caffe_jni: I0306 14:36:07.011077 16714 layer_factory.hpp:77] Creating layer scale5b_branch2c
03-06 14:36:07.011 16666 16714 I caffe_jni: I0306 14:36:07.011124 16714 net.cpp:152] Setting up scale5b_branch2c
03-06 14:36:07.011 16666 16714 I caffe_jni: I0306 14:36:07.011142 16714 net.cpp:159] Top shape: 1 2048 14 14 (401408)
03-06 14:36:07.011 16666 16714 I caffe_jni: I0306 14:36:07.011165 16714 net.cpp:167] Memory required for data: 248672268
03-06 14:36:07.011 16666 16714 I caffe_jni: I0306 14:36:07.011190 16714 layer_factory.hpp:77] Creating layer res5b
03-06 14:36:07.011 16666 16714 I caffe_jni: I0306 14:36:07.011214 16714 net.cpp:102] Creating Layer res5b
03-06 14:36:07.011 16666 16714 I caffe_jni: I0306 14:36:07.011229 16714 net.cpp:436] res5b <- res5a_res5a_relu_0_split_1
03-06 14:36:07.011 16666 16714 I caffe_jni: I0306 14:36:07.011246 16714 net.cpp:436] res5b <- res5b_branch2c
03-06 14:36:07.011 16666 16714 I caffe_jni: I0306 14:36:07.011265 16714 net.cpp:410] res5b -> res5b
03-06 14:36:07.011 16666 16714 I caffe_jni: I0306 14:36:07.011289 16714 net.cpp:152] Setting up res5b
03-06 14:36:07.011 16666 16714 I caffe_jni: I0306 14:36:07.011306 16714 net.cpp:159] Top shape: 1 2048 14 14 (401408)
03-06 14:36:07.011 16666 16714 I caffe_jni: I0306 14:36:07.011327 16714 net.cpp:167] Memory required for data: 250277900
03-06 14:36:07.011 16666 16714 I caffe_jni: I0306 14:36:07.011346 16714 layer_factory.hpp:77] Creating layer res5b_relu
03-06 14:36:07.011 16666 16714 I caffe_jni: I0306 14:36:07.011366 16714 net.cpp:102] Creating Layer res5b_relu
03-06 14:36:07.011 16666 16714 I caffe_jni: I0306 14:36:07.011382 16714 net.cpp:436] res5b_relu <- res5b
03-06 14:36:07.011 16666 16714 I caffe_jni: I0306 14:36:07.011401 16714 net.cpp:397] res5b_relu -> res5b (in-place)
03-06 14:36:07.011 16666 16714 I caffe_jni: I0306 14:36:07.011421 16714 net.cpp:152] Setting up res5b_relu
03-06 14:36:07.011 16666 16714 I caffe_jni: I0306 14:36:07.011438 16714 net.cpp:159] Top shape: 1 2048 14 14 (401408)
03-06 14:36:07.011 16666 16714 I caffe_jni: I0306 14:36:07.011458 16714 net.cpp:167] Memory required for data: 251883532
03-06 14:36:07.011 16666 16714 I caffe_jni: I0306 14:36:07.011477 16714 layer_factory.hpp:77] Creating layer res5b_res5b_relu_0_split
03-06 14:36:07.011 16666 16714 I caffe_jni: I0306 14:36:07.011497 16714 net.cpp:102] Creating Layer res5b_res5b_relu_0_split
03-06 14:36:07.011 16666 16714 I caffe_jni: I0306 14:36:07.011514 16714 net.cpp:436] res5b_res5b_relu_0_split <- res5b
03-06 14:36:07.011 16666 16714 I caffe_jni: I0306 14:36:07.011531 16714 net.cpp:410] res5b_res5b_relu_0_split -> res5b_res5b_relu_0_split_0
03-06 14:36:07.011 16666 16714 I caffe_jni: I0306 14:36:07.011553 16714 net.cpp:410] res5b_res5b_relu_0_split -> res5b_res5b_relu_0_split_1
03-06 14:36:07.011 16666 16714 I caffe_jni: I0306 14:36:07.011577 16714 net.cpp:152] Setting up res5b_res5b_relu_0_split
03-06 14:36:07.011 16666 16714 I caffe_jni: I0306 14:36:07.011597 16714 net.cpp:159] Top shape: 1 2048 14 14 (401408)
03-06 14:36:07.011 16666 16714 I caffe_jni: I0306 14:36:07.011620 16714 net.cpp:159] Top shape: 1 2048 14 14 (401408)
03-06 14:36:07.011 16666 16714 I caffe_jni: I0306 14:36:07.011636 16714 net.cpp:167] Memory required for data: 255094796
03-06 14:36:07.011 16666 16714 I caffe_jni: I0306 14:36:07.011651 16714 layer_factory.hpp:77] Creating layer res5c_branch2a
03-06 14:36:07.011 16666 16714 I caffe_jni: I0306 14:36:07.011674 16714 net.cpp:102] Creating Layer res5c_branch2a
03-06 14:36:07.011 16666 16714 I caffe_jni: I0306 14:36:07.011693 16714 net.cpp:436] res5c_branch2a <- res5b_res5b_relu_0_split_0
03-06 14:36:07.011 16666 16714 I caffe_jni: I0306 14:36:07.011710 16714 net.cpp:410] res5c_branch2a -> res5c_branch2a
03-06 14:36:07.013 16666 16714 I caffe_jni: I0306 14:36:07.013753 16714 net.cpp:152] Setting up res5c_branch2a
03-06 14:36:07.013 16666 16714 I caffe_jni: I0306 14:36:07.013852 16714 net.cpp:159] Top shape: 1 512 14 14 (100352)
03-06 14:36:07.013 16666 16714 I caffe_jni: I0306 14:36:07.013885 16714 net.cpp:167] Memory required for data: 255496204
03-06 14:36:07.013 16666 16714 I caffe_jni: I0306 14:36:07.013911 16714 layer_factory.hpp:77] Creating layer bn5c_branch2a
03-06 14:36:07.013 16666 16714 I caffe_jni: I0306 14:36:07.013939 16714 net.cpp:102] Creating Layer bn5c_branch2a
03-06 14:36:07.013 16666 16714 I caffe_jni: I0306 14:36:07.013962 16714 net.cpp:436] bn5c_branch2a <- res5c_branch2a
03-06 14:36:07.013 16666 16714 I caffe_jni: I0306 14:36:07.013986 16714 net.cpp:397] bn5c_branch2a -> res5c_branch2a (in-place)
03-06 14:36:07.014 16666 16714 I caffe_jni: I0306 14:36:07.014032 16714 net.cpp:152] Setting up bn5c_branch2a
03-06 14:36:07.014 16666 16714 I caffe_jni: I0306 14:36:07.014052 16714 net.cpp:159] Top shape: 1 512 14 14 (100352)
03-06 14:36:07.014 16666 16714 I caffe_jni: I0306 14:36:07.014080 16714 net.cpp:167] Memory required for data: 255897612
03-06 14:36:07.014 16666 16714 I caffe_jni: I0306 14:36:07.014103 16714 layer_factory.hpp:77] Creating layer scale5c_branch2a
03-06 14:36:07.014 16666 16714 I caffe_jni: I0306 14:36:07.014127 16714 net.cpp:102] Creating Layer scale5c_branch2a
03-06 14:36:07.014 16666 16714 I caffe_jni: I0306 14:36:07.014142 16714 net.cpp:436] scale5c_branch2a <- res5c_branch2a
03-06 14:36:07.014 16666 16714 I caffe_jni: I0306 14:36:07.014160 16714 net.cpp:397] scale5c_branch2a -> res5c_branch2a (in-place)
03-06 14:36:07.014 16666 16714 I caffe_jni: I0306 14:36:07.014196 16714 layer_factory.hpp:77] Creating layer scale5c_branch2a
03-06 14:36:07.014 16666 16714 I caffe_jni: I0306 14:36:07.014235 16714 net.cpp:152] Setting up scale5c_branch2a
03-06 14:36:07.014 16666 16714 I caffe_jni: I0306 14:36:07.014255 16714 net.cpp:159] Top shape: 1 512 14 14 (100352)
03-06 14:36:07.014 16666 16714 I caffe_jni: I0306 14:36:07.014272 16714 net.cpp:167] Memory required for data: 256299020
03-06 14:36:07.014 16666 16714 I caffe_jni: I0306 14:36:07.014293 16714 layer_factory.hpp:77] Creating layer res5c_branch2a_relu
03-06 14:36:07.014 16666 16714 I caffe_jni: I0306 14:36:07.014314 16714 net.cpp:102] Creating Layer res5c_branch2a_relu
03-06 14:36:07.014 16666 16714 I caffe_jni: I0306 14:36:07.014333 16714 net.cpp:436] res5c_branch2a_relu <- res5c_branch2a
03-06 14:36:07.014 16666 16714 I caffe_jni: I0306 14:36:07.014353 16714 net.cpp:397] res5c_branch2a_relu -> res5c_branch2a (in-place)
03-06 14:36:07.014 16666 16714 I caffe_jni: I0306 14:36:07.014377 16714 net.cpp:152] Setting up res5c_branch2a_relu
03-06 14:36:07.014 16666 16714 I caffe_jni: I0306 14:36:07.014392 16714 net.cpp:159] Top shape: 1 512 14 14 (100352)
03-06 14:36:07.014 16666 16714 I caffe_jni: I0306 14:36:07.014410 16714 net.cpp:167] Memory required for data: 256700428
03-06 14:36:07.014 16666 16714 I caffe_jni: I0306 14:36:07.014425 16714 layer_factory.hpp:77] Creating layer res5c_branch2b
03-06 14:36:07.014 16666 16714 I caffe_jni: I0306 14:36:07.014449 16714 net.cpp:102] Creating Layer res5c_branch2b
03-06 14:36:07.014 16666 16714 I caffe_jni: I0306 14:36:07.014468 16714 net.cpp:436] res5c_branch2b <- res5c_branch2a
03-06 14:36:07.014 16666 16714 I caffe_jni: I0306 14:36:07.014492 16714 net.cpp:410] res5c_branch2b -> res5c_branch2b
03-06 14:36:07.018 16666 16714 I caffe_jni: I0306 14:36:07.018956 16714 net.cpp:152] Setting up res5c_branch2b
03-06 14:36:07.019 16666 16714 I caffe_jni: I0306 14:36:07.019057 16714 net.cpp:159] Top shape: 1 512 14 14 (100352)
03-06 14:36:07.019 16666 16714 I caffe_jni: I0306 14:36:07.019099 16714 net.cpp:167] Memory required for data: 257101836
03-06 14:36:07.019 16666 16714 I caffe_jni: I0306 14:36:07.019126 16714 layer_factory.hpp:77] Creating layer bn5c_branch2b
03-06 14:36:07.019 16666 16714 I caffe_jni: I0306 14:36:07.019157 16714 net.cpp:102] Creating Layer bn5c_branch2b
03-06 14:36:07.019 16666 16714 I caffe_jni: I0306 14:36:07.019181 16714 net.cpp:436] bn5c_branch2b <- res5c_branch2b
03-06 14:36:07.019 16666 16714 I caffe_jni: I0306 14:36:07.019204 16714 net.cpp:397] bn5c_branch2b -> res5c_branch2b (in-place)
03-06 14:36:07.019 16666 16714 I caffe_jni: I0306 14:36:07.019253 16714 net.cpp:152] Setting up bn5c_branch2b
03-06 14:36:07.019 16666 16714 I caffe_jni: I0306 14:36:07.019273 16714 net.cpp:159] Top shape: 1 512 14 14 (100352)
03-06 14:36:07.019 16666 16714 I caffe_jni: I0306 14:36:07.019292 16714 net.cpp:167] Memory required for data: 257503244
03-06 14:36:07.019 16666 16714 I caffe_jni: I0306 14:36:07.019315 16714 layer_factory.hpp:77] Creating layer scale5c_branch2b
03-06 14:36:07.019 16666 16714 I caffe_jni: I0306 14:36:07.019335 16714 net.cpp:102] Creating Layer scale5c_branch2b
03-06 14:36:07.019 16666 16714 I caffe_jni: I0306 14:36:07.019352 16714 net.cpp:436] scale5c_branch2b <- res5c_branch2b
03-06 14:36:07.019 16666 16714 I caffe_jni: I0306 14:36:07.019371 16714 net.cpp:397] scale5c_branch2b -> res5c_branch2b (in-place)
03-06 14:36:07.019 16666 16714 I caffe_jni: I0306 14:36:07.019405 16714 layer_factory.hpp:77] Creating layer scale5c_branch2b
03-06 14:36:07.019 16666 16714 I caffe_jni: I0306 14:36:07.019453 16714 net.cpp:152] Setting up scale5c_branch2b
03-06 14:36:07.019 16666 16714 I caffe_jni: I0306 14:36:07.019470 16714 net.cpp:159] Top shape: 1 512 14 14 (100352)
03-06 14:36:07.019 16666 16714 I caffe_jni: I0306 14:36:07.019490 16714 net.cpp:167] Memory required for data: 257904652
03-06 14:36:07.019 16666 16714 I caffe_jni: I0306 14:36:07.019510 16714 layer_factory.hpp:77] Creating layer res5c_branch2b_relu
03-06 14:36:07.019 16666 16714 I caffe_jni: I0306 14:36:07.019529 16714 net.cpp:102] Creating Layer res5c_branch2b_relu
03-06 14:36:07.019 16666 16714 I caffe_jni: I0306 14:36:07.019549 16714 net.cpp:436] res5c_branch2b_relu <- res5c_branch2b
03-06 14:36:07.019 16666 16714 I caffe_jni: I0306 14:36:07.019573 16714 net.cpp:397] res5c_branch2b_relu -> res5c_branch2b (in-place)
03-06 14:36:07.019 16666 16714 I caffe_jni: I0306 14:36:07.019593 16714 net.cpp:152] Setting up res5c_branch2b_relu
03-06 14:36:07.019 16666 16714 I caffe_jni: I0306 14:36:07.019611 16714 net.cpp:159] Top shape: 1 512 14 14 (100352)
03-06 14:36:07.019 16666 16714 I caffe_jni: I0306 14:36:07.019629 16714 net.cpp:167] Memory required for data: 258306060
03-06 14:36:07.019 16666 16714 I caffe_jni: I0306 14:36:07.019644 16714 layer_factory.hpp:77] Creating layer res5c_branch2c
03-06 14:36:07.019 16666 16714 I caffe_jni: I0306 14:36:07.019671 16714 net.cpp:102] Creating Layer res5c_branch2c
03-06 14:36:07.019 16666 16714 I caffe_jni: I0306 14:36:07.019693 16714 net.cpp:436] res5c_branch2c <- res5c_branch2b
03-06 14:36:07.019 16666 16714 I caffe_jni: I0306 14:36:07.019712 16714 net.cpp:410] res5c_branch2c -> res5c_branch2c
03-06 14:36:07.021 16666 16714 I caffe_jni: I0306 14:36:07.021806 16714 net.cpp:152] Setting up res5c_branch2c
03-06 14:36:07.021 16666 16714 I caffe_jni: I0306 14:36:07.021908 16714 net.cpp:159] Top shape: 1 2048 14 14 (401408)
03-06 14:36:07.021 16666 16714 I caffe_jni: I0306 14:36:07.021944 16714 net.cpp:167] Memory required for data: 259911692
03-06 14:36:07.021 16666 16714 I caffe_jni: I0306 14:36:07.021970 16714 layer_factory.hpp:77] Creating layer bn5c_branch2c
03-06 14:36:07.022 16666 16714 I caffe_jni: I0306 14:36:07.021998 16714 net.cpp:102] Creating Layer bn5c_branch2c
03-06 14:36:07.022 16666 16714 I caffe_jni: I0306 14:36:07.022019 16714 net.cpp:436] bn5c_branch2c <- res5c_branch2c
03-06 14:36:07.022 16666 16714 I caffe_jni: I0306 14:36:07.022043 16714 net.cpp:397] bn5c_branch2c -> res5c_branch2c (in-place)
03-06 14:36:07.022 16666 16714 I caffe_jni: I0306 14:36:07.022099 16714 net.cpp:152] Setting up bn5c_branch2c
03-06 14:36:07.022 16666 16714 I caffe_jni: I0306 14:36:07.022120 16714 net.cpp:159] Top shape: 1 2048 14 14 (401408)
03-06 14:36:07.022 16666 16714 I caffe_jni: I0306 14:36:07.022140 16714 net.cpp:167] Memory required for data: 261517324
03-06 14:36:07.022 16666 16714 I caffe_jni: I0306 14:36:07.022162 16714 layer_factory.hpp:77] Creating layer scale5c_branch2c
03-06 14:36:07.022 16666 16714 I caffe_jni: I0306 14:36:07.022182 16714 net.cpp:102] Creating Layer scale5c_branch2c
03-06 14:36:07.022 16666 16714 I caffe_jni: I0306 14:36:07.022202 16714 net.cpp:436] scale5c_branch2c <- res5c_branch2c
03-06 14:36:07.022 16666 16714 I caffe_jni: I0306 14:36:07.022220 16714 net.cpp:397] scale5c_branch2c -> res5c_branch2c (in-place)
03-06 14:36:07.022 16666 16714 I caffe_jni: I0306 14:36:07.022258 16714 layer_factory.hpp:77] Creating layer scale5c_branch2c
03-06 14:36:07.022 16666 16714 I caffe_jni: I0306 14:36:07.022298 16714 net.cpp:152] Setting up scale5c_branch2c
03-06 14:36:07.022 16666 16714 I caffe_jni: I0306 14:36:07.022316 16714 net.cpp:159] Top shape: 1 2048 14 14 (401408)
03-06 14:36:07.022 16666 16714 I caffe_jni: I0306 14:36:07.022333 16714 net.cpp:167] Memory required for data: 263122956
03-06 14:36:07.022 16666 16714 I caffe_jni: I0306 14:36:07.022352 16714 layer_factory.hpp:77] Creating layer res5c
03-06 14:36:07.022 16666 16714 I caffe_jni: I0306 14:36:07.022375 16714 net.cpp:102] Creating Layer res5c
03-06 14:36:07.022 16666 16714 I caffe_jni: I0306 14:36:07.022394 16714 net.cpp:436] res5c <- res5b_res5b_relu_0_split_1
03-06 14:36:07.022 16666 16714 I caffe_jni: I0306 14:36:07.022413 16714 net.cpp:436] res5c <- res5c_branch2c
03-06 14:36:07.022 16666 16714 I caffe_jni: I0306 14:36:07.022429 16714 net.cpp:410] res5c -> res5c
03-06 14:36:07.022 16666 16714 I caffe_jni: I0306 14:36:07.022454 16714 net.cpp:152] Setting up res5c
03-06 14:36:07.022 16666 16714 I caffe_jni: I0306 14:36:07.022470 16714 net.cpp:159] Top shape: 1 2048 14 14 (401408)
03-06 14:36:07.022 16666 16714 I caffe_jni: I0306 14:36:07.022488 16714 net.cpp:167] Memory required for data: 264728588
03-06 14:36:07.022 16666 16714 I caffe_jni: I0306 14:36:07.022507 16714 layer_factory.hpp:77] Creating layer res5c_relu
03-06 14:36:07.022 16666 16714 I caffe_jni: I0306 14:36:07.022531 16714 net.cpp:102] Creating Layer res5c_relu
03-06 14:36:07.022 16666 16714 I caffe_jni: I0306 14:36:07.022547 16714 net.cpp:436] res5c_relu <- res5c
03-06 14:36:07.022 16666 16714 I caffe_jni: I0306 14:36:07.022565 16714 net.cpp:397] res5c_relu -> res5c (in-place)
03-06 14:36:07.022 16666 16714 I caffe_jni: I0306 14:36:07.022585 16714 net.cpp:152] Setting up res5c_relu
03-06 14:36:07.022 16666 16714 I caffe_jni: I0306 14:36:07.022601 16714 net.cpp:159] Top shape: 1 2048 14 14 (401408)
03-06 14:36:07.022 16666 16714 I caffe_jni: I0306 14:36:07.022619 16714 net.cpp:167] Memory required for data: 266334220
03-06 14:36:07.022 16666 16714 I caffe_jni: I0306 14:36:07.022636 16714 layer_factory.hpp:77] Creating layer rpn_conv/3x3
03-06 14:36:07.022 16666 16714 I caffe_jni: I0306 14:36:07.022665 16714 net.cpp:102] Creating Layer rpn_conv/3x3
03-06 14:36:07.022 16666 16714 I caffe_jni: I0306 14:36:07.022681 16714 net.cpp:436] rpn_conv/3x3 <- res4f_res4f_relu_0_split_2
…
03-06 14:36:07.083   635   635 D DE H DE : setHardwareEffect:212: FEATURE_GAMMA 0x100003
03-06 14:36:07.083   742  1828 D DE N HW : setEffect:71: FEATURE_IGAMMA mode:0x100003 size:0
03-06 14:36:07.083   635   635 D DE H DE : setHardwareEffect:212: FEATURE_IGAMMA 0x100003
03-06 14:36:07.099   742  1826 D DE N VH : run:148: Stop
03-06 14:36:07.099   742  1826 D DE N VH : run:118: Start
03-06 14:36:07.099   742  1826 D DE N VH : run:148: Stop
03-06 14:36:07.506 16666 16714 I caffe_jni: I0306 14:36:07.506404 16714 net.cpp:152] Setting up rpn_conv/3x3
03-06 14:36:07.506 16666 16714 I caffe_jni: I0306 14:36:07.506522 16714 net.cpp:159] Top shape: 1 512 14 14 (100352)
03-06 14:36:07.506 16666 16714 I caffe_jni: I0306 14:36:07.506556 16714 net.cpp:167] Memory required for data: 266735628
03-06 14:36:07.506 16666 16714 I caffe_jni: I0306 14:36:07.506584 16714 layer_factory.hpp:77] Creating layer rpn_relu/3x3
03-06 14:36:07.506 16666 16714 I caffe_jni: I0306 14:36:07.506613 16714 net.cpp:102] Creating Layer rpn_relu/3x3
03-06 14:36:07.506 16666 16714 I caffe_jni: I0306 14:36:07.506633 16714 net.cpp:436] rpn_relu/3x3 <- rpn/output
03-06 14:36:07.506 16666 16714 I caffe_jni: I0306 14:36:07.506655 16714 net.cpp:397] rpn_relu/3x3 -> rpn/output (in-place)
03-06 14:36:07.506 16666 16714 I caffe_jni: I0306 14:36:07.506681 16714 net.cpp:152] Setting up rpn_relu/3x3
03-06 14:36:07.506 16666 16714 I caffe_jni: I0306 14:36:07.506696 16714 net.cpp:159] Top shape: 1 512 14 14 (100352)
03-06 14:36:07.506 16666 16714 I caffe_jni: I0306 14:36:07.506714 16714 net.cpp:167] Memory required for data: 267137036
03-06 14:36:07.506 16666 16714 I caffe_jni: I0306 14:36:07.506731 16714 layer_factory.hpp:77] Creating layer rpn/output_rpn_relu/3x3_0_split
03-06 14:36:07.506 16666 16714 I caffe_jni: I0306 14:36:07.506752 16714 net.cpp:102] Creating Layer rpn/output_rpn_relu/3x3_0_split
03-06 14:36:07.506 16666 16714 I caffe_jni: I0306 14:36:07.506767 16714 net.cpp:436] rpn/output_rpn_relu/3x3_0_split <- rpn/output
03-06 14:36:07.506 16666 16714 I caffe_jni: I0306 14:36:07.506783 16714 net.cpp:410] rpn/output_rpn_relu/3x3_0_split -> rpn/output_rpn_relu/3x3_0_split_0
03-06 14:36:07.506 16666 16714 I caffe_jni: I0306 14:36:07.506806 16714 net.cpp:410] rpn/output_rpn_relu/3x3_0_split -> rpn/output_rpn_relu/3x3_0_split_1
03-06 14:36:07.506 16666 16714 I caffe_jni: I0306 14:36:07.506829 16714 net.cpp:152] Setting up rpn/output_rpn_relu/3x3_0_split
03-06 14:36:07.506 16666 16714 I caffe_jni: I0306 14:36:07.506844 16714 net.cpp:159] Top shape: 1 512 14 14 (100352)
03-06 14:36:07.506 16666 16714 I caffe_jni: I0306 14:36:07.506861 16714 net.cpp:159] Top shape: 1 512 14 14 (100352)
03-06 14:36:07.506 16666 16714 I caffe_jni: I0306 14:36:07.506880 16714 net.cpp:167] Memory required for data: 267939852
03-06 14:36:07.506 16666 16714 I caffe_jni: I0306 14:36:07.506896 16714 layer_factory.hpp:77] Creating layer rpn_cls_score
03-06 14:36:07.506 16666 16714 I caffe_jni: I0306 14:36:07.506923 16714 net.cpp:102] Creating Layer rpn_cls_score
03-06 14:36:07.506 16666 16714 I caffe_jni: I0306 14:36:07.506940 16714 net.cpp:436] rpn_cls_score <- rpn/output_rpn_relu/3x3_0_split_0
03-06 14:36:07.506 16666 16714 I caffe_jni: I0306 14:36:07.506959 16714 net.cpp:410] rpn_cls_score -> rpn_cls_score
03-06 14:36:07.507 16666 16714 I caffe_jni: I0306 14:36:07.507942 16714 net.cpp:152] Setting up rpn_cls_score
03-06 14:36:07.507 16666 16714 I caffe_jni: I0306 14:36:07.507972 16714 net.cpp:159] Top shape: 1 18 14 14 (3528)
03-06 14:36:07.507 16666 16714 I caffe_jni: I0306 14:36:07.507995 16714 net.cpp:167] Memory required for data: 267953964
03-06 14:36:07.508 16666 16714 I caffe_jni: I0306 14:36:07.508019 16714 layer_factory.hpp:77] Creating layer rpn_bbox_pred
03-06 14:36:07.508 16666 16714 I caffe_jni: I0306 14:36:07.508046 16714 net.cpp:102] Creating Layer rpn_bbox_pred
03-06 14:36:07.508 16666 16714 I caffe_jni: I0306 14:36:07.508072 16714 net.cpp:436] rpn_bbox_pred <- rpn/output_rpn_relu/3x3_0_split_1
03-06 14:36:07.508 16666 16714 I caffe_jni: I0306 14:36:07.508095 16714 net.cpp:410] rpn_bbox_pred -> rpn_bbox_pred
03-06 14:36:07.510 16666 16714 I caffe_jni: I0306 14:36:07.510056 16714 net.cpp:152] Setting up rpn_bbox_pred
03-06 14:36:07.510 16666 16714 I caffe_jni: I0306 14:36:07.510085 16714 net.cpp:159] Top shape: 1 36 14 14 (7056)
03-06 14:36:07.510 16666 16714 I caffe_jni: I0306 14:36:07.510107 16714 net.cpp:167] Memory required for data: 267982188
03-06 14:36:07.510 16666 16714 I caffe_jni: I0306 14:36:07.510126 16714 layer_factory.hpp:77] Creating layer rpn_cls_score_reshape
03-06 14:36:07.510 16666 16714 I caffe_jni: I0306 14:36:07.510157 16714 net.cpp:102] Creating Layer rpn_cls_score_reshape
03-06 14:36:07.510 16666 16714 I caffe_jni: I0306 14:36:07.510180 16714 net.cpp:436] rpn_cls_score_reshape <- rpn_cls_score
03-06 14:36:07.510 16666 16714 I caffe_jni: I0306 14:36:07.510202 16714 net.cpp:410] rpn_cls_score_reshape -> rpn_cls_score_reshape
03-06 14:36:07.510 16666 16714 I caffe_jni: I0306 14:36:07.510232 16714 net.cpp:152] Setting up rpn_cls_score_reshape
03-06 14:36:07.510 16666 16714 I caffe_jni: I0306 14:36:07.510249 16714 net.cpp:159] Top shape: 1 2 126 14 (3528)
03-06 14:36:07.510 16666 16714 I caffe_jni: I0306 14:36:07.510272 16714 net.cpp:167] Memory required for data: 267996300
03-06 14:36:07.510 16666 16714 I caffe_jni: I0306 14:36:07.510291 16714 layer_factory.hpp:77] Creating layer rpn_cls_prob
03-06 14:36:07.510 16666 16714 I caffe_jni: I0306 14:36:07.510310 16714 net.cpp:102] Creating Layer rpn_cls_prob
03-06 14:36:07.510 16666 16714 I caffe_jni: I0306 14:36:07.510327 16714 net.cpp:436] rpn_cls_prob <- rpn_cls_score_reshape
03-06 14:36:07.510 16666 16714 I caffe_jni: I0306 14:36:07.510345 16714 net.cpp:410] rpn_cls_prob -> rpn_cls_prob
03-06 14:36:07.510 16666 16714 I caffe_jni: I0306 14:36:07.510370 16714 net.cpp:152] Setting up rpn_cls_prob
03-06 14:36:07.510 16666 16714 I caffe_jni: I0306 14:36:07.510387 16714 net.cpp:159] Top shape: 1 2 126 14 (3528)
03-06 14:36:07.510 16666 16714 I caffe_jni: I0306 14:36:07.510408 16714 net.cpp:167] Memory required for data: 268010412
03-06 14:36:07.510 16666 16714 I caffe_jni: I0306 14:36:07.510428 16714 layer_factory.hpp:77] Creating layer rpn_cls_prob_reshape
03-06 14:36:07.510 16666 16714 I caffe_jni: I0306 14:36:07.510447 16714 net.cpp:102] Creating Layer rpn_cls_prob_reshape
03-06 14:36:07.510 16666 16714 I caffe_jni: I0306 14:36:07.510463 16714 net.cpp:436] rpn_cls_prob_reshape <- rpn_cls_prob
03-06 14:36:07.510 16666 16714 I caffe_jni: I0306 14:36:07.510481 16714 net.cpp:410] rpn_cls_prob_reshape -> rpn_cls_prob_reshape
03-06 14:36:07.510 16666 16714 I caffe_jni: I0306 14:36:07.510504 16714 net.cpp:152] Setting up rpn_cls_prob_reshape
03-06 14:36:07.510 16666 16714 I caffe_jni: I0306 14:36:07.510521 16714 net.cpp:159] Top shape: 1 18 14 14 (3528)
03-06 14:36:07.510 16666 16714 I caffe_jni: I0306 14:36:07.510540 16714 net.cpp:167] Memory required for data: 268024524
03-06 14:36:07.510 16666 16714 I caffe_jni: I0306 14:36:07.510558 16714 layer_factory.hpp:77] Creating layer proposal
03-06 14:36:07.510 16666 16714 I caffe_jni: I0306 14:36:07.510581 16714 net.cpp:102] Creating Layer proposal
03-06 14:36:07.510 16666 16714 I caffe_jni: I0306 14:36:07.510598 16714 net.cpp:436] proposal <- rpn_cls_prob_reshape
03-06 14:36:07.510 16666 16714 I caffe_jni: I0306 14:36:07.510617 16714 net.cpp:436] proposal <- rpn_bbox_pred
03-06 14:36:07.510 16666 16714 I caffe_jni: I0306 14:36:07.510634 16714 net.cpp:436] proposal <- im_info
03-06 14:36:07.510 16666 16714 I caffe_jni: I0306 14:36:07.510653 16714 net.cpp:410] proposal -> rois
03-06 14:36:07.510 16666 16714 I caffe_jni: I0306 14:36:07.510677 16714 net.cpp:152] Setting up proposal
03-06 14:36:07.510 16666 16714 I caffe_jni: I0306 14:36:07.510696 16714 net.cpp:159] Top shape: 300 5 1 1 (1500)
03-06 14:36:07.510 16666 16714 I caffe_jni: I0306 14:36:07.510720 16714 net.cpp:167] Memory required for data: 268030524
03-06 14:36:07.510 16666 16714 I caffe_jni: I0306 14:36:07.510737 16714 layer_factory.hpp:77] Creating layer rois_proposal_0_split
03-06 14:36:07.510 16666 16714 I caffe_jni: I0306 14:36:07.510756 16714 net.cpp:102] Creating Layer rois_proposal_0_split
03-06 14:36:07.510 16666 16714 I caffe_jni: I0306 14:36:07.510771 16714 net.cpp:436] rois_proposal_0_split <- rois
03-06 14:36:07.510 16666 16714 I caffe_jni: I0306 14:36:07.510787 16714 net.cpp:410] rois_proposal_0_split -> rois_proposal_0_split_0
03-06 14:36:07.510 16666 16714 I caffe_jni: I0306 14:36:07.510807 16714 net.cpp:410] rois_proposal_0_split -> rois_proposal_0_split_1
03-06 14:36:07.510 16666 16714 I caffe_jni: I0306 14:36:07.510833 16714 net.cpp:152] Setting up rois_proposal_0_split
03-06 14:36:07.510 16666 16714 I caffe_jni: I0306 14:36:07.510851 16714 net.cpp:159] Top shape: 300 5 1 1 (1500)
03-06 14:36:07.510 16666 16714 I caffe_jni: I0306 14:36:07.510870 16714 net.cpp:159] Top shape: 300 5 1 1 (1500)
03-06 14:36:07.510 16666 16714 I caffe_jni: I0306 14:36:07.510887 16714 net.cpp:167] Memory required for data: 268042524
03-06 14:36:07.510 16666 16714 I caffe_jni: I0306 14:36:07.510902 16714 layer_factory.hpp:77] Creating layer conv_new_1
03-06 14:36:07.510 16666 16714 I caffe_jni: I0306 14:36:07.510923 16714 net.cpp:102] Creating Layer conv_new_1
03-06 14:36:07.510 16666 16714 I caffe_jni: I0306 14:36:07.510941 16714 net.cpp:436] conv_new_1 <- res5c
03-06 14:36:07.510 16666 16714 I caffe_jni: I0306 14:36:07.510962 16714 net.cpp:410] conv_new_1 -> conv_new_1
03-06 14:36:07.725 16666 16714 I caffe_jni: I0306 14:36:07.725867 16714 net.cpp:152] Setting up conv_new_1
03-06 14:36:07.725 16666 16714 I caffe_jni: I0306 14:36:07.725981 16714 net.cpp:159] Top shape: 1 1024 14 14 (200704)
03-06 14:36:07.726 16666 16714 I caffe_jni: I0306 14:36:07.726014 16714 net.cpp:167] Memory required for data: 268845340
03-06 14:36:07.726 16666 16714 I caffe_jni: I0306 14:36:07.726040 16714 layer_factory.hpp:77] Creating layer conv_new_1_relu
03-06 14:36:07.726 16666 16714 I caffe_jni: I0306 14:36:07.726068 16714 net.cpp:102] Creating Layer conv_new_1_relu
03-06 14:36:07.726 16666 16714 I caffe_jni: I0306 14:36:07.726089 16714 net.cpp:436] conv_new_1_relu <- conv_new_1
03-06 14:36:07.726 16666 16714 I caffe_jni: I0306 14:36:07.726111 16714 net.cpp:397] conv_new_1_relu -> conv_new_1 (in-place)
03-06 14:36:07.726 16666 16714 I caffe_jni: I0306 14:36:07.726136 16714 net.cpp:152] Setting up conv_new_1_relu
03-06 14:36:07.726 16666 16714 I caffe_jni: I0306 14:36:07.726152 16714 net.cpp:159] Top shape: 1 1024 14 14 (200704)
03-06 14:36:07.726 16666 16714 I caffe_jni: I0306 14:36:07.726169 16714 net.cpp:167] Memory required for data: 269648156
03-06 14:36:07.726 16666 16714 I caffe_jni: I0306 14:36:07.726184 16714 layer_factory.hpp:77] Creating layer conv_new_1_conv_new_1_relu_0_split
03-06 14:36:07.726 16666 16714 I caffe_jni: I0306 14:36:07.726204 16714 net.cpp:102] Creating Layer conv_new_1_conv_new_1_relu_0_split
03-06 14:36:07.726 16666 16714 I caffe_jni: I0306 14:36:07.726219 16714 net.cpp:436] conv_new_1_conv_new_1_relu_0_split <- conv_new_1
03-06 14:36:07.726 16666 16714 I caffe_jni: I0306 14:36:07.726236 16714 net.cpp:410] conv_new_1_conv_new_1_relu_0_split -> conv_new_1_conv_new_1_relu_0_split_0
03-06 14:36:07.726 16666 16714 I caffe_jni: I0306 14:36:07.726259 16714 net.cpp:410] conv_new_1_conv_new_1_relu_0_split -> conv_new_1_conv_new_1_relu_0_split_1
03-06 14:36:07.726 16666 16714 I caffe_jni: I0306 14:36:07.726284 16714 net.cpp:152] Setting up conv_new_1_conv_new_1_relu_0_split
03-06 14:36:07.726 16666 16714 I caffe_jni: I0306 14:36:07.726299 16714 net.cpp:159] Top shape: 1 1024 14 14 (200704)
03-06 14:36:07.726 16666 16714 I caffe_jni: I0306 14:36:07.726316 16714 net.cpp:159] Top shape: 1 1024 14 14 (200704)
03-06 14:36:07.726 16666 16714 I caffe_jni: I0306 14:36:07.726333 16714 net.cpp:167] Memory required for data: 271253788
03-06 14:36:07.726 16666 16714 I caffe_jni: I0306 14:36:07.726349 16714 layer_factory.hpp:77] Creating layer rfcn_cls
03-06 14:36:07.726 16666 16714 I caffe_jni: I0306 14:36:07.726382 16714 net.cpp:102] Creating Layer rfcn_cls
03-06 14:36:07.726 16666 16714 I caffe_jni: I0306 14:36:07.726398 16714 net.cpp:436] rfcn_cls <- conv_new_1_conv_new_1_relu_0_split_0
03-06 14:36:07.726 16666 16714 I caffe_jni: I0306 14:36:07.726423 16714 net.cpp:410] rfcn_cls -> rfcn_cls
03-06 14:36:07.834 16666 16714 I caffe_jni: I0306 14:36:07.834383 16714 net.cpp:152] Setting up rfcn_cls
03-06 14:36:07.834 16666 16714 I caffe_jni: I0306 14:36:07.834483 16714 net.cpp:159] Top shape: 1 1029 14 14 (201684)
03-06 14:36:07.834 16666 16714 I caffe_jni: I0306 14:36:07.834511 16714 net.cpp:167] Memory required for data: 272060524
03-06 14:36:07.834 16666 16714 I caffe_jni: I0306 14:36:07.834544 16714 layer_factory.hpp:77] Creating layer rfcn_bbox
03-06 14:36:07.834 16666 16714 I caffe_jni: I0306 14:36:07.834591 16714 net.cpp:102] Creating Layer rfcn_bbox
03-06 14:36:07.834 16666 16714 I caffe_jni: I0306 14:36:07.834614 16714 net.cpp:436] rfcn_bbox <- conv_new_1_conv_new_1_relu_0_split_1
03-06 14:36:07.834 16666 16714 I caffe_jni: I0306 14:36:07.834645 16714 net.cpp:410] rfcn_bbox -> rfcn_bbox
03-06 14:36:07.875 16666 16714 I caffe_jni: I0306 14:36:07.875849 16714 net.cpp:152] Setting up rfcn_bbox
03-06 14:36:07.875 16666 16714 I caffe_jni: I0306 14:36:07.875912 16714 net.cpp:159] Top shape: 1 392 14 14 (76832)
03-06 14:36:07.875 16666 16714 I caffe_jni: I0306 14:36:07.875937 16714 net.cpp:167] Memory required for data: 272367852
03-06 14:36:07.875 16666 16714 I caffe_jni: I0306 14:36:07.875964 16714 layer_factory.hpp:77] Creating layer psroipooled_cls_rois
03-06 14:36:07.876 16666 16714 I caffe_jni: I0306 14:36:07.875999 16714 net.cpp:102] Creating Layer psroipooled_cls_rois
03-06 14:36:07.876 16666 16714 I caffe_jni: I0306 14:36:07.876024 16714 net.cpp:436] psroipooled_cls_rois <- rfcn_cls
03-06 14:36:07.876 16666 16714 I caffe_jni: I0306 14:36:07.876044 16714 net.cpp:436] psroipooled_cls_rois <- rois_proposal_0_split_0
03-06 14:36:07.876 16666 16714 I caffe_jni: I0306 14:36:07.876066 16714 net.cpp:410] psroipooled_cls_rois -> psroipooled_cls_rois
03-06 14:36:07.876 16666 16714 I caffe_jni: I0306 14:36:07.876108 16714 psroi_pooling_layer.cpp:28] Spatial scale: 0.0625
03-06 14:36:07.876 16666 16714 I caffe_jni: I0306 14:36:07.876160 16714 psroi_pooling_layer.cpp:44] psroipooling reshape
03-06 14:36:07.876 16666 16714 I caffe_jni: I0306 14:36:07.876181 16714 net.cpp:152] Setting up psroipooled_cls_rois
03-06 14:36:07.876 16666 16714 I caffe_jni: I0306 14:36:07.876204 16714 net.cpp:159] Top shape: 300 21 7 7 (308700)
03-06 14:36:07.876 16666 16714 I caffe_jni: I0306 14:36:07.876225 16714 net.cpp:167] Memory required for data: 273602652
03-06 14:36:07.876 16666 16714 I caffe_jni: I0306 14:36:07.876241 16714 layer_factory.hpp:77] Creating layer ave_cls_score_rois
03-06 14:36:07.876 16666 16714 I caffe_jni: I0306 14:36:07.876261 16714 net.cpp:102] Creating Layer ave_cls_score_rois
03-06 14:36:07.876 16666 16714 I caffe_jni: I0306 14:36:07.876278 16714 net.cpp:436] ave_cls_score_rois <- psroipooled_cls_rois
03-06 14:36:07.876 16666 16714 I caffe_jni: I0306 14:36:07.876297 16714 net.cpp:410] ave_cls_score_rois -> cls_score
03-06 14:36:07.876 16666 16714 I caffe_jni: I0306 14:36:07.876322 16714 net.cpp:152] Setting up ave_cls_score_rois
03-06 14:36:07.876 16666 16714 I caffe_jni: I0306 14:36:07.876343 16714 net.cpp:159] Top shape: 300 21 1 1 (6300)
03-06 14:36:07.876 16666 16714 I caffe_jni: I0306 14:36:07.876363 16714 net.cpp:167] Memory required for data: 273627852
03-06 14:36:07.876 16666 16714 I caffe_jni: I0306 14:36:07.876379 16714 layer_factory.hpp:77] Creating layer psroipooled_loc_rois
03-06 14:36:07.876 16666 16714 I caffe_jni: I0306 14:36:07.876397 16714 net.cpp:102] Creating Layer psroipooled_loc_rois
03-06 14:36:07.876 16666 16714 I caffe_jni: I0306 14:36:07.876415 16714 net.cpp:436] psroipooled_loc_rois <- rfcn_bbox
03-06 14:36:07.876 16666 16714 I caffe_jni: I0306 14:36:07.876432 16714 net.cpp:436] psroipooled_loc_rois <- rois_proposal_0_split_1
03-06 14:36:07.876 16666 16714 I caffe_jni: I0306 14:36:07.876451 16714 net.cpp:410] psroipooled_loc_rois -> psroipooled_loc_rois
03-06 14:36:07.876 16666 16714 I caffe_jni: I0306 14:36:07.876474 16714 psroi_pooling_layer.cpp:28] Spatial scale: 0.0625
03-06 14:36:07.876 16666 16714 I caffe_jni: I0306 14:36:07.876498 16714 psroi_pooling_layer.cpp:44] psroipooling reshape
03-06 14:36:07.876 16666 16714 I caffe_jni: I0306 14:36:07.876519 16714 net.cpp:152] Setting up psroipooled_loc_rois
03-06 14:36:07.876 16666 16714 I caffe_jni: I0306 14:36:07.876534 16714 net.cpp:159] Top shape: 300 8 7 7 (117600)
03-06 14:36:07.876 16666 16714 I caffe_jni: I0306 14:36:07.876554 16714 net.cpp:167] Memory required for data: 274098252
03-06 14:36:07.876 16666 16714 I caffe_jni: I0306 14:36:07.876569 16714 layer_factory.hpp:77] Creating layer ave_bbox_pred_rois
03-06 14:36:07.876 16666 16714 I caffe_jni: I0306 14:36:07.876587 16714 net.cpp:102] Creating Layer ave_bbox_pred_rois
03-06 14:36:07.876 16666 16714 I caffe_jni: I0306 14:36:07.876606 16714 net.cpp:436] ave_bbox_pred_rois <- psroipooled_loc_rois
03-06 14:36:07.876 16666 16714 I caffe_jni: I0306 14:36:07.876628 16714 net.cpp:410] ave_bbox_pred_rois -> bbox_pred_pre
03-06 14:36:07.876 16666 16714 I caffe_jni: I0306 14:36:07.876649 16714 net.cpp:152] Setting up ave_bbox_pred_rois
03-06 14:36:07.876 16666 16714 I caffe_jni: I0306 14:36:07.876667 16714 net.cpp:159] Top shape: 300 8 1 1 (2400)
03-06 14:36:07.876 16666 16714 I caffe_jni: I0306 14:36:07.876683 16714 net.cpp:167] Memory required for data: 274107852
03-06 14:36:07.876 16666 16714 I caffe_jni: I0306 14:36:07.876699 16714 layer_factory.hpp:77] Creating layer cls_prob
03-06 14:36:07.876 16666 16714 I caffe_jni: I0306 14:36:07.876720 16714 net.cpp:102] Creating Layer cls_prob
03-06 14:36:07.876 16666 16714 I caffe_jni: I0306 14:36:07.876739 16714 net.cpp:436] cls_prob <- cls_score
03-06 14:36:07.876 16666 16714 I caffe_jni: I0306 14:36:07.876761 16714 net.cpp:410] cls_prob -> cls_prob_pre
03-06 14:36:07.876 16666 16714 I caffe_jni: I0306 14:36:07.876791 16714 net.cpp:152] Setting up cls_prob
03-06 14:36:07.876 16666 16714 I caffe_jni: I0306 14:36:07.876807 16714 net.cpp:159] Top shape: 300 21 1 1 (6300)
03-06 14:36:07.876 16666 16714 I caffe_jni: I0306 14:36:07.876827 16714 net.cpp:167] Memory required for data: 274133052
03-06 14:36:07.876 16666 16714 I caffe_jni: I0306 14:36:07.876843 16714 layer_factory.hpp:77] Creating layer cls_prob_reshape
03-06 14:36:07.876 16666 16714 I caffe_jni: I0306 14:36:07.876865 16714 net.cpp:102] Creating Layer cls_prob_reshape
03-06 14:36:07.876 16666 16714 I caffe_jni: I0306 14:36:07.876906 16714 net.cpp:436] cls_prob_reshape <- cls_prob_pre
03-06 14:36:07.876 16666 16714 I caffe_jni: I0306 14:36:07.876932 16714 net.cpp:410] cls_prob_reshape -> cls_prob
03-06 14:36:07.876 16666 16714 I caffe_jni: I0306 14:36:07.876960 16714 net.cpp:152] Setting up cls_prob_reshape
03-06 14:36:07.876 16666 16714 I caffe_jni: I0306 14:36:07.876977 16714 net.cpp:159] Top shape: 300 21 (6300)
03-06 14:36:07.877 16666 16714 I caffe_jni: I0306 14:36:07.876996 16714 net.cpp:167] Memory required for data: 274158252
03-06 14:36:07.877 16666 16714 I caffe_jni: I0306 14:36:07.877010 16714 layer_factory.hpp:77] Creating layer bbox_pred_reshape
03-06 14:36:07.877 16666 16714 I caffe_jni: I0306 14:36:07.877029 16714 net.cpp:102] Creating Layer bbox_pred_reshape
03-06 14:36:07.877 16666 16714 I caffe_jni: I0306 14:36:07.877044 16714 net.cpp:436] bbox_pred_reshape <- bbox_pred_pre
03-06 14:36:07.877 16666 16714 I caffe_jni: I0306 14:36:07.877065 16714 net.cpp:410] bbox_pred_reshape -> bbox_pred
03-06 14:36:07.877 16666 16714 I caffe_jni: I0306 14:36:07.877091 16714 net.cpp:152] Setting up bbox_pred_reshape
03-06 14:36:07.877 16666 16714 I caffe_jni: I0306 14:36:07.877108 16714 net.cpp:159] Top shape: 300 8 (2400)
03-06 14:36:07.877 16666 16714 I caffe_jni: I0306 14:36:07.877126 16714 net.cpp:167] Memory required for data: 274167852
03-06 14:36:07.877 16666 16714 I caffe_jni: I0306 14:36:07.877143 16714 net.cpp:230] bbox_pred_reshape does not need backward computation.
03-06 14:36:07.877 16666 16714 I caffe_jni: I0306 14:36:07.877159 16714 net.cpp:230] cls_prob_reshape does not need backward computation.
…
03-06 14:36:10.644 16666 16666 I caffe_jni:   top: "prob"
03-06 14:36:10.644 16666 16666 I caffe_jni: }
03-06 14:36:10.644 16666 16666 I caffe_jni: I0306 14:36:10.644253 16666 layer_factory.hpp:77] Creating layer data
03-06 14:36:10.644 16666 16666 I caffe_jni: I0306 14:36:10.644285 16666 net.cpp:102] Creating Layer data
03-06 14:36:10.644 16666 16666 I caffe_jni: I0306 14:36:10.644306 16666 net.cpp:410] data -> data
03-06 14:36:10.644 16666 16666 I caffe_jni: I0306 14:36:10.644341 16666 net.cpp:152] Setting up data
03-06 14:36:10.644 16666 16666 I caffe_jni: I0306 14:36:10.644362 16666 net.cpp:159] Top shape: 10 3 227 227 (1545870)
03-06 14:36:10.644 16666 16666 I caffe_jni: I0306 14:36:10.644384 16666 net.cpp:167] Memory required for data: 6183480
03-06 14:36:10.644 16666 16666 I caffe_jni: I0306 14:36:10.644402 16666 layer_factory.hpp:77] Creating layer conv1
03-06 14:36:10.644 16666 16666 I caffe_jni: I0306 14:36:10.644424 16666 net.cpp:102] Creating Layer conv1
03-06 14:36:10.644 16666 16666 I caffe_jni: I0306 14:36:10.644441 16666 net.cpp:436] conv1 <- data
03-06 14:36:10.644 16666 16666 I caffe_jni: I0306 14:36:10.644459 16666 net.cpp:410] conv1 -> conv1
03-06 14:36:10.644 16666 16666 I caffe_jni: I0306 14:36:10.644583 16666 net.cpp:152] Setting up conv1
03-06 14:36:10.644 16666 16666 I caffe_jni: I0306 14:36:10.644603 16666 net.cpp:159] Top shape: 10 96 55 55 (2904000)
03-06 14:36:10.644 16666 16666 I caffe_jni: I0306 14:36:10.644623 16666 net.cpp:167] Memory required for data: 17799480
03-06 14:36:10.644 16666 16666 I caffe_jni: I0306 14:36:10.644649 16666 layer_factory.hpp:77] Creating layer relu1
03-06 14:36:10.644 16666 16666 I caffe_jni: I0306 14:36:10.644670 16666 net.cpp:102] Creating Layer relu1
03-06 14:36:10.644 16666 16666 I caffe_jni: I0306 14:36:10.644686 16666 net.cpp:436] relu1 <- conv1
03-06 14:36:10.644 16666 16666 I caffe_jni: I0306 14:36:10.644704 16666 net.cpp:397] relu1 -> conv1 (in-place)
03-06 14:36:10.644 16666 16666 I caffe_jni: I0306 14:36:10.644726 16666 net.cpp:152] Setting up relu1
03-06 14:36:10.644 16666 16666 I caffe_jni: I0306 14:36:10.644742 16666 net.cpp:159] Top shape: 10 96 55 55 (2904000)
03-06 14:36:10.644 16666 16666 I caffe_jni: I0306 14:36:10.644758 16666 net.cpp:167] Memory required for data: 29415480
03-06 14:36:10.644 16666 16666 I caffe_jni: I0306 14:36:10.644778 16666 layer_factory.hpp:77] Creating layer pool1
03-06 14:36:10.644 16666 16666 I caffe_jni: I0306 14:36:10.644801 16666 net.cpp:102] Creating Layer pool1
03-06 14:36:10.644 16666 16666 I caffe_jni: I0306 14:36:10.644817 16666 net.cpp:436] pool1 <- conv1
03-06 14:36:10.644 16666 16666 I caffe_jni: I0306 14:36:10.644834 16666 net.cpp:410] pool1 -> pool1
03-06 14:36:10.644 16666 16666 I caffe_jni: I0306 14:36:10.644860 16666 net.cpp:152] Setting up pool1
03-06 14:36:10.644 16666 16666 I caffe_jni: I0306 14:36:10.644896 16666 net.cpp:159] Top shape: 10 96 27 27 (699840)
03-06 14:36:10.644 16666 16666 I caffe_jni: I0306 14:36:10.644917 16666 net.cpp:167] Memory required for data: 32214840
03-06 14:36:10.644 16666 16666 I caffe_jni: I0306 14:36:10.644935 16666 layer_factory.hpp:77] Creating layer norm1
03-06 14:36:10.644 16666 16666 I caffe_jni: I0306 14:36:10.644960 16666 net.cpp:102] Creating Layer norm1
03-06 14:36:10.644 16666 16666 I caffe_jni: I0306 14:36:10.644978 16666 net.cpp:436] norm1 <- pool1
03-06 14:36:10.645 16666 16666 I caffe_jni: I0306 14:36:10.644995 16666 net.cpp:410] norm1 -> norm1
03-06 14:36:10.645 16666 16666 I caffe_jni: I0306 14:36:10.645025 16666 net.cpp:152] Setting up norm1
03-06 14:36:10.645 16666 16666 I caffe_jni: I0306 14:36:10.645041 16666 net.cpp:159] Top shape: 10 96 27 27 (699840)
03-06 14:36:10.645 16666 16666 I caffe_jni: I0306 14:36:10.645058 16666 net.cpp:167] Memory required for data: 35014200
03-06 14:36:10.645 16666 16666 I caffe_jni: I0306 14:36:10.645076 16666 layer_factory.hpp:77] Creating layer conv2
03-06 14:36:10.645 16666 16666 I caffe_jni: I0306 14:36:10.645099 16666 net.cpp:102] Creating Layer conv2
03-06 14:36:10.645 16666 16666 I caffe_jni: I0306 14:36:10.645115 16666 net.cpp:436] conv2 <- norm1
03-06 14:36:10.645 16666 16666 I caffe_jni: I0306 14:36:10.645133 16666 net.cpp:410] conv2 -> conv2
03-06 14:36:10.645 16666 16666 I caffe_jni: I0306 14:36:10.645748 16666 net.cpp:152] Setting up conv2
03-06 14:36:10.645 16666 16666 I caffe_jni: I0306 14:36:10.645787 16666 net.cpp:159] Top shape: 10 256 27 27 (1866240)
03-06 14:36:10.645 16666 16666 I caffe_jni: I0306 14:36:10.645812 16666 net.cpp:167] Memory required for data: 42479160
03-06 14:36:10.645 16666 16666 I caffe_jni: I0306 14:36:10.645838 16666 layer_factory.hpp:77] Creating layer relu2
03-06 14:36:10.645 16666 16666 I caffe_jni: I0306 14:36:10.645862 16666 net.cpp:102] Creating Layer relu2
03-06 14:36:10.645 16666 16666 I caffe_jni: I0306 14:36:10.645880 16666 net.cpp:436] relu2 <- conv2
03-06 14:36:10.645 16666 16666 I caffe_jni: I0306 14:36:10.645900 16666 net.cpp:397] relu2 -> conv2 (in-place)
03-06 14:36:10.645 16666 16666 I caffe_jni: I0306 14:36:10.645921 16666 net.cpp:152] Setting up relu2
03-06 14:36:10.645 16666 16666 I caffe_jni: I0306 14:36:10.645941 16666 net.cpp:159] Top shape: 10 256 27 27 (1866240)
03-06 14:36:10.645 16666 16666 I caffe_jni: I0306 14:36:10.645962 16666 net.cpp:167] Memory required for data: 49944120
03-06 14:36:10.645 16666 16666 I caffe_jni: I0306 14:36:10.645979 16666 layer_factory.hpp:77] Creating layer pool2
03-06 14:36:10.646 16666 16666 I caffe_jni: I0306 14:36:10.645998 16666 net.cpp:102] Creating Layer pool2
03-06 14:36:10.646 16666 16666 I caffe_jni: I0306 14:36:10.646013 16666 net.cpp:436] pool2 <- conv2
03-06 14:36:10.646 16666 16666 I caffe_jni: I0306 14:36:10.646029 16666 net.cpp:410] pool2 -> pool2
03-06 14:36:10.646 16666 16666 I caffe_jni: I0306 14:36:10.646056 16666 net.cpp:152] Setting up pool2
03-06 14:36:10.646 16666 16666 I caffe_jni: I0306 14:36:10.646075 16666 net.cpp:159] Top shape: 10 256 13 13 (432640)
03-06 14:36:10.646 16666 16666 I caffe_jni: I0306 14:36:10.646096 16666 net.cpp:167] Memory required for data: 51674680
03-06 14:36:10.646 16666 16666 I caffe_jni: I0306 14:36:10.646112 16666 layer_factory.hpp:77] Creating layer norm2
03-06 14:36:10.646 16666 16666 I caffe_jni: I0306 14:36:10.646133 16666 net.cpp:102] Creating Layer norm2
03-06 14:36:10.646 16666 16666 I caffe_jni: I0306 14:36:10.646148 16666 net.cpp:436] norm2 <- pool2
03-06 14:36:10.646 16666 16666 I caffe_jni: I0306 14:36:10.646167 16666 net.cpp:410] norm2 -> norm2
03-06 14:36:10.646 16666 16666 I caffe_jni: I0306 14:36:10.646188 16666 net.cpp:152] Setting up norm2
03-06 14:36:10.646 16666 16666 I caffe_jni: I0306 14:36:10.646208 16666 net.cpp:159] Top shape: 10 256 13 13 (432640)
03-06 14:36:10.646 16666 16666 I caffe_jni: I0306 14:36:10.646229 16666 net.cpp:167] Memory required for data: 53405240
03-06 14:36:10.646 16666 16666 I caffe_jni: I0306 14:36:10.646245 16666 layer_factory.hpp:77] Creating layer conv3
03-06 14:36:10.646 16666 16666 I caffe_jni: I0306 14:36:10.646267 16666 net.cpp:102] Creating Layer conv3
03-06 14:36:10.646 16666 16666 I caffe_jni: I0306 14:36:10.646284 16666 net.cpp:436] conv3 <- norm2
03-06 14:36:10.646 16666 16666 I caffe_jni: I0306 14:36:10.646301 16666 net.cpp:410] conv3 -> conv3
03-06 14:36:10.648 16666 16666 I caffe_jni: I0306 14:36:10.648039 16666 net.cpp:152] Setting up conv3
03-06 14:36:10.648 16666 16666 I caffe_jni: I0306 14:36:10.648105 16666 net.cpp:159] Top shape: 10 384 13 13 (648960)
03-06 14:36:10.648 16666 16666 I caffe_jni: I0306 14:36:10.648135 16666 net.cpp:167] Memory required for data: 56001080
03-06 14:36:10.648 16666 16666 I caffe_jni: I0306 14:36:10.648182 16666 layer_factory.hpp:77] Creating layer relu3
03-06 14:36:10.648 16666 16666 I caffe_jni: I0306 14:36:10.648221 16666 net.cpp:102] Creating Layer relu3
03-06 14:36:10.648 16666 16666 I caffe_jni: I0306 14:36:10.648241 16666 net.cpp:436] relu3 <- conv3
03-06 14:36:10.648 16666 16666 I caffe_jni: I0306 14:36:10.648260 16666 net.cpp:397] relu3 -> conv3 (in-place)
03-06 14:36:10.648 16666 16666 I caffe_jni: I0306 14:36:10.648288 16666 net.cpp:152] Setting up relu3
03-06 14:36:10.648 16666 16666 I caffe_jni: I0306 14:36:10.648305 16666 net.cpp:159] Top shape: 10 384 13 13 (648960)
03-06 14:36:10.648 16666 16666 I caffe_jni: I0306 14:36:10.648322 16666 net.cpp:167] Memory required for data: 58596920
03-06 14:36:10.648 16666 16666 I caffe_jni: I0306 14:36:10.648341 16666 layer_factory.hpp:77] Creating layer conv4
03-06 14:36:10.648 16666 16666 I caffe_jni: I0306 14:36:10.648368 16666 net.cpp:102] Creating Layer conv4
03-06 14:36:10.648 16666 16666 I caffe_jni: I0306 14:36:10.648385 16666 net.cpp:436] conv4 <- conv3
03-06 14:36:10.648 16666 16666 I caffe_jni: I0306 14:36:10.648403 16666 net.cpp:410] conv4 -> conv4
03-06 14:36:10.649 16666 16666 I caffe_jni: I0306 14:36:10.649761 16666 net.cpp:152] Setting up conv4
03-06 14:36:10.649 16666 16666 I caffe_jni: I0306 14:36:10.649827 16666 net.cpp:159] Top shape: 10 384 13 13 (648960)
03-06 14:36:10.649 16666 16666 I caffe_jni: I0306 14:36:10.649853 16666 net.cpp:167] Memory required for data: 61192760
03-06 14:36:10.649 16666 16666 I caffe_jni: I0306 14:36:10.649885 16666 layer_factory.hpp:77] Creating layer relu4
03-06 14:36:10.649 16666 16666 I caffe_jni: I0306 14:36:10.649924 16666 net.cpp:102] Creating Layer relu4
03-06 14:36:10.649 16666 16666 I caffe_jni: I0306 14:36:10.649942 16666 net.cpp:436] relu4 <- conv4
03-06 14:36:10.649 16666 16666 I caffe_jni: I0306 14:36:10.649962 16666 net.cpp:397] relu4 -> conv4 (in-place)
03-06 14:36:10.649 16666 16666 I caffe_jni: I0306 14:36:10.649989 16666 net.cpp:152] Setting up relu4
03-06 14:36:10.650 16666 16666 I caffe_jni: I0306 14:36:10.650005 16666 net.cpp:159] Top shape: 10 384 13 13 (648960)
03-06 14:36:10.650 16666 16666 I caffe_jni: I0306 14:36:10.650022 16666 net.cpp:167] Memory required for data: 63788600
03-06 14:36:10.650 16666 16666 I caffe_jni: I0306 14:36:10.650040 16666 layer_factory.hpp:77] Creating layer conv5
03-06 14:36:10.650 16666 16666 I caffe_jni: I0306 14:36:10.650068 16666 net.cpp:102] Creating Layer conv5
03-06 14:36:10.650 16666 16666 I caffe_jni: I0306 14:36:10.650084 16666 net.cpp:436] conv5 <- conv4
03-06 14:36:10.650 16666 16666 I caffe_jni: I0306 14:36:10.650102 16666 net.cpp:410] conv5 -> conv5
03-06 14:36:10.651 16666 16666 I caffe_jni: I0306 14:36:10.651309 16666 net.cpp:152] Setting up conv5
03-06 14:36:10.651 16666 16666 I caffe_jni: I0306 14:36:10.651379 16666 net.cpp:159] Top shape: 10 256 13 13 (432640)
03-06 14:36:10.651 16666 16666 I caffe_jni: I0306 14:36:10.651406 16666 net.cpp:167] Memory required for data: 65519160
03-06 14:36:10.651 16666 16666 I caffe_jni: I0306 14:36:10.651434 16666 layer_factory.hpp:77] Creating layer relu5
03-06 14:36:10.651 16666 16666 I caffe_jni: I0306 14:36:10.651468 16666 net.cpp:102] Creating Layer relu5
03-06 14:36:10.651 16666 16666 I caffe_jni: I0306 14:36:10.651494 16666 net.cpp:436] relu5 <- conv5
03-06 14:36:10.651 16666 16666 I caffe_jni: I0306 14:36:10.651515 16666 net.cpp:397] relu5 -> conv5 (in-place)
03-06 14:36:10.651 16666 16666 I caffe_jni: I0306 14:36:10.651540 16666 net.cpp:152] Setting up relu5
03-06 14:36:10.651 16666 16666 I caffe_jni: I0306 14:36:10.651556 16666 net.cpp:159] Top shape: 10 256 13 13 (432640)
03-06 14:36:10.651 16666 16666 I caffe_jni: I0306 14:36:10.651574 16666 net.cpp:167] Memory required for data: 67249720
03-06 14:36:10.651 16666 16666 I caffe_jni: I0306 14:36:10.651592 16666 layer_factory.hpp:77] Creating layer pool5
03-06 14:36:10.651 16666 16666 I caffe_jni: I0306 14:36:10.651615 16666 net.cpp:102] Creating Layer pool5
03-06 14:36:10.651 16666 16666 I caffe_jni: I0306 14:36:10.651635 16666 net.cpp:436] pool5 <- conv5
03-06 14:36:10.651 16666 16666 I caffe_jni: I0306 14:36:10.651655 16666 net.cpp:410] pool5 -> pool5
03-06 14:36:10.651 16666 16666 I caffe_jni: I0306 14:36:10.651686 16666 net.cpp:152] Setting up pool5
03-06 14:36:10.651 16666 16666 I caffe_jni: I0306 14:36:10.651705 16666 net.cpp:159] Top shape: 10 256 6 6 (92160)
03-06 14:36:10.651 16666 16666 I caffe_jni: I0306 14:36:10.651723 16666 net.cpp:167] Memory required for data: 67618360
03-06 14:36:10.651 16666 16666 I caffe_jni: I0306 14:36:10.651741 16666 layer_factory.hpp:77] Creating layer fc6
03-06 14:36:10.651 16666 16666 I caffe_jni: I0306 14:36:10.651778 16666 net.cpp:102] Creating Layer fc6
03-06 14:36:10.651 16666 16666 I caffe_jni: I0306 14:36:10.651796 16666 net.cpp:436] fc6 <- pool5
03-06 14:36:10.651 16666 16666 I caffe_jni: I0306 14:36:10.651815 16666 net.cpp:410] fc6 -> fc6
03-06 14:36:10.726 16666 16666 I caffe_jni: I0306 14:36:10.726721 16666 net.cpp:152] Setting up fc6
03-06 14:36:10.726 16666 16666 I caffe_jni: I0306 14:36:10.726804 16666 net.cpp:159] Top shape: 10 4096 (40960)
03-06 14:36:10.726 16666 16666 I caffe_jni: I0306 14:36:10.726830 16666 net.cpp:167] Memory required for data: 67782200
03-06 14:36:10.726 16666 16666 I caffe_jni: I0306 14:36:10.726855 16666 layer_factory.hpp:77] Creating layer relu6
03-06 14:36:10.726 16666 16666 I caffe_jni: I0306 14:36:10.726881 16666 net.cpp:102] Creating Layer relu6
03-06 14:36:10.726 16666 16666 I caffe_jni: I0306 14:36:10.726899 16666 net.cpp:436] relu6 <- fc6
03-06 14:36:10.726 16666 16666 I caffe_jni: I0306 14:36:10.726920 16666 net.cpp:397] relu6 -> fc6 (in-place)
03-06 14:36:10.726 16666 16666 I caffe_jni: I0306 14:36:10.726953 16666 net.cpp:152] Setting up relu6
03-06 14:36:10.726 16666 16666 I caffe_jni: I0306 14:36:10.726969 16666 net.cpp:159] Top shape: 10 4096 (40960)
03-06 14:36:10.726 16666 16666 I caffe_jni: I0306 14:36:10.726986 16666 net.cpp:167] Memory required for data: 67946040
03-06 14:36:10.727 16666 16666 I caffe_jni: I0306 14:36:10.727001 16666 layer_factory.hpp:77] Creating layer drop6
03-06 14:36:10.727 16666 16666 I caffe_jni: I0306 14:36:10.727030 16666 net.cpp:102] Creating Layer drop6
03-06 14:36:10.727 16666 16666 I caffe_jni: I0306 14:36:10.727048 16666 net.cpp:436] drop6 <- fc6
03-06 14:36:10.727 16666 16666 I caffe_jni: I0306 14:36:10.727072 16666 net.cpp:397] drop6 -> fc6 (in-place)
03-06 14:36:10.727 16666 16666 I caffe_jni: I0306 14:36:10.727095 16666 net.cpp:152] Setting up drop6
03-06 14:36:10.727 16666 16666 I caffe_jni: I0306 14:36:10.727111 16666 net.cpp:159] Top shape: 10 4096 (40960)
03-06 14:36:10.727 16666 16666 I caffe_jni: I0306 14:36:10.727129 16666 net.cpp:167] Memory required for data: 68109880
03-06 14:36:10.727 16666 16666 I caffe_jni: I0306 14:36:10.727144 16666 layer_factory.hpp:77] Creating layer fc7
03-06 14:36:10.727 16666 16666 I caffe_jni: I0306 14:36:10.727164 16666 net.cpp:102] Creating Layer fc7
03-06 14:36:10.727 16666 16666 I caffe_jni: I0306 14:36:10.727180 16666 net.cpp:436] fc7 <- fc6
03-06 14:36:10.727 16666 16666 I caffe_jni: I0306 14:36:10.727196 16666 net.cpp:410] fc7 -> fc7
03-06 14:36:10.761 16666 16666 I caffe_jni: I0306 14:36:10.761056 16666 net.cpp:152] Setting up fc7
03-06 14:36:10.761 16666 16666 I caffe_jni: I0306 14:36:10.761160 16666 net.cpp:159] Top shape: 10 4096 (40960)
03-06 14:36:10.761 16666 16666 I caffe_jni: I0306 14:36:10.761190 16666 net.cpp:167] Memory required for data: 68273720
03-06 14:36:10.761 16666 16666 I caffe_jni: I0306 14:36:10.761220 16666 layer_factory.hpp:77] Creating layer relu7
03-06 14:36:10.761 16666 16666 I caffe_jni: I0306 14:36:10.761260 16666 net.cpp:102] Creating Layer relu7
03-06 14:36:10.761 16666 16666 I caffe_jni: I0306 14:36:10.761281 16666 net.cpp:436] relu7 <- fc7
03-06 14:36:10.761 16666 16666 I caffe_jni: I0306 14:36:10.761306 16666 net.cpp:397] relu7 -> fc7 (in-place)
03-06 14:36:10.761 16666 16666 I caffe_jni: I0306 14:36:10.761333 16666 net.cpp:152] Setting up relu7
03-06 14:36:10.761 16666 16666 I caffe_jni: I0306 14:36:10.761353 16666 net.cpp:159] Top shape: 10 4096 (40960)
03-06 14:36:10.761 16666 16666 I caffe_jni: I0306 14:36:10.761374 16666 net.cpp:167] Memory required for data: 68437560
03-06 14:36:10.761 16666 16666 I caffe_jni: I0306 14:36:10.761401 16666 layer_factory.hpp:77] Creating layer drop7
03-06 14:36:10.761 16666 16666 I caffe_jni: I0306 14:36:10.761425 16666 net.cpp:102] Creating Layer drop7
03-06 14:36:10.761 16666 16666 I caffe_jni: I0306 14:36:10.761449 16666 net.cpp:436] drop7 <- fc7
03-06 14:36:10.761 16666 16666 I caffe_jni: I0306 14:36:10.761471 16666 net.cpp:397] drop7 -> fc7 (in-place)
03-06 14:36:10.761 16666 16666 I caffe_jni: I0306 14:36:10.761504 16666 net.cpp:152] Setting up drop7
03-06 14:36:10.761 16666 16666 I caffe_jni: I0306 14:36:10.761526 16666 net.cpp:159] Top shape: 10 4096 (40960)
03-06 14:36:10.761 16666 16666 I caffe_jni: I0306 14:36:10.761546 16666 net.cpp:167] Memory required for data: 68601400
03-06 14:36:10.761 16666 16666 I caffe_jni: I0306 14:36:10.761564 16666 layer_factory.hpp:77] Creating layer fc8
03-06 14:36:10.761 16666 16666 I caffe_jni: I0306 14:36:10.761585 16666 net.cpp:102] Creating Layer fc8
03-06 14:36:10.761 16666 16666 I caffe_jni: I0306 14:36:10.761605 16666 net.cpp:436] fc8 <- fc7
03-06 14:36:10.761 16666 16666 I caffe_jni: I0306 14:36:10.761631 16666 net.cpp:410] fc8 -> fc8
03-06 14:36:10.771 16666 16666 I caffe_jni: I0306 14:36:10.771116 16666 net.cpp:152] Setting up fc8
03-06 14:36:10.771 16666 16666 I caffe_jni: I0306 14:36:10.771217 16666 net.cpp:159] Top shape: 10 1000 (10000)
03-06 14:36:10.771 16666 16666 I caffe_jni: I0306 14:36:10.771250 16666 net.cpp:167] Memory required for data: 68641400
03-06 14:36:10.771 16666 16666 I caffe_jni: I0306 14:36:10.771280 16666 layer_factory.hpp:77] Creating layer prob
03-06 14:36:10.771 16666 16666 I caffe_jni: I0306 14:36:10.771311 16666 net.cpp:102] Creating Layer prob
03-06 14:36:10.771 16666 16666 I caffe_jni: I0306 14:36:10.771334 16666 net.cpp:436] prob <- fc8
03-06 14:36:10.771 16666 16666 I caffe_jni: I0306 14:36:10.771360 16666 net.cpp:410] prob -> prob
03-06 14:36:10.771 16666 16666 I caffe_jni: I0306 14:36:10.771399 16666 net.cpp:152] Setting up prob
03-06 14:36:10.771 16666 16666 I caffe_jni: I0306 14:36:10.771419 16666 net.cpp:159] Top shape: 10 1000 (10000)
03-06 14:36:10.771 16666 16666 I caffe_jni: I0306 14:36:10.771440 16666 net.cpp:167] Memory required for data: 68681400
03-06 14:36:10.771 16666 16666 I caffe_jni: I0306 14:36:10.771458 16666 net.cpp:230] prob does not need backward computation.
03-06 14:36:10.771 16666 16666 I caffe_jni: I0306 14:36:10.771477 16666 net.cpp:230] fc8 does not need backward computation.
03-06 14:36:10.771 16666 16666 I caffe_jni: I0306 14:36:10.771497 16666 net.cpp:230] drop7 does not need backward computation.
…
03-06 14:36:25.618 16817 16817 I caffe_jni:   top: "prob"
03-06 14:36:25.618 16817 16817 I caffe_jni: }
03-06 14:36:25.618 16817 16817 I caffe_jni: I0306 14:36:25.618640 16817 layer_factory.hpp:77] Creating layer data
03-06 14:36:25.618 16817 16817 I caffe_jni: I0306 14:36:25.618672 16817 net.cpp:102] Creating Layer data
03-06 14:36:25.618 16817 16817 I caffe_jni: I0306 14:36:25.618695 16817 net.cpp:410] data -> data
03-06 14:36:25.618 16817 16817 I caffe_jni: I0306 14:36:25.618731 16817 net.cpp:152] Setting up data
03-06 14:36:25.618 16817 16817 I caffe_jni: I0306 14:36:25.618748 16817 net.cpp:159] Top shape: 10 3 227 227 (1545870)
03-06 14:36:25.618 16817 16817 I caffe_jni: I0306 14:36:25.618773 16817 net.cpp:167] Memory required for data: 6183480
03-06 14:36:25.618 16817 16817 I caffe_jni: I0306 14:36:25.618790 16817 layer_factory.hpp:77] Creating layer conv1
03-06 14:36:25.618 16817 16817 I caffe_jni: I0306 14:36:25.618818 16817 net.cpp:102] Creating Layer conv1
03-06 14:36:25.618 16817 16817 I caffe_jni: I0306 14:36:25.618834 16817 net.cpp:436] conv1 <- data
03-06 14:36:25.618 16817 16817 I caffe_jni: I0306 14:36:25.618854 16817 net.cpp:410] conv1 -> conv1
03-06 14:36:25.618 16817 16817 I caffe_jni: I0306 14:36:25.618983 16817 net.cpp:152] Setting up conv1
03-06 14:36:25.619 16817 16817 I caffe_jni: I0306 14:36:25.619010 16817 net.cpp:159] Top shape: 10 96 55 55 (2904000)
03-06 14:36:25.619 16817 16817 I caffe_jni: I0306 14:36:25.619029 16817 net.cpp:167] Memory required for data: 17799480
03-06 14:36:25.619 16817 16817 I caffe_jni: I0306 14:36:25.619055 16817 layer_factory.hpp:77] Creating layer relu1
03-06 14:36:25.619 16817 16817 I caffe_jni: I0306 14:36:25.619076 16817 net.cpp:102] Creating Layer relu1
03-06 14:36:25.619 16817 16817 I caffe_jni: I0306 14:36:25.619104 16817 net.cpp:436] relu1 <- conv1
03-06 14:36:25.619 16817 16817 I caffe_jni: I0306 14:36:25.619122 16817 net.cpp:397] relu1 -> conv1 (in-place)
03-06 14:36:25.619 16817 16817 I caffe_jni: I0306 14:36:25.619143 16817 net.cpp:152] Setting up relu1
03-06 14:36:25.619 16817 16817 I caffe_jni: I0306 14:36:25.619166 16817 net.cpp:159] Top shape: 10 96 55 55 (2904000)
03-06 14:36:25.619 16817 16817 I caffe_jni: I0306 14:36:25.619184 16817 net.cpp:167] Memory required for data: 29415480
03-06 14:36:25.619 16817 16817 I caffe_jni: I0306 14:36:25.619200 16817 layer_factory.hpp:77] Creating layer pool1
03-06 14:36:25.619 16817 16817 I caffe_jni: I0306 14:36:25.619220 16817 net.cpp:102] Creating Layer pool1
03-06 14:36:25.619 16817 16817 I caffe_jni: I0306 14:36:25.619235 16817 net.cpp:436] pool1 <- conv1
03-06 14:36:25.619 16817 16817 I caffe_jni: I0306 14:36:25.619252 16817 net.cpp:410] pool1 -> pool1
03-06 14:36:25.619 16817 16817 I caffe_jni: I0306 14:36:25.619282 16817 net.cpp:152] Setting up pool1
03-06 14:36:25.619 16817 16817 I caffe_jni: I0306 14:36:25.619312 16817 net.cpp:159] Top shape: 10 96 27 27 (699840)
03-06 14:36:25.619 16817 16817 I caffe_jni: I0306 14:36:25.619330 16817 net.cpp:167] Memory required for data: 32214840
03-06 14:36:25.619 16817 16817 I caffe_jni: I0306 14:36:25.619345 16817 layer_factory.hpp:77] Creating layer norm1
03-06 14:36:25.619 16817 16817 I caffe_jni: I0306 14:36:25.619365 16817 net.cpp:102] Creating Layer norm1
03-06 14:36:25.619 16817 16817 I caffe_jni: I0306 14:36:25.619381 16817 net.cpp:436] norm1 <- pool1
03-06 14:36:25.619 16817 16817 I caffe_jni: I0306 14:36:25.619400 16817 net.cpp:410] norm1 -> norm1
03-06 14:36:25.619 16817 16817 I caffe_jni: I0306 14:36:25.619426 16817 net.cpp:152] Setting up norm1
03-06 14:36:25.619 16817 16817 I caffe_jni: I0306 14:36:25.619441 16817 net.cpp:159] Top shape: 10 96 27 27 (699840)
03-06 14:36:25.619 16817 16817 I caffe_jni: I0306 14:36:25.619459 16817 net.cpp:167] Memory required for data: 35014200
03-06 14:36:25.619 16817 16817 I caffe_jni: I0306 14:36:25.619474 16817 layer_factory.hpp:77] Creating layer conv2
03-06 14:36:25.619 16817 16817 I caffe_jni: I0306 14:36:25.619493 16817 net.cpp:102] Creating Layer conv2
03-06 14:36:25.619 16817 16817 I caffe_jni: I0306 14:36:25.619509 16817 net.cpp:436] conv2 <- norm1
03-06 14:36:25.619 16817 16817 I caffe_jni: I0306 14:36:25.619526 16817 net.cpp:410] conv2 -> conv2
03-06 14:36:25.620 16817 16817 I caffe_jni: I0306 14:36:25.620173 16817 net.cpp:152] Setting up conv2
03-06 14:36:25.620 16817 16817 I caffe_jni: I0306 14:36:25.620213 16817 net.cpp:159] Top shape: 10 256 27 27 (1866240)
03-06 14:36:25.620 16817 16817 I caffe_jni: I0306 14:36:25.620235 16817 net.cpp:167] Memory required for data: 42479160
03-06 14:36:25.620 16817 16817 I caffe_jni: I0306 14:36:25.620260 16817 layer_factory.hpp:77] Creating layer relu2
03-06 14:36:25.620 16817 16817 I caffe_jni: I0306 14:36:25.620290 16817 net.cpp:102] Creating Layer relu2
03-06 14:36:25.620 16817 16817 I caffe_jni: I0306 14:36:25.620307 16817 net.cpp:436] relu2 <- conv2
03-06 14:36:25.620 16817 16817 I caffe_jni: I0306 14:36:25.620324 16817 net.cpp:397] relu2 -> conv2 (in-place)
03-06 14:36:25.620 16817 16817 I caffe_jni: I0306 14:36:25.620345 16817 net.cpp:152] Setting up relu2
03-06 14:36:25.620 16817 16817 I caffe_jni: I0306 14:36:25.620360 16817 net.cpp:159] Top shape: 10 256 27 27 (1866240)
03-06 14:36:25.620 16817 16817 I caffe_jni: I0306 14:36:25.620378 16817 net.cpp:167] Memory required for data: 49944120
03-06 14:36:25.620 16817 16817 I caffe_jni: I0306 14:36:25.620393 16817 layer_factory.hpp:77] Creating layer pool2
03-06 14:36:25.620 16817 16817 I caffe_jni: I0306 14:36:25.620412 16817 net.cpp:102] Creating Layer pool2
03-06 14:36:25.620 16817 16817 I caffe_jni: I0306 14:36:25.620429 16817 net.cpp:436] pool2 <- conv2
03-06 14:36:25.620 16817 16817 I caffe_jni: I0306 14:36:25.620445 16817 net.cpp:410] pool2 -> pool2
03-06 14:36:25.620 16817 16817 I caffe_jni: I0306 14:36:25.620472 16817 net.cpp:152] Setting up pool2
03-06 14:36:25.620 16817 16817 I caffe_jni: I0306 14:36:25.620489 16817 net.cpp:159] Top shape: 10 256 13 13 (432640)
03-06 14:36:25.620 16817 16817 I caffe_jni: I0306 14:36:25.620512 16817 net.cpp:167] Memory required for data: 51674680
03-06 14:36:25.620 16817 16817 I caffe_jni: I0306 14:36:25.620528 16817 layer_factory.hpp:77] Creating layer norm2
03-06 14:36:25.620 16817 16817 I caffe_jni: I0306 14:36:25.620549 16817 net.cpp:102] Creating Layer norm2
03-06 14:36:25.620 16817 16817 I caffe_jni: I0306 14:36:25.620565 16817 net.cpp:436] norm2 <- pool2
03-06 14:36:25.620 16817 16817 I caffe_jni: I0306 14:36:25.620581 16817 net.cpp:410] norm2 -> norm2
03-06 14:36:25.620 16817 16817 I caffe_jni: I0306 14:36:25.620606 16817 net.cpp:152] Setting up norm2
03-06 14:36:25.620 16817 16817 I caffe_jni: I0306 14:36:25.620622 16817 net.cpp:159] Top shape: 10 256 13 13 (432640)
03-06 14:36:25.620 16817 16817 I caffe_jni: I0306 14:36:25.620640 16817 net.cpp:167] Memory required for data: 53405240
03-06 14:36:25.620 16817 16817 I caffe_jni: I0306 14:36:25.620656 16817 layer_factory.hpp:77] Creating layer conv3
03-06 14:36:25.620 16817 16817 I caffe_jni: I0306 14:36:25.620676 16817 net.cpp:102] Creating Layer conv3
03-06 14:36:25.620 16817 16817 I caffe_jni: I0306 14:36:25.620692 16817 net.cpp:436] conv3 <- norm2
03-06 14:36:25.620 16817 16817 I caffe_jni: I0306 14:36:25.620710 16817 net.cpp:410] conv3 -> conv3
03-06 14:36:25.622 16817 16817 I caffe_jni: I0306 14:36:25.622593 16817 net.cpp:152] Setting up conv3
03-06 14:36:25.622 16817 16817 I caffe_jni: I0306 14:36:25.622681 16817 net.cpp:159] Top shape: 10 384 13 13 (648960)
03-06 14:36:25.622 16817 16817 I caffe_jni: I0306 14:36:25.622707 16817 net.cpp:167] Memory required for data: 56001080
03-06 14:36:25.622 16817 16817 I caffe_jni: I0306 14:36:25.622740 16817 layer_factory.hpp:77] Creating layer relu3
03-06 14:36:25.622 16817 16817 I caffe_jni: I0306 14:36:25.622777 16817 net.cpp:102] Creating Layer relu3
03-06 14:36:25.622 16817 16817 I caffe_jni: I0306 14:36:25.622795 16817 net.cpp:436] relu3 <- conv3
03-06 14:36:25.622 16817 16817 I caffe_jni: I0306 14:36:25.622817 16817 net.cpp:397] relu3 -> conv3 (in-place)
03-06 14:36:25.622 16817 16817 I caffe_jni: I0306 14:36:25.622843 16817 net.cpp:152] Setting up relu3
03-06 14:36:25.622 16817 16817 I caffe_jni: I0306 14:36:25.622858 16817 net.cpp:159] Top shape: 10 384 13 13 (648960)
03-06 14:36:25.622 16817 16817 I caffe_jni: I0306 14:36:25.622874 16817 net.cpp:167] Memory required for data: 58596920
03-06 14:36:25.622 16817 16817 I caffe_jni: I0306 14:36:25.622890 16817 layer_factory.hpp:77] Creating layer conv4
03-06 14:36:25.622 16817 16817 I caffe_jni: I0306 14:36:25.622913 16817 net.cpp:102] Creating Layer conv4
03-06 14:36:25.622 16817 16817 I caffe_jni: I0306 14:36:25.622930 16817 net.cpp:436] conv4 <- conv3
03-06 14:36:25.622 16817 16817 I caffe_jni: I0306 14:36:25.622947 16817 net.cpp:410] conv4 -> conv4
03-06 14:36:25.624 16817 16817 I caffe_jni: I0306 14:36:25.624347 16817 net.cpp:152] Setting up conv4
03-06 14:36:25.624 16817 16817 I caffe_jni: I0306 14:36:25.624424 16817 net.cpp:159] Top shape: 10 384 13 13 (648960)
03-06 14:36:25.624 16817 16817 I caffe_jni: I0306 14:36:25.624456 16817 net.cpp:167] Memory required for data: 61192760
03-06 14:36:25.624 16817 16817 I caffe_jni: I0306 14:36:25.624482 16817 layer_factory.hpp:77] Creating layer relu4
03-06 14:36:25.624 16817 16817 I caffe_jni: I0306 14:36:25.624507 16817 net.cpp:102] Creating Layer relu4
03-06 14:36:25.624 16817 16817 I caffe_jni: I0306 14:36:25.624526 16817 net.cpp:436] relu4 <- conv4
03-06 14:36:25.624 16817 16817 I caffe_jni: I0306 14:36:25.624547 16817 net.cpp:397] relu4 -> conv4 (in-place)
03-06 14:36:25.624 16817 16817 I caffe_jni: I0306 14:36:25.624572 16817 net.cpp:152] Setting up relu4
03-06 14:36:25.624 16817 16817 I caffe_jni: I0306 14:36:25.624640 16817 net.cpp:159] Top shape: 10 384 13 13 (648960)
03-06 14:36:25.624 16817 16817 I caffe_jni: I0306 14:36:25.624672 16817 net.cpp:167] Memory required for data: 63788600
03-06 14:36:25.624 16817 16817 I caffe_jni: I0306 14:36:25.624691 16817 layer_factory.hpp:77] Creating layer conv5
03-06 14:36:25.624 16817 16817 I caffe_jni: I0306 14:36:25.624722 16817 net.cpp:102] Creating Layer conv5
03-06 14:36:25.624 16817 16817 I caffe_jni: I0306 14:36:25.624739 16817 net.cpp:436] conv5 <- conv4
03-06 14:36:25.624 16817 16817 I caffe_jni: I0306 14:36:25.624758 16817 net.cpp:410] conv5 -> conv5
03-06 14:36:25.625 16817 16817 I caffe_jni: I0306 14:36:25.625716 16817 net.cpp:152] Setting up conv5
03-06 14:36:25.625 16817 16817 I caffe_jni: I0306 14:36:25.625783 16817 net.cpp:159] Top shape: 10 256 13 13 (432640)
03-06 14:36:25.625 16817 16817 I caffe_jni: I0306 14:36:25.625809 16817 net.cpp:167] Memory required for data: 65519160
03-06 14:36:25.625 16817 16817 I caffe_jni: I0306 14:36:25.625839 16817 layer_factory.hpp:77] Creating layer relu5
03-06 14:36:25.625 16817 16817 I caffe_jni: I0306 14:36:25.625866 16817 net.cpp:102] Creating Layer relu5
03-06 14:36:25.625 16817 16817 I caffe_jni: I0306 14:36:25.625885 16817 net.cpp:436] relu5 <- conv5
03-06 14:36:25.625 16817 16817 I caffe_jni: I0306 14:36:25.625903 16817 net.cpp:397] relu5 -> conv5 (in-place)
03-06 14:36:25.625 16817 16817 I caffe_jni: I0306 14:36:25.625927 16817 net.cpp:152] Setting up relu5
03-06 14:36:25.625 16817 16817 I caffe_jni: I0306 14:36:25.625942 16817 net.cpp:159] Top shape: 10 256 13 13 (432640)
03-06 14:36:25.625 16817 16817 I caffe_jni: I0306 14:36:25.625959 16817 net.cpp:167] Memory required for data: 67249720
03-06 14:36:25.625 16817 16817 I caffe_jni: I0306 14:36:25.625974 16817 layer_factory.hpp:77] Creating layer pool5
03-06 14:36:25.625 16817 16817 I caffe_jni: I0306 14:36:25.625995 16817 net.cpp:102] Creating Layer pool5
03-06 14:36:25.626 16817 16817 I caffe_jni: I0306 14:36:25.626011 16817 net.cpp:436] pool5 <- conv5
03-06 14:36:25.626 16817 16817 I caffe_jni: I0306 14:36:25.626029 16817 net.cpp:410] pool5 -> pool5
03-06 14:36:25.626 16817 16817 I caffe_jni: I0306 14:36:25.626056 16817 net.cpp:152] Setting up pool5
03-06 14:36:25.626 16817 16817 I caffe_jni: I0306 14:36:25.626072 16817 net.cpp:159] Top shape: 10 256 6 6 (92160)
03-06 14:36:25.626 16817 16817 I caffe_jni: I0306 14:36:25.626093 16817 net.cpp:167] Memory required for data: 67618360
03-06 14:36:25.626 16817 16817 I caffe_jni: I0306 14:36:25.626109 16817 layer_factory.hpp:77] Creating layer fc6
03-06 14:36:25.626 16817 16817 I caffe_jni: I0306 14:36:25.626140 16817 net.cpp:102] Creating Layer fc6
03-06 14:36:25.626 16817 16817 I caffe_jni: I0306 14:36:25.626157 16817 net.cpp:436] fc6 <- pool5
…
03-06 14:36:25.656   742  1828 D DE N HWC: apply:55: FEATURE_SAT: mEnable=0 enable=0
03-06 14:36:25.656   742  1828 D DE N HWC: apply:55: FEATURE_PANEL_INFO: mEnable=0 enable=0
03-06 14:36:25.656   742  1828 D DE N HWC: apply:55: FEATURE_DDIC_RGBW: mEnable=0 enable=0
03-06 14:36:25.656   742  1828 D DE N HWC: apply:55: FEATURE_DDIC_CABC: mEnable=0 enable=0
03-06 14:36:25.671   742  1826 D DE N VH : run:148: Stop
03-06 14:36:25.702 16817 16817 I caffe_jni: I0306 14:36:25.702968 16817 net.cpp:152] Setting up fc6
03-06 14:36:25.703 16817 16817 I caffe_jni: I0306 14:36:25.703053 16817 net.cpp:159] Top shape: 10 4096 (40960)
03-06 14:36:25.703 16817 16817 I caffe_jni: I0306 14:36:25.703084 16817 net.cpp:167] Memory required for data: 67782200
03-06 14:36:25.703 16817 16817 I caffe_jni: I0306 14:36:25.703115 16817 layer_factory.hpp:77] Creating layer relu6
03-06 14:36:25.703 16817 16817 I caffe_jni: I0306 14:36:25.703145 16817 net.cpp:102] Creating Layer relu6
03-06 14:36:25.703 16817 16817 I caffe_jni: I0306 14:36:25.703166 16817 net.cpp:436] relu6 <- fc6
03-06 14:36:25.703 16817 16817 I caffe_jni: I0306 14:36:25.703191 16817 net.cpp:397] relu6 -> fc6 (in-place)
03-06 14:36:25.703 16817 16817 I caffe_jni: I0306 14:36:25.703218 16817 net.cpp:152] Setting up relu6
03-06 14:36:25.703 16817 16817 I caffe_jni: I0306 14:36:25.703244 16817 net.cpp:159] Top shape: 10 4096 (40960)
03-06 14:36:25.703 16817 16817 I caffe_jni: I0306 14:36:25.703264 16817 net.cpp:167] Memory required for data: 67946040
03-06 14:36:25.703 16817 16817 I caffe_jni: I0306 14:36:25.703284 16817 layer_factory.hpp:77] Creating layer drop6
03-06 14:36:25.703 16817 16817 I caffe_jni: I0306 14:36:25.703315 16817 net.cpp:102] Creating Layer drop6
03-06 14:36:25.703 16817 16817 I caffe_jni: I0306 14:36:25.703336 16817 net.cpp:436] drop6 <- fc6
03-06 14:36:25.703 16817 16817 I caffe_jni: I0306 14:36:25.703356 16817 net.cpp:397] drop6 -> fc6 (in-place)
03-06 14:36:25.703 16817 16817 I caffe_jni: I0306 14:36:25.703380 16817 net.cpp:152] Setting up drop6
03-06 14:36:25.703 16817 16817 I caffe_jni: I0306 14:36:25.703399 16817 net.cpp:159] Top shape: 10 4096 (40960)
03-06 14:36:25.703 16817 16817 I caffe_jni: I0306 14:36:25.703420 16817 net.cpp:167] Memory required for data: 68109880
03-06 14:36:25.703 16817 16817 I caffe_jni: I0306 14:36:25.703439 16817 layer_factory.hpp:77] Creating layer fc7
03-06 14:36:25.703 16817 16817 I caffe_jni: I0306 14:36:25.703462 16817 net.cpp:102] Creating Layer fc7
03-06 14:36:25.703 16817 16817 I caffe_jni: I0306 14:36:25.703481 16817 net.cpp:436] fc7 <- fc6
03-06 14:36:25.703 16817 16817 I caffe_jni: I0306 14:36:25.703503 16817 net.cpp:410] fc7 -> fc7
03-06 14:36:25.739 16817 16817 I caffe_jni: I0306 14:36:25.738997 16817 net.cpp:152] Setting up fc7
03-06 14:36:25.739 16817 16817 I caffe_jni: I0306 14:36:25.739106 16817 net.cpp:159] Top shape: 10 4096 (40960)
03-06 14:36:25.739 16817 16817 I caffe_jni: I0306 14:36:25.739137 16817 net.cpp:167] Memory required for data: 68273720
03-06 14:36:25.739 16817 16817 I caffe_jni: I0306 14:36:25.739168 16817 layer_factory.hpp:77] Creating layer relu7
03-06 14:36:25.739 16817 16817 I caffe_jni: I0306 14:36:25.739202 16817 net.cpp:102] Creating Layer relu7
03-06 14:36:25.739 16817 16817 I caffe_jni: I0306 14:36:25.739223 16817 net.cpp:436] relu7 <- fc7
03-06 14:36:25.739 16817 16817 I caffe_jni: I0306 14:36:25.739248 16817 net.cpp:397] relu7 -> fc7 (in-place)
03-06 14:36:25.739 16817 16817 I caffe_jni: I0306 14:36:25.739284 16817 net.cpp:152] Setting up relu7
03-06 14:36:25.739 16817 16817 I caffe_jni: I0306 14:36:25.739305 16817 net.cpp:159] Top shape: 10 4096 (40960)
03-06 14:36:25.739 16817 16817 I caffe_jni: I0306 14:36:25.739326 16817 net.cpp:167] Memory required for data: 68437560
03-06 14:36:25.739 16817 16817 I caffe_jni: I0306 14:36:25.739346 16817 layer_factory.hpp:77] Creating layer drop7
03-06 14:36:25.739 16817 16817 I caffe_jni: I0306 14:36:25.739374 16817 net.cpp:102] Creating Layer drop7
03-06 14:36:25.739 16817 16817 I caffe_jni: I0306 14:36:25.739394 16817 net.cpp:436] drop7 <- fc7
03-06 14:36:25.739 16817 16817 I caffe_jni: I0306 14:36:25.739414 16817 net.cpp:397] drop7 -> fc7 (in-place)
03-06 14:36:25.739 16817 16817 I caffe_jni: I0306 14:36:25.739440 16817 net.cpp:152] Setting up drop7
03-06 14:36:25.739 16817 16817 I caffe_jni: I0306 14:36:25.739460 16817 net.cpp:159] Top shape: 10 4096 (40960)
03-06 14:36:25.739 16817 16817 I caffe_jni: I0306 14:36:25.739480 16817 net.cpp:167] Memory required for data: 68601400
03-06 14:36:25.739 16817 16817 I caffe_jni: I0306 14:36:25.739500 16817 layer_factory.hpp:77] Creating layer fc8
03-06 14:36:25.739 16817 16817 I caffe_jni: I0306 14:36:25.739523 16817 net.cpp:102] Creating Layer fc8
03-06 14:36:25.739 16817 16817 I caffe_jni: I0306 14:36:25.739542 16817 net.cpp:436] fc8 <- fc7
03-06 14:36:25.739 16817 16817 I caffe_jni: I0306 14:36:25.739562 16817 net.cpp:410] fc8 -> fc8
03-06 14:36:25.749 16817 16817 I caffe_jni: I0306 14:36:25.749052 16817 net.cpp:152] Setting up fc8
03-06 14:36:25.749 16817 16817 I caffe_jni: I0306 14:36:25.749153 16817 net.cpp:159] Top shape: 10 1000 (10000)
03-06 14:36:25.749 16817 16817 I caffe_jni: I0306 14:36:25.749183 16817 net.cpp:167] Memory required for data: 68641400
03-06 14:36:25.749 16817 16817 I caffe_jni: I0306 14:36:25.749215 16817 layer_factory.hpp:77] Creating layer prob
03-06 14:36:25.749 16817 16817 I caffe_jni: I0306 14:36:25.749245 16817 net.cpp:102] Creating Layer prob
03-06 14:36:25.749 16817 16817 I caffe_jni: I0306 14:36:25.749269 16817 net.cpp:436] prob <- fc8
03-06 14:36:25.749 16817 16817 I caffe_jni: I0306 14:36:25.749295 16817 net.cpp:410] prob -> prob
03-06 14:36:25.749 16817 16817 I caffe_jni: I0306 14:36:25.749338 16817 net.cpp:152] Setting up prob
03-06 14:36:25.749 16817 16817 I caffe_jni: I0306 14:36:25.749358 16817 net.cpp:159] Top shape: 10 1000 (10000)
03-06 14:36:25.749 16817 16817 I caffe_jni: I0306 14:36:25.749379 16817 net.cpp:167] Memory required for data: 68681400
03-06 14:36:25.749 16817 16817 I caffe_jni: I0306 14:36:25.749398 16817 net.cpp:230] prob does not need backward computation.
03-06 14:36:25.749 16817 16817 I caffe_jni: I0306 14:36:25.749418 16817 net.cpp:230] fc8 does not need backward computation.
03-06 14:36:25.749 16817 16817 I caffe_jni: I0306 14:36:25.749438 16817 net.cpp:230] drop7 does not need backward computation.
…
