…
02-26 17:17:22.723 11048 11048 I caffe_jni: I0226 17:17:22.723104 11048 layer_factory.hpp:77] Creating layer input
02-26 17:17:22.723 11048 11048 I caffe_jni: I0226 17:17:22.723167 11048 net.cpp:102] Creating Layer input
02-26 17:17:22.723 11048 11048 I caffe_jni: I0226 17:17:22.723193 11048 net.cpp:410] input -> data
02-26 17:17:22.723 11048 11048 I caffe_jni: I0226 17:17:22.723228 11048 net.cpp:410] input -> im_info
02-26 17:17:22.723 11048 11048 I caffe_jni: I0226 17:17:22.723264 11048 net.cpp:152] Setting up input
02-26 17:17:22.723 11048 11048 I caffe_jni: I0226 17:17:22.723282 11048 net.cpp:159] Top shape: 1 3 224 224 (150528)
02-26 17:17:22.723 11048 11048 I caffe_jni: I0226 17:17:22.723302 11048 net.cpp:159] Top shape: 1 3 (3)
02-26 17:17:22.723 11048 11048 I caffe_jni: I0226 17:17:22.723320 11048 net.cpp:167] Memory required for data: 602124
02-26 17:17:22.723 11048 11048 I caffe_jni: I0226 17:17:22.723336 11048 layer_factory.hpp:77] Creating layer conv1
02-26 17:17:22.723 11048 11048 I caffe_jni: I0226 17:17:22.723364 11048 net.cpp:102] Creating Layer conv1
02-26 17:17:22.723 11048 11048 I caffe_jni: I0226 17:17:22.723381 11048 net.cpp:436] conv1 <- data
02-26 17:17:22.723 11048 11048 I caffe_jni: I0226 17:17:22.723402 11048 net.cpp:410] conv1 -> conv1
02-26 17:17:22.723 11048 11048 I caffe_jni: I0226 17:17:22.723522 11048 net.cpp:152] Setting up conv1
02-26 17:17:22.723 11048 11048 I caffe_jni: I0226 17:17:22.723546 11048 net.cpp:159] Top shape: 1 64 112 112 (802816)
02-26 17:17:22.723 11048 11048 I caffe_jni: I0226 17:17:22.723565 11048 net.cpp:167] Memory required for data: 3813388
02-26 17:17:22.723 11048 11048 I caffe_jni: I0226 17:17:22.723593 11048 layer_factory.hpp:77] Creating layer bn_conv1
02-26 17:17:22.723 11048 11048 I caffe_jni: I0226 17:17:22.723618 11048 net.cpp:102] Creating Layer bn_conv1
02-26 17:17:22.723 11048 11048 I caffe_jni: I0226 17:17:22.723634 11048 net.cpp:436] bn_conv1 <- conv1
02-26 17:17:22.723 11048 11048 I caffe_jni: I0226 17:17:22.723654 11048 net.cpp:397] bn_conv1 -> conv1 (in-place)
02-26 17:17:22.723 11048 11048 I caffe_jni: I0226 17:17:22.723719 11048 net.cpp:152] Setting up bn_conv1
02-26 17:17:22.723 11048 11048 I caffe_jni: I0226 17:17:22.723737 11048 net.cpp:159] Top shape: 1 64 112 112 (802816)
02-26 17:17:22.723 11048 11048 I caffe_jni: I0226 17:17:22.723755 11048 net.cpp:167] Memory required for data: 7024652
02-26 17:17:22.723 11048 11048 I caffe_jni: I0226 17:17:22.723788 11048 layer_factory.hpp:77] Creating layer scale_conv1
02-26 17:17:22.723 11048 11048 I caffe_jni: I0226 17:17:22.723812 11048 net.cpp:102] Creating Layer scale_conv1
02-26 17:17:22.723 11048 11048 I caffe_jni: I0226 17:17:22.723829 11048 net.cpp:436] scale_conv1 <- conv1
02-26 17:17:22.723 11048 11048 I caffe_jni: I0226 17:17:22.723847 11048 net.cpp:397] scale_conv1 -> conv1 (in-place)
02-26 17:17:22.723 11048 11048 I caffe_jni: I0226 17:17:22.723878 11048 layer_factory.hpp:77] Creating layer scale_conv1
02-26 17:17:22.723 11048 11048 I caffe_jni: I0226 17:17:22.723986 11048 net.cpp:152] Setting up scale_conv1
02-26 17:17:22.724 11048 11048 I caffe_jni: I0226 17:17:22.724015 11048 net.cpp:159] Top shape: 1 64 112 112 (802816)
02-26 17:17:22.724 11048 11048 I caffe_jni: I0226 17:17:22.724035 11048 net.cpp:167] Memory required for data: 10235916
02-26 17:17:22.724 11048 11048 I caffe_jni: I0226 17:17:22.724056 11048 layer_factory.hpp:77] Creating layer conv1_relu
02-26 17:17:22.724 11048 11048 I caffe_jni: I0226 17:17:22.724081 11048 net.cpp:102] Creating Layer conv1_relu
02-26 17:17:22.724 11048 11048 I caffe_jni: I0226 17:17:22.724097 11048 net.cpp:436] conv1_relu <- conv1
02-26 17:17:22.724 11048 11048 I caffe_jni: I0226 17:17:22.724115 11048 net.cpp:397] conv1_relu -> conv1 (in-place)
02-26 17:17:22.724 11048 11048 I caffe_jni: I0226 17:17:22.724135 11048 net.cpp:152] Setting up conv1_relu
02-26 17:17:22.724 11048 11048 I caffe_jni: I0226 17:17:22.724151 11048 net.cpp:159] Top shape: 1 64 112 112 (802816)
02-26 17:17:22.724 11048 11048 I caffe_jni: I0226 17:17:22.724169 11048 net.cpp:167] Memory required for data: 13447180
02-26 17:17:22.724 11048 11048 I caffe_jni: I0226 17:17:22.724184 11048 layer_factory.hpp:77] Creating layer pool1
02-26 17:17:22.724 11048 11048 I caffe_jni: I0226 17:17:22.724203 11048 net.cpp:102] Creating Layer pool1
02-26 17:17:22.724 11048 11048 I caffe_jni: I0226 17:17:22.724220 11048 net.cpp:436] pool1 <- conv1
02-26 17:17:22.724 11048 11048 I caffe_jni: I0226 17:17:22.724237 11048 net.cpp:410] pool1 -> pool1
02-26 17:17:22.724 11048 11048 I caffe_jni: I0226 17:17:22.724269 11048 net.cpp:152] Setting up pool1
02-26 17:17:22.724 11048 11048 I caffe_jni: I0226 17:17:22.724285 11048 net.cpp:159] Top shape: 1 64 56 56 (200704)
02-26 17:17:22.724 11048 11048 I caffe_jni: I0226 17:17:22.724303 11048 net.cpp:167] Memory required for data: 14249996
02-26 17:17:22.724 11048 11048 I caffe_jni: I0226 17:17:22.724319 11048 layer_factory.hpp:77] Creating layer pool1_pool1_0_split
02-26 17:17:22.724 11048 11048 I caffe_jni: I0226 17:17:22.724340 11048 net.cpp:102] Creating Layer pool1_pool1_0_split
02-26 17:17:22.724 11048 11048 I caffe_jni: I0226 17:17:22.724356 11048 net.cpp:436] pool1_pool1_0_split <- pool1
02-26 17:17:22.724 11048 11048 I caffe_jni: I0226 17:17:22.724375 11048 net.cpp:410] pool1_pool1_0_split -> pool1_pool1_0_split_0
02-26 17:17:22.724 11048 11048 I caffe_jni: I0226 17:17:22.724395 11048 net.cpp:410] pool1_pool1_0_split -> pool1_pool1_0_split_1
02-26 17:17:22.724 11048 11048 I caffe_jni: I0226 17:17:22.724419 11048 net.cpp:152] Setting up pool1_pool1_0_split
02-26 17:17:22.724 11048 11048 I caffe_jni: I0226 17:17:22.724437 11048 net.cpp:159] Top shape: 1 64 56 56 (200704)
02-26 17:17:22.724 11048 11048 I caffe_jni: I0226 17:17:22.724455 11048 net.cpp:159] Top shape: 1 64 56 56 (200704)
02-26 17:17:22.724 11048 11048 I caffe_jni: I0226 17:17:22.724472 11048 net.cpp:167] Memory required for data: 15855628
02-26 17:17:22.724 11048 11048 I caffe_jni: I0226 17:17:22.724488 11048 layer_factory.hpp:77] Creating layer res2a_branch1
02-26 17:17:22.724 11048 11048 I caffe_jni: I0226 17:17:22.724509 11048 net.cpp:102] Creating Layer res2a_branch1
02-26 17:17:22.724 11048 11048 I caffe_jni: I0226 17:17:22.724526 11048 net.cpp:436] res2a_branch1 <- pool1_pool1_0_split_0
02-26 17:17:22.724 11048 11048 I caffe_jni: I0226 17:17:22.724545 11048 net.cpp:410] res2a_branch1 -> res2a_branch1
02-26 17:17:22.724 11048 11048 I caffe_jni: I0226 17:17:22.724625 11048 net.cpp:152] Setting up res2a_branch1
02-26 17:17:22.724 11048 11048 I caffe_jni: I0226 17:17:22.724643 11048 net.cpp:159] Top shape: 1 256 56 56 (802816)
02-26 17:17:22.724 11048 11048 I caffe_jni: I0226 17:17:22.724661 11048 net.cpp:167] Memory required for data: 19066892
02-26 17:17:22.724 11048 11048 I caffe_jni: I0226 17:17:22.724680 11048 layer_factory.hpp:77] Creating layer bn2a_branch1
02-26 17:17:22.724 11048 11048 I caffe_jni: I0226 17:17:22.724702 11048 net.cpp:102] Creating Layer bn2a_branch1
02-26 17:17:22.724 11048 11048 I caffe_jni: I0226 17:17:22.724719 11048 net.cpp:436] bn2a_branch1 <- res2a_branch1
02-26 17:17:22.724 11048 11048 I caffe_jni: I0226 17:17:22.724736 11048 net.cpp:397] bn2a_branch1 -> res2a_branch1 (in-place)
02-26 17:17:22.724 11048 11048 I caffe_jni: I0226 17:17:22.724779 11048 net.cpp:152] Setting up bn2a_branch1
02-26 17:17:22.724 11048 11048 I caffe_jni: I0226 17:17:22.724797 11048 net.cpp:159] Top shape: 1 256 56 56 (802816)
02-26 17:17:22.724 11048 11048 I caffe_jni: I0226 17:17:22.724815 11048 net.cpp:167] Memory required for data: 22278156
02-26 17:17:22.724 11048 11048 I caffe_jni: I0226 17:17:22.724843 11048 layer_factory.hpp:77] Creating layer scale2a_branch1
02-26 17:17:22.724 11048 11048 I caffe_jni: I0226 17:17:22.724862 11048 net.cpp:102] Creating Layer scale2a_branch1
02-26 17:17:22.724 11048 11048 I caffe_jni: I0226 17:17:22.724877 11048 net.cpp:436] scale2a_branch1 <- res2a_branch1
02-26 17:17:22.724 11048 11048 I caffe_jni: I0226 17:17:22.724896 11048 net.cpp:397] scale2a_branch1 -> res2a_branch1 (in-place)
02-26 17:17:22.724 11048 11048 I caffe_jni: I0226 17:17:22.724922 11048 layer_factory.hpp:77] Creating layer scale2a_branch1
02-26 17:17:22.725 11048 11048 I caffe_jni: I0226 17:17:22.725029 11048 net.cpp:152] Setting up scale2a_branch1
02-26 17:17:22.725 11048 11048 I caffe_jni: I0226 17:17:22.725050 11048 net.cpp:159] Top shape: 1 256 56 56 (802816)
02-26 17:17:22.725 11048 11048 I caffe_jni: I0226 17:17:22.725069 11048 net.cpp:167] Memory required for data: 25489420
02-26 17:17:22.725 11048 11048 I caffe_jni: I0226 17:17:22.725091 11048 layer_factory.hpp:77] Creating layer res2a_branch2a
02-26 17:17:22.725 11048 11048 I caffe_jni: I0226 17:17:22.725131 11048 net.cpp:102] Creating Layer res2a_branch2a
02-26 17:17:22.725 11048 11048 I caffe_jni: I0226 17:17:22.725148 11048 net.cpp:436] res2a_branch2a <- pool1_pool1_0_split_1
02-26 17:17:22.725 11048 11048 I caffe_jni: I0226 17:17:22.725167 11048 net.cpp:410] res2a_branch2a -> res2a_branch2a
02-26 17:17:22.725 11048 11048 I caffe_jni: I0226 17:17:22.725214 11048 net.cpp:152] Setting up res2a_branch2a
02-26 17:17:22.725 11048 11048 I caffe_jni: I0226 17:17:22.725232 11048 net.cpp:159] Top shape: 1 64 56 56 (200704)
02-26 17:17:22.725 11048 11048 I caffe_jni: I0226 17:17:22.725251 11048 net.cpp:167] Memory required for data: 26292236
02-26 17:17:22.725 11048 11048 I caffe_jni: I0226 17:17:22.725270 11048 layer_factory.hpp:77] Creating layer bn2a_branch2a
02-26 17:17:22.725 11048 11048 I caffe_jni: I0226 17:17:22.725291 11048 net.cpp:102] Creating Layer bn2a_branch2a
02-26 17:17:22.725 11048 11048 I caffe_jni: I0226 17:17:22.725306 11048 net.cpp:436] bn2a_branch2a <- res2a_branch2a
02-26 17:17:22.725 11048 11048 I caffe_jni: I0226 17:17:22.725325 11048 net.cpp:397] bn2a_branch2a -> res2a_branch2a (in-place)
02-26 17:17:22.725 11048 11048 I caffe_jni: I0226 17:17:22.725370 11048 net.cpp:152] Setting up bn2a_branch2a
02-26 17:17:22.725 11048 11048 I caffe_jni: I0226 17:17:22.725388 11048 net.cpp:159] Top shape: 1 64 56 56 (200704)
02-26 17:17:22.725 11048 11048 I caffe_jni: I0226 17:17:22.725405 11048 net.cpp:167] Memory required for data: 27095052
02-26 17:17:22.725 11048 11048 I caffe_jni: I0226 17:17:22.725431 11048 layer_factory.hpp:77] Creating layer scale2a_branch2a
02-26 17:17:22.725 11048 11048 I caffe_jni: I0226 17:17:22.725451 11048 net.cpp:102] Creating Layer scale2a_branch2a
02-26 17:17:22.725 11048 11048 I caffe_jni: I0226 17:17:22.725468 11048 net.cpp:436] scale2a_branch2a <- res2a_branch2a
02-26 17:17:22.725 11048 11048 I caffe_jni: I0226 17:17:22.725487 11048 net.cpp:397] scale2a_branch2a -> res2a_branch2a (in-place)
02-26 17:17:22.725 11048 11048 I caffe_jni: I0226 17:17:22.725512 11048 layer_factory.hpp:77] Creating layer scale2a_branch2a
02-26 17:17:22.725 11048 11048 I caffe_jni: I0226 17:17:22.725564 11048 net.cpp:152] Setting up scale2a_branch2a
02-26 17:17:22.725 11048 11048 I caffe_jni: I0226 17:17:22.725581 11048 net.cpp:159] Top shape: 1 64 56 56 (200704)
02-26 17:17:22.725 11048 11048 I caffe_jni: I0226 17:17:22.725600 11048 net.cpp:167] Memory required for data: 27897868
02-26 17:17:22.725 11048 11048 I caffe_jni: I0226 17:17:22.725621 11048 layer_factory.hpp:77] Creating layer res2a_branch2a_relu
02-26 17:17:22.725 11048 11048 I caffe_jni: I0226 17:17:22.725641 11048 net.cpp:102] Creating Layer res2a_branch2a_relu
02-26 17:17:22.725 11048 11048 I caffe_jni: I0226 17:17:22.725659 11048 net.cpp:436] res2a_branch2a_relu <- res2a_branch2a
02-26 17:17:22.725 11048 11048 I caffe_jni: I0226 17:17:22.725678 11048 net.cpp:397] res2a_branch2a_relu -> res2a_branch2a (in-place)
02-26 17:17:22.725 11048 11048 I caffe_jni: I0226 17:17:22.725698 11048 net.cpp:152] Setting up res2a_branch2a_relu
02-26 17:17:22.725 11048 11048 I caffe_jni: I0226 17:17:22.725715 11048 net.cpp:159] Top shape: 1 64 56 56 (200704)
02-26 17:17:22.725 11048 11048 I caffe_jni: I0226 17:17:22.725733 11048 net.cpp:167] Memory required for data: 28700684
02-26 17:17:22.725 11048 11048 I caffe_jni: I0226 17:17:22.725750 11048 layer_factory.hpp:77] Creating layer res2a_branch2b
02-26 17:17:22.725 11048 11048 I caffe_jni: I0226 17:17:22.725770 11048 net.cpp:102] Creating Layer res2a_branch2b
02-26 17:17:22.725 11048 11048 I caffe_jni: I0226 17:17:22.725788 11048 net.cpp:436] res2a_branch2b <- res2a_branch2a
02-26 17:17:22.725 11048 11048 I caffe_jni: I0226 17:17:22.725807 11048 net.cpp:410] res2a_branch2b -> res2a_branch2b
02-26 17:17:22.725 11048 11048 I caffe_jni: I0226 17:17:22.725925 11048 net.cpp:152] Setting up res2a_branch2b
02-26 17:17:22.725 11048 11048 I caffe_jni: I0226 17:17:22.725944 11048 net.cpp:159] Top shape: 1 64 56 56 (200704)
02-26 17:17:22.725 11048 11048 I caffe_jni: I0226 17:17:22.725963 11048 net.cpp:167] Memory required for data: 29503500
02-26 17:17:22.725 11048 11048 I caffe_jni: I0226 17:17:22.725983 11048 layer_factory.hpp:77] Creating layer bn2a_branch2b
02-26 17:17:22.726 11048 11048 I caffe_jni: I0226 17:17:22.726004 11048 net.cpp:102] Creating Layer bn2a_branch2b
02-26 17:17:22.726 11048 11048 I caffe_jni: I0226 17:17:22.726020 11048 net.cpp:436] bn2a_branch2b <- res2a_branch2b
02-26 17:17:22.726 11048 11048 I caffe_jni: I0226 17:17:22.726039 11048 net.cpp:397] bn2a_branch2b -> res2a_branch2b (in-place)
02-26 17:17:22.726 11048 11048 I caffe_jni: I0226 17:17:22.726079 11048 net.cpp:152] Setting up bn2a_branch2b
02-26 17:17:22.726 11048 11048 I caffe_jni: I0226 17:17:22.726096 11048 net.cpp:159] Top shape: 1 64 56 56 (200704)
02-26 17:17:22.726 11048 11048 I caffe_jni: I0226 17:17:22.726114 11048 net.cpp:167] Memory required for data: 30306316
02-26 17:17:22.726 11048 11048 I caffe_jni: I0226 17:17:22.726137 11048 layer_factory.hpp:77] Creating layer scale2a_branch2b
02-26 17:17:22.726 11048 11048 I caffe_jni: I0226 17:17:22.726161 11048 net.cpp:102] Creating Layer scale2a_branch2b
02-26 17:17:22.726 11048 11048 I caffe_jni: I0226 17:17:22.726178 11048 net.cpp:436] scale2a_branch2b <- res2a_branch2b
02-26 17:17:22.726 11048 11048 I caffe_jni: I0226 17:17:22.726198 11048 net.cpp:397] scale2a_branch2b -> res2a_branch2b (in-place)
02-26 17:17:22.726 11048 11048 I caffe_jni: I0226 17:17:22.726224 11048 layer_factory.hpp:77] Creating layer scale2a_branch2b
02-26 17:17:22.726 11048 11048 I caffe_jni: I0226 17:17:22.726274 11048 net.cpp:152] Setting up scale2a_branch2b
02-26 17:17:22.726 11048 11048 I caffe_jni: I0226 17:17:22.726294 11048 net.cpp:159] Top shape: 1 64 56 56 (200704)
02-26 17:17:22.726 11048 11048 I caffe_jni: I0226 17:17:22.726313 11048 net.cpp:167] Memory required for data: 31109132
02-26 17:17:22.726 11048 11048 I caffe_jni: I0226 17:17:22.726335 11048 layer_factory.hpp:77] Creating layer res2a_branch2b_relu
02-26 17:17:22.726 11048 11048 I caffe_jni: I0226 17:17:22.726356 11048 net.cpp:102] Creating Layer res2a_branch2b_relu
02-26 17:17:22.726 11048 11048 I caffe_jni: I0226 17:17:22.726372 11048 net.cpp:436] res2a_branch2b_relu <- res2a_branch2b
02-26 17:17:22.726 11048 11048 I caffe_jni: I0226 17:17:22.726392 11048 net.cpp:397] res2a_branch2b_relu -> res2a_branch2b (in-place)
02-26 17:17:22.726 11048 11048 I caffe_jni: I0226 17:17:22.726410 11048 net.cpp:152] Setting up res2a_branch2b_relu
02-26 17:17:22.726 11048 11048 I caffe_jni: I0226 17:17:22.726428 11048 net.cpp:159] Top shape: 1 64 56 56 (200704)
02-26 17:17:22.726 11048 11048 I caffe_jni: I0226 17:17:22.726444 11048 net.cpp:167] Memory required for data: 31911948
02-26 17:17:22.726 11048 11048 I caffe_jni: I0226 17:17:22.726459 11048 layer_factory.hpp:77] Creating layer res2a_branch2c
02-26 17:17:22.726 11048 11048 I caffe_jni: I0226 17:17:22.726480 11048 net.cpp:102] Creating Layer res2a_branch2c
02-26 17:17:22.726 11048 11048 I caffe_jni: I0226 17:17:22.726500 11048 net.cpp:436] res2a_branch2c <- res2a_branch2b
02-26 17:17:22.726 11048 11048 I caffe_jni: I0226 17:17:22.726519 11048 net.cpp:410] res2a_branch2c -> res2a_branch2c
02-26 17:17:22.726 11048 11048 I caffe_jni: I0226 17:17:22.726586 11048 net.cpp:152] Setting up res2a_branch2c
02-26 17:17:22.726 11048 11048 I caffe_jni: I0226 17:17:22.726604 11048 net.cpp:159] Top shape: 1 256 56 56 (802816)
02-26 17:17:22.726 11048 11048 I caffe_jni: I0226 17:17:22.726622 11048 net.cpp:167] Memory required for data: 35123212
02-26 17:17:22.726 11048 11048 I caffe_jni: I0226 17:17:22.726640 11048 layer_factory.hpp:77] Creating layer bn2a_branch2c
02-26 17:17:22.726 11048 11048 I caffe_jni: I0226 17:17:22.726660 11048 net.cpp:102] Creating Layer bn2a_branch2c
02-26 17:17:22.726 11048 11048 I caffe_jni: I0226 17:17:22.726675 11048 net.cpp:436] bn2a_branch2c <- res2a_branch2c
02-26 17:17:22.726 11048 11048 I caffe_jni: I0226 17:17:22.726694 11048 net.cpp:397] bn2a_branch2c -> res2a_branch2c (in-place)
02-26 17:17:22.726 11048 11048 I caffe_jni: I0226 17:17:22.726735 11048 net.cpp:152] Setting up bn2a_branch2c
02-26 17:17:22.726 11048 11048 I caffe_jni: I0226 17:17:22.726753 11048 net.cpp:159] Top shape: 1 256 56 56 (802816)
02-26 17:17:22.726 11048 11048 I caffe_jni: I0226 17:17:22.726770 11048 net.cpp:167] Memory required for data: 38334476
02-26 17:17:22.726 11048 11048 I caffe_jni: I0226 17:17:22.726792 11048 layer_factory.hpp:77] Creating layer scale2a_branch2c
02-26 17:17:22.726 11048 11048 I caffe_jni: I0226 17:17:22.726812 11048 net.cpp:102] Creating Layer scale2a_branch2c
02-26 17:17:22.726 11048 11048 I caffe_jni: I0226 17:17:22.726828 11048 net.cpp:436] scale2a_branch2c <- res2a_branch2c
02-26 17:17:22.726 11048 11048 I caffe_jni: I0226 17:17:22.726846 11048 net.cpp:397] scale2a_branch2c -> res2a_branch2c (in-place)
02-26 17:17:22.726 11048 11048 I caffe_jni: I0226 17:17:22.726872 11048 layer_factory.hpp:77] Creating layer scale2a_branch2c
02-26 17:17:22.726 11048 11048 I caffe_jni: I0226 17:17:22.726922 11048 net.cpp:152] Setting up scale2a_branch2c
02-26 17:17:22.726 11048 11048 I caffe_jni: I0226 17:17:22.726940 11048 net.cpp:159] Top shape: 1 256 56 56 (802816)
02-26 17:17:22.726 11048 11048 I caffe_jni: I0226 17:17:22.726959 11048 net.cpp:167] Memory required for data: 41545740
02-26 17:17:22.726 11048 11048 I caffe_jni: I0226 17:17:22.726980 11048 layer_factory.hpp:77] Creating layer res2a
02-26 17:17:22.727 11048 11048 I caffe_jni: I0226 17:17:22.727006 11048 net.cpp:102] Creating Layer res2a
02-26 17:17:22.727 11048 11048 I caffe_jni: I0226 17:17:22.727023 11048 net.cpp:436] res2a <- res2a_branch1
02-26 17:17:22.727 11048 11048 I caffe_jni: I0226 17:17:22.727041 11048 net.cpp:436] res2a <- res2a_branch2c
02-26 17:17:22.727 11048 11048 I caffe_jni: I0226 17:17:22.727059 11048 net.cpp:410] res2a -> res2a
02-26 17:17:22.727 11048 11048 I caffe_jni: I0226 17:17:22.727083 11048 net.cpp:152] Setting up res2a
02-26 17:17:22.727 11048 11048 I caffe_jni: I0226 17:17:22.727100 11048 net.cpp:159] Top shape: 1 256 56 56 (802816)
02-26 17:17:22.727 11048 11048 I caffe_jni: I0226 17:17:22.727118 11048 net.cpp:167] Memory required for data: 44757004
02-26 17:17:22.727 11048 11048 I caffe_jni: I0226 17:17:22.727134 11048 layer_factory.hpp:77] Creating layer res2a_relu
02-26 17:17:22.727 11048 11048 I caffe_jni: I0226 17:17:22.727154 11048 net.cpp:102] Creating Layer res2a_relu
02-26 17:17:22.727 11048 11048 I caffe_jni: I0226 17:17:22.727170 11048 net.cpp:436] res2a_relu <- res2a
02-26 17:17:22.727 11048 11048 I caffe_jni: I0226 17:17:22.727187 11048 net.cpp:397] res2a_relu -> res2a (in-place)
02-26 17:17:22.727 11048 11048 I caffe_jni: I0226 17:17:22.727206 11048 net.cpp:152] Setting up res2a_relu
02-26 17:17:22.727 11048 11048 I caffe_jni: I0226 17:17:22.727226 11048 net.cpp:159] Top shape: 1 256 56 56 (802816)
02-26 17:17:22.727 11048 11048 I caffe_jni: I0226 17:17:22.727244 11048 net.cpp:167] Memory required for data: 47968268
02-26 17:17:22.727 11048 11048 I caffe_jni: I0226 17:17:22.727260 11048 layer_factory.hpp:77] Creating layer res2a_res2a_relu_0_split
02-26 17:17:22.727 11048 11048 I caffe_jni: I0226 17:17:22.727283 11048 net.cpp:102] Creating Layer res2a_res2a_relu_0_split
02-26 17:17:22.727 11048 11048 I caffe_jni: I0226 17:17:22.727298 11048 net.cpp:436] res2a_res2a_relu_0_split <- res2a
02-26 17:17:22.727 11048 11048 I caffe_jni: I0226 17:17:22.727316 11048 net.cpp:410] res2a_res2a_relu_0_split -> res2a_res2a_relu_0_split_0
02-26 17:17:22.727 11048 11048 I caffe_jni: I0226 17:17:22.727337 11048 net.cpp:410] res2a_res2a_relu_0_split -> res2a_res2a_relu_0_split_1
02-26 17:17:22.727 11048 11048 I caffe_jni: I0226 17:17:22.727360 11048 net.cpp:152] Setting up res2a_res2a_relu_0_split
02-26 17:17:22.727 11048 11048 I caffe_jni: I0226 17:17:22.727376 11048 net.cpp:159] Top shape: 1 256 56 56 (802816)
02-26 17:17:22.727 11048 11048 I caffe_jni: I0226 17:17:22.727396 11048 net.cpp:159] Top shape: 1 256 56 56 (802816)
02-26 17:17:22.727 11048 11048 I caffe_jni: I0226 17:17:22.727412 11048 net.cpp:167] Memory required for data: 54390796
02-26 17:17:22.727 11048 11048 I caffe_jni: I0226 17:17:22.727429 11048 layer_factory.hpp:77] Creating layer res2b_branch2a
02-26 17:17:22.727 11048 11048 I caffe_jni: I0226 17:17:22.727452 11048 net.cpp:102] Creating Layer res2b_branch2a
02-26 17:17:22.727 11048 11048 I caffe_jni: I0226 17:17:22.727468 11048 net.cpp:436] res2b_branch2a <- res2a_res2a_relu_0_split_0
02-26 17:17:22.727 11048 11048 I caffe_jni: I0226 17:17:22.727488 11048 net.cpp:410] res2b_branch2a -> res2b_branch2a
02-26 17:17:22.727 11048 11048 I caffe_jni: I0226 17:17:22.727582 11048 net.cpp:152] Setting up res2b_branch2a
02-26 17:17:22.727 11048 11048 I caffe_jni: I0226 17:17:22.727602 11048 net.cpp:159] Top shape: 1 64 56 56 (200704)
02-26 17:17:22.727 11048 11048 I caffe_jni: I0226 17:17:22.727622 11048 net.cpp:167] Memory required for data: 55193612
02-26 17:17:22.727 11048 11048 I caffe_jni: I0226 17:17:22.727640 11048 layer_factory.hpp:77] Creating layer bn2b_branch2a
02-26 17:17:22.727 11048 11048 I caffe_jni: I0226 17:17:22.727661 11048 net.cpp:102] Creating Layer bn2b_branch2a
02-26 17:17:22.727 11048 11048 I caffe_jni: I0226 17:17:22.727679 11048 net.cpp:436] bn2b_branch2a <- res2b_branch2a
02-26 17:17:22.727 11048 11048 I caffe_jni: I0226 17:17:22.727699 11048 net.cpp:397] bn2b_branch2a -> res2b_branch2a (in-place)
02-26 17:17:22.727 11048 11048 I caffe_jni: I0226 17:17:22.727741 11048 net.cpp:152] Setting up bn2b_branch2a
02-26 17:17:22.727 11048 11048 I caffe_jni: I0226 17:17:22.727758 11048 net.cpp:159] Top shape: 1 64 56 56 (200704)
02-26 17:17:22.727 11048 11048 I caffe_jni: I0226 17:17:22.727777 11048 net.cpp:167] Memory required for data: 55996428
02-26 17:17:22.727 11048 11048 I caffe_jni: I0226 17:17:22.727803 11048 layer_factory.hpp:77] Creating layer scale2b_branch2a
02-26 17:17:22.727 11048 11048 I caffe_jni: I0226 17:17:22.727823 11048 net.cpp:102] Creating Layer scale2b_branch2a
02-26 17:17:22.727 11048 11048 I caffe_jni: I0226 17:17:22.727840 11048 net.cpp:436] scale2b_branch2a <- res2b_branch2a
02-26 17:17:22.727 11048 11048 I caffe_jni: I0226 17:17:22.727859 11048 net.cpp:397] scale2b_branch2a -> res2b_branch2a (in-place)
02-26 17:17:22.727 11048 11048 I caffe_jni: I0226 17:17:22.727885 11048 layer_factory.hpp:77] Creating layer scale2b_branch2a
02-26 17:17:22.727 11048 11048 I caffe_jni: I0226 17:17:22.727931 11048 net.cpp:152] Setting up scale2b_branch2a
02-26 17:17:22.727 11048 11048 I caffe_jni: I0226 17:17:22.727948 11048 net.cpp:159] Top shape: 1 64 56 56 (200704)
02-26 17:17:22.727 11048 11048 I caffe_jni: I0226 17:17:22.727967 11048 net.cpp:167] Memory required for data: 56799244
02-26 17:17:22.727 11048 11048 I caffe_jni: I0226 17:17:22.727988 11048 layer_factory.hpp:77] Creating layer res2b_branch2a_relu
02-26 17:17:22.728 11048 11048 I caffe_jni: I0226 17:17:22.728004 11048 net.cpp:102] Creating Layer res2b_branch2a_relu
02-26 17:17:22.728 11048 11048 I caffe_jni: I0226 17:17:22.728020 11048 net.cpp:436] res2b_branch2a_relu <- res2b_branch2a
02-26 17:17:22.728 11048 11048 I caffe_jni: I0226 17:17:22.728039 11048 net.cpp:397] res2b_branch2a_relu -> res2b_branch2a (in-place)
02-26 17:17:22.728 11048 11048 I caffe_jni: I0226 17:17:22.728057 11048 net.cpp:152] Setting up res2b_branch2a_relu
02-26 17:17:22.728 11048 11048 I caffe_jni: I0226 17:17:22.728073 11048 net.cpp:159] Top shape: 1 64 56 56 (200704)
02-26 17:17:22.728 11048 11048 I caffe_jni: I0226 17:17:22.728091 11048 net.cpp:167] Memory required for data: 57602060
02-26 17:17:22.728 11048 11048 I caffe_jni: I0226 17:17:22.728106 11048 layer_factory.hpp:77] Creating layer res2b_branch2b
02-26 17:17:22.728 11048 11048 I caffe_jni: I0226 17:17:22.728127 11048 net.cpp:102] Creating Layer res2b_branch2b
02-26 17:17:22.728 11048 11048 I caffe_jni: I0226 17:17:22.728143 11048 net.cpp:436] res2b_branch2b <- res2b_branch2a
02-26 17:17:22.728 11048 11048 I caffe_jni: I0226 17:17:22.728163 11048 net.cpp:410] res2b_branch2b -> res2b_branch2b
02-26 17:17:22.728 11048 11048 I caffe_jni: I0226 17:17:22.728278 11048 net.cpp:152] Setting up res2b_branch2b
02-26 17:17:22.728 11048 11048 I caffe_jni: I0226 17:17:22.728298 11048 net.cpp:159] Top shape: 1 64 56 56 (200704)
02-26 17:17:22.728 11048 11048 I caffe_jni: I0226 17:17:22.728317 11048 net.cpp:167] Memory required for data: 58404876
02-26 17:17:22.728 11048 11048 I caffe_jni: I0226 17:17:22.728337 11048 layer_factory.hpp:77] Creating layer bn2b_branch2b
02-26 17:17:22.728 11048 11048 I caffe_jni: I0226 17:17:22.728358 11048 net.cpp:102] Creating Layer bn2b_branch2b
02-26 17:17:22.728 11048 11048 I caffe_jni: I0226 17:17:22.728374 11048 net.cpp:436] bn2b_branch2b <- res2b_branch2b
02-26 17:17:22.728 11048 11048 I caffe_jni: I0226 17:17:22.728395 11048 net.cpp:397] bn2b_branch2b -> res2b_branch2b (in-place)
02-26 17:17:22.728 11048 11048 I caffe_jni: I0226 17:17:22.728433 11048 net.cpp:152] Setting up bn2b_branch2b
02-26 17:17:22.728 11048 11048 I caffe_jni: I0226 17:17:22.728451 11048 net.cpp:159] Top shape: 1 64 56 56 (200704)
02-26 17:17:22.728 11048 11048 I caffe_jni: I0226 17:17:22.728468 11048 net.cpp:167] Memory required for data: 59207692
02-26 17:17:22.728 11048 11048 I caffe_jni: I0226 17:17:22.728492 11048 layer_factory.hpp:77] Creating layer scale2b_branch2b
02-26 17:17:22.728 11048 11048 I caffe_jni: I0226 17:17:22.728515 11048 net.cpp:102] Creating Layer scale2b_branch2b
02-26 17:17:22.728 11048 11048 I caffe_jni: I0226 17:17:22.728533 11048 net.cpp:436] scale2b_branch2b <- res2b_branch2b
02-26 17:17:22.728 11048 11048 I caffe_jni: I0226 17:17:22.728552 11048 net.cpp:397] scale2b_branch2b -> res2b_branch2b (in-place)
02-26 17:17:22.728 11048 11048 I caffe_jni: I0226 17:17:22.728577 11048 layer_factory.hpp:77] Creating layer scale2b_branch2b
02-26 17:17:22.728 11048 11048 I caffe_jni: I0226 17:17:22.728627 11048 net.cpp:152] Setting up scale2b_branch2b
02-26 17:17:22.728 11048 11048 I caffe_jni: I0226 17:17:22.728646 11048 net.cpp:159] Top shape: 1 64 56 56 (200704)
02-26 17:17:22.728 11048 11048 I caffe_jni: I0226 17:17:22.728665 11048 net.cpp:167] Memory required for data: 60010508
02-26 17:17:22.728 11048 11048 I caffe_jni: I0226 17:17:22.728687 11048 layer_factory.hpp:77] Creating layer res2b_branch2b_relu
02-26 17:17:22.728 11048 11048 I caffe_jni: I0226 17:17:22.728706 11048 net.cpp:102] Creating Layer res2b_branch2b_relu
02-26 17:17:22.728 11048 11048 I caffe_jni: I0226 17:17:22.728723 11048 net.cpp:436] res2b_branch2b_relu <- res2b_branch2b
02-26 17:17:22.728 11048 11048 I caffe_jni: I0226 17:17:22.728740 11048 net.cpp:397] res2b_branch2b_relu -> res2b_branch2b (in-place)
02-26 17:17:22.728 11048 11048 I caffe_jni: I0226 17:17:22.728760 11048 net.cpp:152] Setting up res2b_branch2b_relu
02-26 17:17:22.728 11048 11048 I caffe_jni: I0226 17:17:22.728776 11048 net.cpp:159] Top shape: 1 64 56 56 (200704)
02-26 17:17:22.728 11048 11048 I caffe_jni: I0226 17:17:22.728793 11048 net.cpp:167] Memory required for data: 60813324
02-26 17:17:22.728 11048 11048 I caffe_jni: I0226 17:17:22.728811 11048 layer_factory.hpp:77] Creating layer res2b_branch2c
02-26 17:17:22.728 11048 11048 I caffe_jni: I0226 17:17:22.728834 11048 net.cpp:102] Creating Layer res2b_branch2c
02-26 17:17:22.728 11048 11048 I caffe_jni: I0226 17:17:22.728852 11048 net.cpp:436] res2b_branch2c <- res2b_branch2b
02-26 17:17:22.728 11048 11048 I caffe_jni: I0226 17:17:22.728870 11048 net.cpp:410] res2b_branch2c -> res2b_branch2c
02-26 17:17:22.728 11048 11048 I caffe_jni: I0226 17:17:22.728945 11048 net.cpp:152] Setting up res2b_branch2c
02-26 17:17:22.728 11048 11048 I caffe_jni: I0226 17:17:22.728962 11048 net.cpp:159] Top shape: 1 256 56 56 (802816)
02-26 17:17:22.728 11048 11048 I caffe_jni: I0226 17:17:22.728981 11048 net.cpp:167] Memory required for data: 64024588
02-26 17:17:22.729 11048 11048 I caffe_jni: I0226 17:17:22.728999 11048 layer_factory.hpp:77] Creating layer bn2b_branch2c
02-26 17:17:22.729 11048 11048 I caffe_jni: I0226 17:17:22.729020 11048 net.cpp:102] Creating Layer bn2b_branch2c
02-26 17:17:22.729 11048 11048 I caffe_jni: I0226 17:17:22.729035 11048 net.cpp:436] bn2b_branch2c <- res2b_branch2c
02-26 17:17:22.729 11048 11048 I caffe_jni: I0226 17:17:22.729053 11048 net.cpp:397] bn2b_branch2c -> res2b_branch2c (in-place)
02-26 17:17:22.729 11048 11048 I caffe_jni: I0226 17:17:22.729092 11048 net.cpp:152] Setting up bn2b_branch2c
02-26 17:17:22.729 11048 11048 I caffe_jni: I0226 17:17:22.729122 11048 net.cpp:159] Top shape: 1 256 56 56 (802816)
02-26 17:17:22.729 11048 11048 I caffe_jni: I0226 17:17:22.729142 11048 net.cpp:167] Memory required for data: 67235852
02-26 17:17:22.729 11048 11048 I caffe_jni: I0226 17:17:22.729164 11048 layer_factory.hpp:77] Creating layer scale2b_branch2c
02-26 17:17:22.729 11048 11048 I caffe_jni: I0226 17:17:22.729183 11048 net.cpp:102] Creating Layer scale2b_branch2c
02-26 17:17:22.729 11048 11048 I caffe_jni: I0226 17:17:22.729200 11048 net.cpp:436] scale2b_branch2c <- res2b_branch2c
02-26 17:17:22.729 11048 11048 I caffe_jni: I0226 17:17:22.729218 11048 net.cpp:397] scale2b_branch2c -> res2b_branch2c (in-place)
02-26 17:17:22.729 11048 11048 I caffe_jni: I0226 17:17:22.729243 11048 layer_factory.hpp:77] Creating layer scale2b_branch2c
02-26 17:17:22.729 11048 11048 I caffe_jni: I0226 17:17:22.729295 11048 net.cpp:152] Setting up scale2b_branch2c
02-26 17:17:22.729 11048 11048 I caffe_jni: I0226 17:17:22.729313 11048 net.cpp:159] Top shape: 1 256 56 56 (802816)
02-26 17:17:22.729 11048 11048 I caffe_jni: I0226 17:17:22.729332 11048 net.cpp:167] Memory required for data: 70447116
02-26 17:17:22.729 11048 11048 I caffe_jni: I0226 17:17:22.729353 11048 layer_factory.hpp:77] Creating layer res2b
02-26 17:17:22.729 11048 11048 I caffe_jni: I0226 17:17:22.729374 11048 net.cpp:102] Creating Layer res2b
02-26 17:17:22.729 11048 11048 I caffe_jni: I0226 17:17:22.729391 11048 net.cpp:436] res2b <- res2a_res2a_relu_0_split_1
02-26 17:17:22.729 11048 11048 I caffe_jni: I0226 17:17:22.729408 11048 net.cpp:436] res2b <- res2b_branch2c
02-26 17:17:22.729 11048 11048 I caffe_jni: I0226 17:17:22.729429 11048 net.cpp:410] res2b -> res2b
02-26 17:17:22.729 11048 11048 I caffe_jni: I0226 17:17:22.729451 11048 net.cpp:152] Setting up res2b
02-26 17:17:22.729 11048 11048 I caffe_jni: I0226 17:17:22.729468 11048 net.cpp:159] Top shape: 1 256 56 56 (802816)
02-26 17:17:22.729 11048 11048 I caffe_jni: I0226 17:17:22.729487 11048 net.cpp:167] Memory required for data: 73658380
02-26 17:17:22.729 11048 11048 I caffe_jni: I0226 17:17:22.729503 11048 layer_factory.hpp:77] Creating layer res2b_relu
02-26 17:17:22.729 11048 11048 I caffe_jni: I0226 17:17:22.729521 11048 net.cpp:102] Creating Layer res2b_relu
02-26 17:17:22.729 11048 11048 I caffe_jni: I0226 17:17:22.729537 11048 net.cpp:436] res2b_relu <- res2b
02-26 17:17:22.729 11048 11048 I caffe_jni: I0226 17:17:22.729554 11048 net.cpp:397] res2b_relu -> res2b (in-place)
02-26 17:17:22.729 11048 11048 I caffe_jni: I0226 17:17:22.729575 11048 net.cpp:152] Setting up res2b_relu
02-26 17:17:22.729 11048 11048 I caffe_jni: I0226 17:17:22.729593 11048 net.cpp:159] Top shape: 1 256 56 56 (802816)
02-26 17:17:22.729 11048 11048 I caffe_jni: I0226 17:17:22.729611 11048 net.cpp:167] Memory required for data: 76869644
02-26 17:17:22.729 11048 11048 I caffe_jni: I0226 17:17:22.729629 11048 layer_factory.hpp:77] Creating layer res2b_res2b_relu_0_split
02-26 17:17:22.729 11048 11048 I caffe_jni: I0226 17:17:22.729646 11048 net.cpp:102] Creating Layer res2b_res2b_relu_0_split
02-26 17:17:22.729 11048 11048 I caffe_jni: I0226 17:17:22.729663 11048 net.cpp:436] res2b_res2b_relu_0_split <- res2b
02-26 17:17:22.729 11048 11048 I caffe_jni: I0226 17:17:22.729681 11048 net.cpp:410] res2b_res2b_relu_0_split -> res2b_res2b_relu_0_split_0
02-26 17:17:22.729 11048 11048 I caffe_jni: I0226 17:17:22.729702 11048 net.cpp:410] res2b_res2b_relu_0_split -> res2b_res2b_relu_0_split_1
02-26 17:17:22.729 11048 11048 I caffe_jni: I0226 17:17:22.729727 11048 net.cpp:152] Setting up res2b_res2b_relu_0_split
02-26 17:17:22.729 11048 11048 I caffe_jni: I0226 17:17:22.729743 11048 net.cpp:159] Top shape: 1 256 56 56 (802816)
02-26 17:17:22.729 11048 11048 I caffe_jni: I0226 17:17:22.729760 11048 net.cpp:159] Top shape: 1 256 56 56 (802816)
02-26 17:17:22.729 11048 11048 I caffe_jni: I0226 17:17:22.729779 11048 net.cpp:167] Memory required for data: 83292172
02-26 17:17:22.729 11048 11048 I caffe_jni: I0226 17:17:22.729795 11048 layer_factory.hpp:77] Creating layer res2c_branch2a
02-26 17:17:22.729 11048 11048 I caffe_jni: I0226 17:17:22.729815 11048 net.cpp:102] Creating Layer res2c_branch2a
02-26 17:17:22.729 11048 11048 I caffe_jni: I0226 17:17:22.729833 11048 net.cpp:436] res2c_branch2a <- res2b_res2b_relu_0_split_0
02-26 17:17:22.729 11048 11048 I caffe_jni: I0226 17:17:22.729852 11048 net.cpp:410] res2c_branch2a -> res2c_branch2a
02-26 17:17:22.729 11048 11048 I caffe_jni: I0226 17:17:22.729943 11048 net.cpp:152] Setting up res2c_branch2a
02-26 17:17:22.729 11048 11048 I caffe_jni: I0226 17:17:22.729962 11048 net.cpp:159] Top shape: 1 64 56 56 (200704)
02-26 17:17:22.729 11048 11048 I caffe_jni: I0226 17:17:22.729982 11048 net.cpp:167] Memory required for data: 84094988
02-26 17:17:22.730 11048 11048 I caffe_jni: I0226 17:17:22.730001 11048 layer_factory.hpp:77] Creating layer bn2c_branch2a
02-26 17:17:22.730 11048 11048 I caffe_jni: I0226 17:17:22.730023 11048 net.cpp:102] Creating Layer bn2c_branch2a
02-26 17:17:22.730 11048 11048 I caffe_jni: I0226 17:17:22.730041 11048 net.cpp:436] bn2c_branch2a <- res2c_branch2a
02-26 17:17:22.730 11048 11048 I caffe_jni: I0226 17:17:22.730062 11048 net.cpp:397] bn2c_branch2a -> res2c_branch2a (in-place)
02-26 17:17:22.730 11048 11048 I caffe_jni: I0226 17:17:22.730101 11048 net.cpp:152] Setting up bn2c_branch2a
02-26 17:17:22.730 11048 11048 I caffe_jni: I0226 17:17:22.730118 11048 net.cpp:159] Top shape: 1 64 56 56 (200704)
02-26 17:17:22.730 11048 11048 I caffe_jni: I0226 17:17:22.730136 11048 net.cpp:167] Memory required for data: 84897804
02-26 17:17:22.730 11048 11048 I caffe_jni: I0226 17:17:22.730160 11048 layer_factory.hpp:77] Creating layer scale2c_branch2a
02-26 17:17:22.730 11048 11048 I caffe_jni: I0226 17:17:22.730180 11048 net.cpp:102] Creating Layer scale2c_branch2a
02-26 17:17:22.730 11048 11048 I caffe_jni: I0226 17:17:22.730196 11048 net.cpp:436] scale2c_branch2a <- res2c_branch2a
02-26 17:17:22.730 11048 11048 I caffe_jni: I0226 17:17:22.730216 11048 net.cpp:397] scale2c_branch2a -> res2c_branch2a (in-place)
02-26 17:17:22.730 11048 11048 I caffe_jni: I0226 17:17:22.730242 11048 layer_factory.hpp:77] Creating layer scale2c_branch2a
02-26 17:17:22.730 11048 11048 I caffe_jni: I0226 17:17:22.730288 11048 net.cpp:152] Setting up scale2c_branch2a
02-26 17:17:22.730 11048 11048 I caffe_jni: I0226 17:17:22.730306 11048 net.cpp:159] Top shape: 1 64 56 56 (200704)
02-26 17:17:22.730 11048 11048 I caffe_jni: I0226 17:17:22.730324 11048 net.cpp:167] Memory required for data: 85700620
02-26 17:17:22.730 11048 11048 I caffe_jni: I0226 17:17:22.730347 11048 layer_factory.hpp:77] Creating layer res2c_branch2a_relu
02-26 17:17:22.730 11048 11048 I caffe_jni: I0226 17:17:22.730366 11048 net.cpp:102] Creating Layer res2c_branch2a_relu
02-26 17:17:22.730 11048 11048 I caffe_jni: I0226 17:17:22.730383 11048 net.cpp:436] res2c_branch2a_relu <- res2c_branch2a
02-26 17:17:22.730 11048 11048 I caffe_jni: I0226 17:17:22.730401 11048 net.cpp:397] res2c_branch2a_relu -> res2c_branch2a (in-place)
02-26 17:17:22.730 11048 11048 I caffe_jni: I0226 17:17:22.730420 11048 net.cpp:152] Setting up res2c_branch2a_relu
02-26 17:17:22.730 11048 11048 I caffe_jni: I0226 17:17:22.730437 11048 net.cpp:159] Top shape: 1 64 56 56 (200704)
02-26 17:17:22.730 11048 11048 I caffe_jni: I0226 17:17:22.730454 11048 net.cpp:167] Memory required for data: 86503436
02-26 17:17:22.730 11048 11048 I caffe_jni: I0226 17:17:22.730470 11048 layer_factory.hpp:77] Creating layer res2c_branch2b
02-26 17:17:22.730 11048 11048 I caffe_jni: I0226 17:17:22.730491 11048 net.cpp:102] Creating Layer res2c_branch2b
02-26 17:17:22.730 11048 11048 I caffe_jni: I0226 17:17:22.730507 11048 net.cpp:436] res2c_branch2b <- res2c_branch2a
02-26 17:17:22.730 11048 11048 I caffe_jni: I0226 17:17:22.730528 11048 net.cpp:410] res2c_branch2b -> res2c_branch2b
02-26 17:17:22.730 11048 11048 I caffe_jni: I0226 17:17:22.730649 11048 net.cpp:152] Setting up res2c_branch2b
02-26 17:17:22.730 11048 11048 I caffe_jni: I0226 17:17:22.730667 11048 net.cpp:159] Top shape: 1 64 56 56 (200704)
02-26 17:17:22.730 11048 11048 I caffe_jni: I0226 17:17:22.730686 11048 net.cpp:167] Memory required for data: 87306252
02-26 17:17:22.730 11048 11048 I caffe_jni: I0226 17:17:22.730705 11048 layer_factory.hpp:77] Creating layer bn2c_branch2b
02-26 17:17:22.730 11048 11048 I caffe_jni: I0226 17:17:22.730727 11048 net.cpp:102] Creating Layer bn2c_branch2b
02-26 17:17:22.730 11048 11048 I caffe_jni: I0226 17:17:22.730744 11048 net.cpp:436] bn2c_branch2b <- res2c_branch2b
02-26 17:17:22.730 11048 11048 I caffe_jni: I0226 17:17:22.730763 11048 net.cpp:397] bn2c_branch2b -> res2c_branch2b (in-place)
02-26 17:17:22.730 11048 11048 I caffe_jni: I0226 17:17:22.730803 11048 net.cpp:152] Setting up bn2c_branch2b
02-26 17:17:22.730 11048 11048 I caffe_jni: I0226 17:17:22.730820 11048 net.cpp:159] Top shape: 1 64 56 56 (200704)
02-26 17:17:22.730 11048 11048 I caffe_jni: I0226 17:17:22.730839 11048 net.cpp:167] Memory required for data: 88109068
02-26 17:17:22.730 11048 11048 I caffe_jni: I0226 17:17:22.730860 11048 layer_factory.hpp:77] Creating layer scale2c_branch2b
02-26 17:17:22.730 11048 11048 I caffe_jni: I0226 17:17:22.730880 11048 net.cpp:102] Creating Layer scale2c_branch2b
02-26 17:17:22.730 11048 11048 I caffe_jni: I0226 17:17:22.730897 11048 net.cpp:436] scale2c_branch2b <- res2c_branch2b
02-26 17:17:22.730 11048 11048 I caffe_jni: I0226 17:17:22.730916 11048 net.cpp:397] scale2c_branch2b -> res2c_branch2b (in-place)
02-26 17:17:22.730 11048 11048 I caffe_jni: I0226 17:17:22.730942 11048 layer_factory.hpp:77] Creating layer scale2c_branch2b
02-26 17:17:22.730 11048 11048 I caffe_jni: I0226 17:17:22.730994 11048 net.cpp:152] Setting up scale2c_branch2b
02-26 17:17:22.731 11048 11048 I caffe_jni: I0226 17:17:22.731014 11048 net.cpp:159] Top shape: 1 64 56 56 (200704)
02-26 17:17:22.731 11048 11048 I caffe_jni: I0226 17:17:22.731032 11048 net.cpp:167] Memory required for data: 88911884
02-26 17:17:22.731 11048 11048 I caffe_jni: I0226 17:17:22.731052 11048 layer_factory.hpp:77] Creating layer res2c_branch2b_relu
02-26 17:17:22.731 11048 11048 I caffe_jni: I0226 17:17:22.731076 11048 net.cpp:102] Creating Layer res2c_branch2b_relu
02-26 17:17:22.731 11048 11048 I caffe_jni: I0226 17:17:22.731092 11048 net.cpp:436] res2c_branch2b_relu <- res2c_branch2b
02-26 17:17:22.731 11048 11048 I caffe_jni: I0226 17:17:22.731111 11048 net.cpp:397] res2c_branch2b_relu -> res2c_branch2b (in-place)
02-26 17:17:22.731 11048 11048 I caffe_jni: I0226 17:17:22.731132 11048 net.cpp:152] Setting up res2c_branch2b_relu
02-26 17:17:22.731 11048 11048 I caffe_jni: I0226 17:17:22.731148 11048 net.cpp:159] Top shape: 1 64 56 56 (200704)
02-26 17:17:22.731 11048 11048 I caffe_jni: I0226 17:17:22.731165 11048 net.cpp:167] Memory required for data: 89714700
02-26 17:17:22.731 11048 11048 I caffe_jni: I0226 17:17:22.731182 11048 layer_factory.hpp:77] Creating layer res2c_branch2c
02-26 17:17:22.731 11048 11048 I caffe_jni: I0226 17:17:22.731202 11048 net.cpp:102] Creating Layer res2c_branch2c
02-26 17:17:22.731 11048 11048 I caffe_jni: I0226 17:17:22.731220 11048 net.cpp:436] res2c_branch2c <- res2c_branch2b
02-26 17:17:22.731 11048 11048 I caffe_jni: I0226 17:17:22.731238 11048 net.cpp:410] res2c_branch2c -> res2c_branch2c
02-26 17:17:22.731 11048 11048 I caffe_jni: I0226 17:17:22.731307 11048 net.cpp:152] Setting up res2c_branch2c
02-26 17:17:22.731 11048 11048 I caffe_jni: I0226 17:17:22.731325 11048 net.cpp:159] Top shape: 1 256 56 56 (802816)
02-26 17:17:22.731 11048 11048 I caffe_jni: I0226 17:17:22.731343 11048 net.cpp:167] Memory required for data: 92925964
02-26 17:17:22.731 11048 11048 I caffe_jni: I0226 17:17:22.731360 11048 layer_factory.hpp:77] Creating layer bn2c_branch2c
02-26 17:17:22.731 11048 11048 I caffe_jni: I0226 17:17:22.731381 11048 net.cpp:102] Creating Layer bn2c_branch2c
02-26 17:17:22.731 11048 11048 I caffe_jni: I0226 17:17:22.731397 11048 net.cpp:436] bn2c_branch2c <- res2c_branch2c
02-26 17:17:22.731 11048 11048 I caffe_jni: I0226 17:17:22.731415 11048 net.cpp:397] bn2c_branch2c -> res2c_branch2c (in-place)
02-26 17:17:22.731 11048 11048 I caffe_jni: I0226 17:17:22.731452 11048 net.cpp:152] Setting up bn2c_branch2c
02-26 17:17:22.731 11048 11048 I caffe_jni: I0226 17:17:22.731469 11048 net.cpp:159] Top shape: 1 256 56 56 (802816)
02-26 17:17:22.731 11048 11048 I caffe_jni: I0226 17:17:22.731487 11048 net.cpp:167] Memory required for data: 96137228
02-26 17:17:22.731 11048 11048 I caffe_jni: I0226 17:17:22.731513 11048 layer_factory.hpp:77] Creating layer scale2c_branch2c
02-26 17:17:22.731 11048 11048 I caffe_jni: I0226 17:17:22.731534 11048 net.cpp:102] Creating Layer scale2c_branch2c
02-26 17:17:22.731 11048 11048 I caffe_jni: I0226 17:17:22.731549 11048 net.cpp:436] scale2c_branch2c <- res2c_branch2c
02-26 17:17:22.731 11048 11048 I caffe_jni: I0226 17:17:22.731567 11048 net.cpp:397] scale2c_branch2c -> res2c_branch2c (in-place)
02-26 17:17:22.731 11048 11048 I caffe_jni: I0226 17:17:22.731592 11048 layer_factory.hpp:77] Creating layer scale2c_branch2c
02-26 17:17:22.731 11048 11048 I caffe_jni: I0226 17:17:22.731648 11048 net.cpp:152] Setting up scale2c_branch2c
02-26 17:17:22.731 11048 11048 I caffe_jni: I0226 17:17:22.731668 11048 net.cpp:159] Top shape: 1 256 56 56 (802816)
02-26 17:17:22.731 11048 11048 I caffe_jni: I0226 17:17:22.731688 11048 net.cpp:167] Memory required for data: 99348492
02-26 17:17:22.731 11048 11048 I caffe_jni: I0226 17:17:22.731708 11048 layer_factory.hpp:77] Creating layer res2c
02-26 17:17:22.731 11048 11048 I caffe_jni: I0226 17:17:22.731729 11048 net.cpp:102] Creating Layer res2c
02-26 17:17:22.731 11048 11048 I caffe_jni: I0226 17:17:22.731746 11048 net.cpp:436] res2c <- res2b_res2b_relu_0_split_1
02-26 17:17:22.731 11048 11048 I caffe_jni: I0226 17:17:22.731763 11048 net.cpp:436] res2c <- res2c_branch2c
02-26 17:17:22.731 11048 11048 I caffe_jni: I0226 17:17:22.731783 11048 net.cpp:410] res2c -> res2c
02-26 17:17:22.731 11048 11048 I caffe_jni: I0226 17:17:22.731806 11048 net.cpp:152] Setting up res2c
02-26 17:17:22.731 11048 11048 I caffe_jni: I0226 17:17:22.731822 11048 net.cpp:159] Top shape: 1 256 56 56 (802816)
02-26 17:17:22.731 11048 11048 I caffe_jni: I0226 17:17:22.731840 11048 net.cpp:167] Memory required for data: 102559756
02-26 17:17:22.731 11048 11048 I caffe_jni: I0226 17:17:22.731856 11048 layer_factory.hpp:77] Creating layer res2c_relu
02-26 17:17:22.731 11048 11048 I caffe_jni: I0226 17:17:22.731875 11048 net.cpp:102] Creating Layer res2c_relu
02-26 17:17:22.731 11048 11048 I caffe_jni: I0226 17:17:22.731891 11048 net.cpp:436] res2c_relu <- res2c
02-26 17:17:22.731 11048 11048 I caffe_jni: I0226 17:17:22.731910 11048 net.cpp:397] res2c_relu -> res2c (in-place)
02-26 17:17:22.731 11048 11048 I caffe_jni: I0226 17:17:22.731930 11048 net.cpp:152] Setting up res2c_relu
02-26 17:17:22.731 11048 11048 I caffe_jni: I0226 17:17:22.731946 11048 net.cpp:159] Top shape: 1 256 56 56 (802816)
02-26 17:17:22.731 11048 11048 I caffe_jni: I0226 17:17:22.731964 11048 net.cpp:167] Memory required for data: 105771020
02-26 17:17:22.731 11048 11048 I caffe_jni: I0226 17:17:22.731981 11048 layer_factory.hpp:77] Creating layer res2c_res2c_relu_0_split
02-26 17:17:22.732 11048 11048 I caffe_jni: I0226 17:17:22.732002 11048 net.cpp:102] Creating Layer res2c_res2c_relu_0_split
02-26 17:17:22.732 11048 11048 I caffe_jni: I0226 17:17:22.732017 11048 net.cpp:436] res2c_res2c_relu_0_split <- res2c
02-26 17:17:22.732 11048 11048 I caffe_jni: I0226 17:17:22.732035 11048 net.cpp:410] res2c_res2c_relu_0_split -> res2c_res2c_relu_0_split_0
02-26 17:17:22.732 11048 11048 I caffe_jni: I0226 17:17:22.732056 11048 net.cpp:410] res2c_res2c_relu_0_split -> res2c_res2c_relu_0_split_1
02-26 17:17:22.732 11048 11048 I caffe_jni: I0226 17:17:22.732079 11048 net.cpp:152] Setting up res2c_res2c_relu_0_split
02-26 17:17:22.732 11048 11048 I caffe_jni: I0226 17:17:22.732096 11048 net.cpp:159] Top shape: 1 256 56 56 (802816)
02-26 17:17:22.732 11048 11048 I caffe_jni: I0226 17:17:22.732115 11048 net.cpp:159] Top shape: 1 256 56 56 (802816)
02-26 17:17:22.732 11048 11048 I caffe_jni: I0226 17:17:22.732133 11048 net.cpp:167] Memory required for data: 112193548
02-26 17:17:22.732 11048 11048 I caffe_jni: I0226 17:17:22.732149 11048 layer_factory.hpp:77] Creating layer res3a_branch1
02-26 17:17:22.732 11048 11048 I caffe_jni: I0226 17:17:22.732172 11048 net.cpp:102] Creating Layer res3a_branch1
02-26 17:17:22.732 11048 11048 I caffe_jni: I0226 17:17:22.732188 11048 net.cpp:436] res3a_branch1 <- res2c_res2c_relu_0_split_0
02-26 17:17:22.732 11048 11048 I caffe_jni: I0226 17:17:22.732206 11048 net.cpp:410] res3a_branch1 -> res3a_branch1
02-26 17:17:22.732 11048 11048 I caffe_jni: I0226 17:17:22.732548 11048 net.cpp:152] Setting up res3a_branch1
02-26 17:17:22.732 11048 11048 I caffe_jni: I0226 17:17:22.732571 11048 net.cpp:159] Top shape: 1 512 28 28 (401408)
02-26 17:17:22.732 11048 11048 I caffe_jni: I0226 17:17:22.732594 11048 net.cpp:167] Memory required for data: 113799180
02-26 17:17:22.732 11048 11048 I caffe_jni: I0226 17:17:22.732614 11048 layer_factory.hpp:77] Creating layer bn3a_branch1
02-26 17:17:22.732 11048 11048 I caffe_jni: I0226 17:17:22.732636 11048 net.cpp:102] Creating Layer bn3a_branch1
02-26 17:17:22.732 11048 11048 I caffe_jni: I0226 17:17:22.732653 11048 net.cpp:436] bn3a_branch1 <- res3a_branch1
02-26 17:17:22.732 11048 11048 I caffe_jni: I0226 17:17:22.732672 11048 net.cpp:397] bn3a_branch1 -> res3a_branch1 (in-place)
02-26 17:17:22.732 11048 11048 I caffe_jni: I0226 17:17:22.732708 11048 net.cpp:152] Setting up bn3a_branch1
02-26 17:17:22.732 11048 11048 I caffe_jni: I0226 17:17:22.732728 11048 net.cpp:159] Top shape: 1 512 28 28 (401408)
02-26 17:17:22.732 11048 11048 I caffe_jni: I0226 17:17:22.732746 11048 net.cpp:167] Memory required for data: 115404812
02-26 17:17:22.732 11048 11048 I caffe_jni: I0226 17:17:22.732769 11048 layer_factory.hpp:77] Creating layer scale3a_branch1
02-26 17:17:22.732 11048 11048 I caffe_jni: I0226 17:17:22.732789 11048 net.cpp:102] Creating Layer scale3a_branch1
02-26 17:17:22.732 11048 11048 I caffe_jni: I0226 17:17:22.732805 11048 net.cpp:436] scale3a_branch1 <- res3a_branch1
02-26 17:17:22.732 11048 11048 I caffe_jni: I0226 17:17:22.732822 11048 net.cpp:397] scale3a_branch1 -> res3a_branch1 (in-place)
02-26 17:17:22.732 11048 11048 I caffe_jni: I0226 17:17:22.732851 11048 layer_factory.hpp:77] Creating layer scale3a_branch1
02-26 17:17:22.732 11048 11048 I caffe_jni: I0226 17:17:22.732887 11048 net.cpp:152] Setting up scale3a_branch1
02-26 17:17:22.732 11048 11048 I caffe_jni: I0226 17:17:22.732905 11048 net.cpp:159] Top shape: 1 512 28 28 (401408)
02-26 17:17:22.732 11048 11048 I caffe_jni: I0226 17:17:22.732923 11048 net.cpp:167] Memory required for data: 117010444
02-26 17:17:22.732 11048 11048 I caffe_jni: I0226 17:17:22.732945 11048 layer_factory.hpp:77] Creating layer res3a_branch2a
02-26 17:17:22.732 11048 11048 I caffe_jni: I0226 17:17:22.732969 11048 net.cpp:102] Creating Layer res3a_branch2a
02-26 17:17:22.732 11048 11048 I caffe_jni: I0226 17:17:22.732987 11048 net.cpp:436] res3a_branch2a <- res2c_res2c_relu_0_split_1
02-26 17:17:22.733 11048 11048 I caffe_jni: I0226 17:17:22.733007 11048 net.cpp:410] res3a_branch2a -> res3a_branch2a
02-26 17:17:22.733 11048 11048 I caffe_jni: I0226 17:17:22.733147 11048 net.cpp:152] Setting up res3a_branch2a
02-26 17:17:22.733 11048 11048 I caffe_jni: I0226 17:17:22.733168 11048 net.cpp:159] Top shape: 1 128 28 28 (100352)
02-26 17:17:22.733 11048 11048 I caffe_jni: I0226 17:17:22.733187 11048 net.cpp:167] Memory required for data: 117411852
02-26 17:17:22.733 11048 11048 I caffe_jni: I0226 17:17:22.733207 11048 layer_factory.hpp:77] Creating layer bn3a_branch2a
02-26 17:17:22.733 11048 11048 I caffe_jni: I0226 17:17:22.733229 11048 net.cpp:102] Creating Layer bn3a_branch2a
02-26 17:17:22.733 11048 11048 I caffe_jni: I0226 17:17:22.733247 11048 net.cpp:436] bn3a_branch2a <- res3a_branch2a
02-26 17:17:22.733 11048 11048 I caffe_jni: I0226 17:17:22.733266 11048 net.cpp:397] bn3a_branch2a -> res3a_branch2a (in-place)
02-26 17:17:22.733 11048 11048 I caffe_jni: I0226 17:17:22.733301 11048 net.cpp:152] Setting up bn3a_branch2a
02-26 17:17:22.733 11048 11048 I caffe_jni: I0226 17:17:22.733319 11048 net.cpp:159] Top shape: 1 128 28 28 (100352)
02-26 17:17:22.733 11048 11048 I caffe_jni: I0226 17:17:22.733338 11048 net.cpp:167] Memory required for data: 117813260
02-26 17:17:22.733 11048 11048 I caffe_jni: I0226 17:17:22.733359 11048 layer_factory.hpp:77] Creating layer scale3a_branch2a
02-26 17:17:22.733 11048 11048 I caffe_jni: I0226 17:17:22.733383 11048 net.cpp:102] Creating Layer scale3a_branch2a
02-26 17:17:22.733 11048 11048 I caffe_jni: I0226 17:17:22.733400 11048 net.cpp:436] scale3a_branch2a <- res3a_branch2a
02-26 17:17:22.733 11048 11048 I caffe_jni: I0226 17:17:22.733419 11048 net.cpp:397] scale3a_branch2a -> res3a_branch2a (in-place)
02-26 17:17:22.733 11048 11048 I caffe_jni: I0226 17:17:22.733448 11048 layer_factory.hpp:77] Creating layer scale3a_branch2a
02-26 17:17:22.733 11048 11048 I caffe_jni: I0226 17:17:22.733484 11048 net.cpp:152] Setting up scale3a_branch2a
02-26 17:17:22.733 11048 11048 I caffe_jni: I0226 17:17:22.733502 11048 net.cpp:159] Top shape: 1 128 28 28 (100352)
02-26 17:17:22.733 11048 11048 I caffe_jni: I0226 17:17:22.733520 11048 net.cpp:167] Memory required for data: 118214668
02-26 17:17:22.733 11048 11048 I caffe_jni: I0226 17:17:22.733541 11048 layer_factory.hpp:77] Creating layer res3a_branch2a_relu
02-26 17:17:22.733 11048 11048 I caffe_jni: I0226 17:17:22.733562 11048 net.cpp:102] Creating Layer res3a_branch2a_relu
02-26 17:17:22.733 11048 11048 I caffe_jni: I0226 17:17:22.733578 11048 net.cpp:436] res3a_branch2a_relu <- res3a_branch2a
02-26 17:17:22.733 11048 11048 I caffe_jni: I0226 17:17:22.733597 11048 net.cpp:397] res3a_branch2a_relu -> res3a_branch2a (in-place)
02-26 17:17:22.733 11048 11048 I caffe_jni: I0226 17:17:22.733618 11048 net.cpp:152] Setting up res3a_branch2a_relu
02-26 17:17:22.733 11048 11048 I caffe_jni: I0226 17:17:22.733634 11048 net.cpp:159] Top shape: 1 128 28 28 (100352)
02-26 17:17:22.733 11048 11048 I caffe_jni: I0226 17:17:22.733651 11048 net.cpp:167] Memory required for data: 118616076
02-26 17:17:22.733 11048 11048 I caffe_jni: I0226 17:17:22.733666 11048 layer_factory.hpp:77] Creating layer res3a_branch2b
02-26 17:17:22.733 11048 11048 I caffe_jni: I0226 17:17:22.733686 11048 net.cpp:102] Creating Layer res3a_branch2b
02-26 17:17:22.733 11048 11048 I caffe_jni: I0226 17:17:22.733702 11048 net.cpp:436] res3a_branch2b <- res3a_branch2a
02-26 17:17:22.733 11048 11048 I caffe_jni: I0226 17:17:22.733721 11048 net.cpp:410] res3a_branch2b -> res3a_branch2b
02-26 17:17:22.734 11048 11048 I caffe_jni: I0226 17:17:22.734087 11048 net.cpp:152] Setting up res3a_branch2b
02-26 17:17:22.734 11048 11048 I caffe_jni: I0226 17:17:22.734112 11048 net.cpp:159] Top shape: 1 128 28 28 (100352)
02-26 17:17:22.734 11048 11048 I caffe_jni: I0226 17:17:22.734133 11048 net.cpp:167] Memory required for data: 119017484
02-26 17:17:22.734 11048 11048 I caffe_jni: I0226 17:17:22.734153 11048 layer_factory.hpp:77] Creating layer bn3a_branch2b
02-26 17:17:22.734 11048 11048 I caffe_jni: I0226 17:17:22.734176 11048 net.cpp:102] Creating Layer bn3a_branch2b
02-26 17:17:22.734 11048 11048 I caffe_jni: I0226 17:17:22.734194 11048 net.cpp:436] bn3a_branch2b <- res3a_branch2b
02-26 17:17:22.734 11048 11048 I caffe_jni: I0226 17:17:22.734212 11048 net.cpp:397] bn3a_branch2b -> res3a_branch2b (in-place)
02-26 17:17:22.734 11048 11048 I caffe_jni: I0226 17:17:22.734249 11048 net.cpp:152] Setting up bn3a_branch2b
02-26 17:17:22.734 11048 11048 I caffe_jni: I0226 17:17:22.734266 11048 net.cpp:159] Top shape: 1 128 28 28 (100352)
02-26 17:17:22.734 11048 11048 I caffe_jni: I0226 17:17:22.734284 11048 net.cpp:167] Memory required for data: 119418892
02-26 17:17:22.734 11048 11048 I caffe_jni: I0226 17:17:22.734308 11048 layer_factory.hpp:77] Creating layer scale3a_branch2b
02-26 17:17:22.734 11048 11048 I caffe_jni: I0226 17:17:22.734329 11048 net.cpp:102] Creating Layer scale3a_branch2b
02-26 17:17:22.734 11048 11048 I caffe_jni: I0226 17:17:22.734347 11048 net.cpp:436] scale3a_branch2b <- res3a_branch2b
02-26 17:17:22.734 11048 11048 I caffe_jni: I0226 17:17:22.734365 11048 net.cpp:397] scale3a_branch2b -> res3a_branch2b (in-place)
02-26 17:17:22.734 11048 11048 I caffe_jni: I0226 17:17:22.734395 11048 layer_factory.hpp:77] Creating layer scale3a_branch2b
02-26 17:17:22.734 11048 11048 I caffe_jni: I0226 17:17:22.734433 11048 net.cpp:152] Setting up scale3a_branch2b
02-26 17:17:22.734 11048 11048 I caffe_jni: I0226 17:17:22.734452 11048 net.cpp:159] Top shape: 1 128 28 28 (100352)
02-26 17:17:22.734 11048 11048 I caffe_jni: I0226 17:17:22.734469 11048 net.cpp:167] Memory required for data: 119820300
02-26 17:17:22.734 11048 11048 I caffe_jni: I0226 17:17:22.734493 11048 layer_factory.hpp:77] Creating layer res3a_branch2b_relu
02-26 17:17:22.734 11048 11048 I caffe_jni: I0226 17:17:22.734513 11048 net.cpp:102] Creating Layer res3a_branch2b_relu
02-26 17:17:22.734 11048 11048 I caffe_jni: I0226 17:17:22.734531 11048 net.cpp:436] res3a_branch2b_relu <- res3a_branch2b
02-26 17:17:22.734 11048 11048 I caffe_jni: I0226 17:17:22.734550 11048 net.cpp:397] res3a_branch2b_relu -> res3a_branch2b (in-place)
02-26 17:17:22.734 11048 11048 I caffe_jni: I0226 17:17:22.734570 11048 net.cpp:152] Setting up res3a_branch2b_relu
02-26 17:17:22.734 11048 11048 I caffe_jni: I0226 17:17:22.734587 11048 net.cpp:159] Top shape: 1 128 28 28 (100352)
02-26 17:17:22.734 11048 11048 I caffe_jni: I0226 17:17:22.734604 11048 net.cpp:167] Memory required for data: 120221708
02-26 17:17:22.734 11048 11048 I caffe_jni: I0226 17:17:22.734622 11048 layer_factory.hpp:77] Creating layer res3a_branch2c
02-26 17:17:22.734 11048 11048 I caffe_jni: I0226 17:17:22.734644 11048 net.cpp:102] Creating Layer res3a_branch2c
02-26 17:17:22.734 11048 11048 I caffe_jni: I0226 17:17:22.734661 11048 net.cpp:436] res3a_branch2c <- res3a_branch2b
02-26 17:17:22.734 11048 11048 I caffe_jni: I0226 17:17:22.734680 11048 net.cpp:410] res3a_branch2c -> res3a_branch2c
02-26 17:17:22.734  2005 20339 D HwRecentsLockUtils: Search
02-26 17:17:22.734  1900 15807 E HsmCoreServiceImpl: onTransact in code is: 103
02-26 17:17:22.734 11048 11048 I caffe_jni: I0226 17:17:22.734861 11048 net.cpp:152] Setting up res3a_branch2c
02-26 17:17:22.734 11048 11048 I caffe_jni: I0226 17:17:22.734884 11048 net.cpp:159] Top shape: 1 512 28 28 (401408)
02-26 17:17:22.734 11048 11048 I caffe_jni: I0226 17:17:22.734903 11048 net.cpp:167] Memory required for data: 121827340
02-26 17:17:22.734 11048 11048 I caffe_jni: I0226 17:17:22.734921 11048 layer_factory.hpp:77] Creating layer bn3a_branch2c
02-26 17:17:22.734  1900 15807 I MediaProcessHandler: playingUids: 
02-26 17:17:22.734 11048 11048 I caffe_jni: I0226 17:17:22.734946 11048 net.cpp:102] Creating Layer bn3a_branch2c
02-26 17:17:22.734 11048 11048 I caffe_jni: I0226 17:17:22.734963 11048 net.cpp:436] bn3a_branch2c <- res3a_branch2c
02-26 17:17:22.734 11048 11048 I caffe_jni: I0226 17:17:22.734982 11048 net.cpp:397] bn3a_branch2c -> res3a_branch2c (in-place)
02-26 17:17:22.735 11048 11048 I caffe_jni: I0226 17:17:22.735019 11048 net.cpp:152] Setting up bn3a_branch2c
02-26 17:17:22.735 11048 11048 I caffe_jni: I0226 17:17:22.735035 11048 net.cpp:159] Top shape: 1 512 28 28 (401408)
02-26 17:17:22.735 11048 11048 I caffe_jni: I0226 17:17:22.735054 11048 net.cpp:167] Memory required for data: 123432972
02-26 17:17:22.735 11048 11048 I caffe_jni: I0226 17:17:22.735077 11048 layer_factory.hpp:77] Creating layer scale3a_branch2c
02-26 17:17:22.735 11048 11048 I caffe_jni: I0226 17:17:22.735098 11048 net.cpp:102] Creating Layer scale3a_branch2c
02-26 17:17:22.735 11048 11048 I caffe_jni: I0226 17:17:22.735116 11048 net.cpp:436] scale3a_branch2c <- res3a_branch2c
02-26 17:17:22.735 11048 11048 I caffe_jni: I0226 17:17:22.735132 11048 net.cpp:397] scale3a_branch2c -> res3a_branch2c (in-place)
02-26 17:17:22.735 11048 11048 I caffe_jni: I0226 17:17:22.735162 11048 layer_factory.hpp:77] Creating layer scale3a_branch2c
02-26 17:17:22.735 11048 11048 I caffe_jni: I0226 17:17:22.735201 11048 net.cpp:152] Setting up scale3a_branch2c
02-26 17:17:22.735 11048 11048 I caffe_jni: I0226 17:17:22.735219 11048 net.cpp:159] Top shape: 1 512 28 28 (401408)
02-26 17:17:22.735 11048 11048 I caffe_jni: I0226 17:17:22.735239 11048 net.cpp:167] Memory required for data: 125038604
02-26 17:17:22.735 11048 11048 I caffe_jni: I0226 17:17:22.735258 11048 layer_factory.hpp:77] Creating layer res3a
02-26 17:17:22.735 11048 11048 I caffe_jni: I0226 17:17:22.735280 11048 net.cpp:102] Creating Layer res3a
02-26 17:17:22.735 11048 11048 I caffe_jni: I0226 17:17:22.735296 11048 net.cpp:436] res3a <- res3a_branch1
02-26 17:17:22.735 11048 11048 I caffe_jni: I0226 17:17:22.735312 11048 net.cpp:436] res3a <- res3a_branch2c
02-26 17:17:22.735 11048 11048 I caffe_jni: I0226 17:17:22.735330 11048 net.cpp:410] res3a -> res3a
02-26 17:17:22.735 11048 11048 I caffe_jni: I0226 17:17:22.735352 11048 net.cpp:152] Setting up res3a
02-26 17:17:22.735 11048 11048 I caffe_jni: I0226 17:17:22.735368 11048 net.cpp:159] Top shape: 1 512 28 28 (401408)
02-26 17:17:22.735 11048 11048 I caffe_jni: I0226 17:17:22.735385 11048 net.cpp:167] Memory required for data: 126644236
02-26 17:17:22.735 11048 11048 I caffe_jni: I0226 17:17:22.735401 11048 layer_factory.hpp:77] Creating layer res3a_relu
02-26 17:17:22.735 11048 11048 I caffe_jni: I0226 17:17:22.735419 11048 net.cpp:102] Creating Layer res3a_relu
02-26 17:17:22.735 11048 11048 I caffe_jni: I0226 17:17:22.735433 11048 net.cpp:436] res3a_relu <- res3a
02-26 17:17:22.735 11048 11048 I caffe_jni: I0226 17:17:22.735452 11048 net.cpp:397] res3a_relu -> res3a (in-place)
02-26 17:17:22.735 11048 11048 I caffe_jni: I0226 17:17:22.735471 11048 net.cpp:152] Setting up res3a_relu
02-26 17:17:22.735 11048 11048 I caffe_jni: I0226 17:17:22.735486 11048 net.cpp:159] Top shape: 1 512 28 28 (401408)
02-26 17:17:22.735 11048 11048 I caffe_jni: I0226 17:17:22.735504 11048 net.cpp:167] Memory required for data: 128249868
02-26 17:17:22.735 11048 11048 I caffe_jni: I0226 17:17:22.735519 11048 layer_factory.hpp:77] Creating layer res3a_res3a_relu_0_split
02-26 17:17:22.735 11048 11048 I caffe_jni: I0226 17:17:22.735538 11048 net.cpp:102] Creating Layer res3a_res3a_relu_0_split
02-26 17:17:22.735 11048 11048 I caffe_jni: I0226 17:17:22.735556 11048 net.cpp:436] res3a_res3a_relu_0_split <- res3a
02-26 17:17:22.735 11048 11048 I caffe_jni: I0226 17:17:22.735579 11048 net.cpp:410] res3a_res3a_relu_0_split -> res3a_res3a_relu_0_split_0
02-26 17:17:22.735 11048 11048 I caffe_jni: I0226 17:17:22.735599 11048 net.cpp:410] res3a_res3a_relu_0_split -> res3a_res3a_relu_0_split_1
02-26 17:17:22.735 11048 11048 I caffe_jni: I0226 17:17:22.735622 11048 net.cpp:152] Setting up res3a_res3a_relu_0_split
02-26 17:17:22.735 11048 11048 I caffe_jni: I0226 17:17:22.735640 11048 net.cpp:159] Top shape: 1 512 28 28 (401408)
02-26 17:17:22.735 11048 11048 I caffe_jni: I0226 17:17:22.735656 11048 net.cpp:159] Top shape: 1 512 28 28 (401408)
02-26 17:17:22.735 11048 11048 I caffe_jni: I0226 17:17:22.735674 11048 net.cpp:167] Memory required for data: 131461132
02-26 17:17:22.735 11048 11048 I caffe_jni: I0226 17:17:22.735692 11048 layer_factory.hpp:77] Creating layer res3b_branch2a
02-26 17:17:22.735  1256  2325 D ActivityManager: Skipping, home or recents stack task: TaskRecord{a4d023d #4 A=com.huawei.android.launcher U=0 StackId=0 sz=1}
…
02-26 17:17:22.735  1256  2325 D ActivityManager: Skipping intent:flg=0x10800000 cmp=com.huawei.hiview/com.huawei.aqv.ui.CrashAppDialog
02-26 17:17:22.735  1256  2325 D ActivityManager: Skipping intent:act=android.content.pm.action.CONFIRM_PERMISSIONS flg=0x10808000 pkg=com.android.packageinstaller cmp=com.android.packageinstaller/.InstallStart
02-26 17:17:22.735  1256  2325 D ActivityManager: Skipping intent:act=android.intent.action.MAIN flg=0x50840000 cmp=eu.chainfire.supersu/.PromptActivity
02-26 17:17:22.735 11048 11048 I caffe_jni: I0226 17:17:22.735972 11048 net.cpp:152] Setting up res3b_branch2a
02-26 17:17:22.736 11048 11048 I caffe_jni: I0226 17:17:22.735996 11048 net.cpp:159] Top shape: 1 128 28 28 (100352)
02-26 17:17:22.736 11048 11048 I caffe_jni: I0226 17:17:22.736014 11048 net.cpp:167] Memory required for data: 131862540
02-26 17:17:22.736 11048 11048 I caffe_jni: I0226 17:17:22.736033 11048 layer_factory.hpp:77] Creating layer bn3b_branch2a
02-26 17:17:22.736 11048 11048 I caffe_jni: I0226 17:17:22.736057 11048 net.cpp:102] Creating Layer bn3b_branch2a
02-26 17:17:22.736 11048 11048 I caffe_jni: I0226 17:17:22.736075 11048 net.cpp:436] bn3b_branch2a <- res3b_branch2a
02-26 17:17:22.736 11048 11048 I caffe_jni: I0226 17:17:22.736094 11048 net.cpp:397] bn3b_branch2a -> res3b_branch2a (in-place)
02-26 17:17:22.736 11048 11048 I caffe_jni: I0226 17:17:22.736132 11048 net.cpp:152] Setting up bn3b_branch2a
02-26 17:17:22.736 11048 11048 I caffe_jni: I0226 17:17:22.736150 11048 net.cpp:159] Top shape: 1 128 28 28 (100352)
02-26 17:17:22.736 11048 11048 I caffe_jni: I0226 17:17:22.736168 11048 net.cpp:167] Memory required for data: 132263948
02-26 17:17:22.736 11048 11048 I caffe_jni: I0226 17:17:22.736189 11048 layer_factory.hpp:77] Creating layer scale3b_branch2a
02-26 17:17:22.736 11048 11048 I caffe_jni: I0226 17:17:22.736209 11048 net.cpp:102] Creating Layer scale3b_branch2a
02-26 17:17:22.736 11048 11048 I caffe_jni: I0226 17:17:22.736227 11048 net.cpp:436] scale3b_branch2a <- res3b_branch2a
02-26 17:17:22.736 11048 11048 I caffe_jni: I0226 17:17:22.736245 11048 net.cpp:397] scale3b_branch2a -> res3b_branch2a (in-place)
02-26 17:17:22.736 11048 11048 I caffe_jni: I0226 17:17:22.736271 11048 layer_factory.hpp:77] Creating layer scale3b_branch2a
02-26 17:17:22.736 11048 11048 I caffe_jni: I0226 17:17:22.736310 11048 net.cpp:152] Setting up scale3b_branch2a
02-26 17:17:22.736 11048 11048 I caffe_jni: I0226 17:17:22.736328 11048 net.cpp:159] Top shape: 1 128 28 28 (100352)
02-26 17:17:22.736 11048 11048 I caffe_jni: I0226 17:17:22.736346 11048 net.cpp:167] Memory required for data: 132665356
02-26 17:17:22.736 11048 11048 I caffe_jni: I0226 17:17:22.736367 11048 layer_factory.hpp:77] Creating layer res3b_branch2a_relu
02-26 17:17:22.736 11048 11048 I caffe_jni: I0226 17:17:22.736389 11048 net.cpp:102] Creating Layer res3b_branch2a_relu
02-26 17:17:22.736 11048 11048 I caffe_jni: I0226 17:17:22.736407 11048 net.cpp:436] res3b_branch2a_relu <- res3b_branch2a
02-26 17:17:22.736 11048 11048 I caffe_jni: I0226 17:17:22.736423 11048 net.cpp:397] res3b_branch2a_relu -> res3b_branch2a (in-place)
02-26 17:17:22.736 11048 11048 I caffe_jni: I0226 17:17:22.736444 11048 net.cpp:152] Setting up res3b_branch2a_relu
02-26 17:17:22.736 11048 11048 I caffe_jni: I0226 17:17:22.736460 11048 net.cpp:159] Top shape: 1 128 28 28 (100352)
02-26 17:17:22.736 11048 11048 I caffe_jni: I0226 17:17:22.736479 11048 net.cpp:167] Memory required for data: 133066764
02-26 17:17:22.736 11048 11048 I caffe_jni: I0226 17:17:22.736495 11048 layer_factory.hpp:77] Creating layer res3b_branch2b
02-26 17:17:22.736 11048 11048 I caffe_jni: I0226 17:17:22.736516 11048 net.cpp:102] Creating Layer res3b_branch2b
02-26 17:17:22.736 11048 11048 I caffe_jni: I0226 17:17:22.736533 11048 net.cpp:436] res3b_branch2b <- res3b_branch2a
02-26 17:17:22.736 11048 11048 I caffe_jni: I0226 17:17:22.736552 11048 net.cpp:410] res3b_branch2b -> res3b_branch2b
02-26 17:17:22.736 11048 11048 I caffe_jni: I0226 17:17:22.736920 11048 net.cpp:152] Setting up res3b_branch2b
02-26 17:17:22.736 11048 11048 I caffe_jni: I0226 17:17:22.736948 11048 net.cpp:159] Top shape: 1 128 28 28 (100352)
02-26 17:17:22.736 11048 11048 I caffe_jni: I0226 17:17:22.736968 11048 net.cpp:167] Memory required for data: 133468172
02-26 17:17:22.736 11048 11048 I caffe_jni: I0226 17:17:22.736989 11048 layer_factory.hpp:77] Creating layer bn3b_branch2b
02-26 17:17:22.737 11048 11048 I caffe_jni: I0226 17:17:22.737010 11048 net.cpp:102] Creating Layer bn3b_branch2b
02-26 17:17:22.737 11048 11048 I caffe_jni: I0226 17:17:22.737027 11048 net.cpp:436] bn3b_branch2b <- res3b_branch2b
02-26 17:17:22.737 11048 11048 I caffe_jni: I0226 17:17:22.737047 11048 net.cpp:397] bn3b_branch2b -> res3b_branch2b (in-place)
02-26 17:17:22.737 11048 11048 I caffe_jni: I0226 17:17:22.737085 11048 net.cpp:152] Setting up bn3b_branch2b
02-26 17:17:22.737 11048 11048 I caffe_jni: I0226 17:17:22.737103 11048 net.cpp:159] Top shape: 1 128 28 28 (100352)
02-26 17:17:22.737 11048 11048 I caffe_jni: I0226 17:17:22.737155 11048 net.cpp:167] Memory required for data: 133869580
02-26 17:17:22.737 11048 11048 I caffe_jni: I0226 17:17:22.737180 11048 layer_factory.hpp:77] Creating layer scale3b_branch2b
02-26 17:17:22.737 11048 11048 I caffe_jni: I0226 17:17:22.737202 11048 net.cpp:102] Creating Layer scale3b_branch2b
02-26 17:17:22.737 11048 11048 I caffe_jni: I0226 17:17:22.737221 11048 net.cpp:436] scale3b_branch2b <- res3b_branch2b
02-26 17:17:22.737 11048 11048 I caffe_jni: I0226 17:17:22.737239 11048 net.cpp:397] scale3b_branch2b -> res3b_branch2b (in-place)
02-26 17:17:22.737 11048 11048 I caffe_jni: I0226 17:17:22.737267 11048 layer_factory.hpp:77] Creating layer scale3b_branch2b
02-26 17:17:22.737 11048 11048 I caffe_jni: I0226 17:17:22.737308 11048 net.cpp:152] Setting up scale3b_branch2b
02-26 17:17:22.737 11048 11048 I caffe_jni: I0226 17:17:22.737325 11048 net.cpp:159] Top shape: 1 128 28 28 (100352)
02-26 17:17:22.737 11048 11048 I caffe_jni: I0226 17:17:22.737344 11048 net.cpp:167] Memory required for data: 134270988
02-26 17:17:22.737 11048 11048 I caffe_jni: I0226 17:17:22.737365 11048 layer_factory.hpp:77] Creating layer res3b_branch2b_relu
02-26 17:17:22.737 11048 11048 I caffe_jni: I0226 17:17:22.737385 11048 net.cpp:102] Creating Layer res3b_branch2b_relu
02-26 17:17:22.737 11048 11048 I caffe_jni: I0226 17:17:22.737401 11048 net.cpp:436] res3b_branch2b_relu <- res3b_branch2b
02-26 17:17:22.737 11048 11048 I caffe_jni: I0226 17:17:22.737419 11048 net.cpp:397] res3b_branch2b_relu -> res3b_branch2b (in-place)
02-26 17:17:22.737 11048 11048 I caffe_jni: I0226 17:17:22.737439 11048 net.cpp:152] Setting up res3b_branch2b_relu
02-26 17:17:22.737 11048 11048 I caffe_jni: I0226 17:17:22.737457 11048 net.cpp:159] Top shape: 1 128 28 28 (100352)
02-26 17:17:22.737 11048 11048 I caffe_jni: I0226 17:17:22.737473 11048 net.cpp:167] Memory required for data: 134672396
02-26 17:17:22.737 11048 11048 I caffe_jni: I0226 17:17:22.737490 11048 layer_factory.hpp:77] Creating layer res3b_branch2c
02-26 17:17:22.737 11048 11048 I caffe_jni: I0226 17:17:22.737512 11048 net.cpp:102] Creating Layer res3b_branch2c
02-26 17:17:22.737 11048 11048 I caffe_jni: I0226 17:17:22.737529 11048 net.cpp:436] res3b_branch2c <- res3b_branch2b
02-26 17:17:22.737 11048 11048 I caffe_jni: I0226 17:17:22.737547 11048 net.cpp:410] res3b_branch2c -> res3b_branch2c
02-26 17:17:22.737 11048 11048 I caffe_jni: I0226 17:17:22.737752 11048 net.cpp:152] Setting up res3b_branch2c
02-26 17:17:22.737 11048 11048 I caffe_jni: I0226 17:17:22.737781 11048 net.cpp:159] Top shape: 1 512 28 28 (401408)
02-26 17:17:22.737 11048 11048 I caffe_jni: I0226 17:17:22.737802 11048 net.cpp:167] Memory required for data: 136278028
02-26 17:17:22.737 11048 11048 I caffe_jni: I0226 17:17:22.737820 11048 layer_factory.hpp:77] Creating layer bn3b_branch2c
02-26 17:17:22.737 11048 11048 I caffe_jni: I0226 17:17:22.737843 11048 net.cpp:102] Creating Layer bn3b_branch2c
02-26 17:17:22.737 11048 11048 I caffe_jni: I0226 17:17:22.737859 11048 net.cpp:436] bn3b_branch2c <- res3b_branch2c
02-26 17:17:22.737 11048 11048 I caffe_jni: I0226 17:17:22.737879 11048 net.cpp:397] bn3b_branch2c -> res3b_branch2c (in-place)
02-26 17:17:22.737 11048 11048 I caffe_jni: I0226 17:17:22.737915 11048 net.cpp:152] Setting up bn3b_branch2c
02-26 17:17:22.737 11048 11048 I caffe_jni: I0226 17:17:22.737931 11048 net.cpp:159] Top shape: 1 512 28 28 (401408)
02-26 17:17:22.737 11048 11048 I caffe_jni: I0226 17:17:22.737949 11048 net.cpp:167] Memory required for data: 137883660
02-26 17:17:22.737 11048 11048 I caffe_jni: I0226 17:17:22.737972 11048 layer_factory.hpp:77] Creating layer scale3b_branch2c
02-26 17:17:22.737 11048 11048 I caffe_jni: I0226 17:17:22.737993 11048 net.cpp:102] Creating Layer scale3b_branch2c
02-26 17:17:22.738 11048 11048 I caffe_jni: I0226 17:17:22.738009 11048 net.cpp:436] scale3b_branch2c <- res3b_branch2c
02-26 17:17:22.738 11048 11048 I caffe_jni: I0226 17:17:22.738028 11048 net.cpp:397] scale3b_branch2c -> res3b_branch2c (in-place)
02-26 17:17:22.738 11048 11048 I caffe_jni: I0226 17:17:22.738055 11048 layer_factory.hpp:77] Creating layer scale3b_branch2c
02-26 17:17:22.738 11048 11048 I caffe_jni: I0226 17:17:22.738098 11048 net.cpp:152] Setting up scale3b_branch2c
02-26 17:17:22.738 11048 11048 I caffe_jni: I0226 17:17:22.738116 11048 net.cpp:159] Top shape: 1 512 28 28 (401408)
02-26 17:17:22.738 11048 11048 I caffe_jni: I0226 17:17:22.738135 11048 net.cpp:167] Memory required for data: 139489292
02-26 17:17:22.738 11048 11048 I caffe_jni: I0226 17:17:22.738155 11048 layer_factory.hpp:77] Creating layer res3b
02-26 17:17:22.738 11048 11048 I caffe_jni: I0226 17:17:22.738176 11048 net.cpp:102] Creating Layer res3b
02-26 17:17:22.738 11048 11048 I caffe_jni: I0226 17:17:22.738194 11048 net.cpp:436] res3b <- res3a_res3a_relu_0_split_1
02-26 17:17:22.738 11048 11048 I caffe_jni: I0226 17:17:22.738215 11048 net.cpp:436] res3b <- res3b_branch2c
02-26 17:17:22.738 11048 11048 I caffe_jni: I0226 17:17:22.738234 11048 net.cpp:410] res3b -> res3b
02-26 17:17:22.738 11048 11048 I caffe_jni: I0226 17:17:22.738257 11048 net.cpp:152] Setting up res3b
02-26 17:17:22.738 11048 11048 I caffe_jni: I0226 17:17:22.738276 11048 net.cpp:159] Top shape: 1 512 28 28 (401408)
02-26 17:17:22.738 11048 11048 I caffe_jni: I0226 17:17:22.738292 11048 net.cpp:167] Memory required for data: 141094924
02-26 17:17:22.738 11048 11048 I caffe_jni: I0226 17:17:22.738308 11048 layer_factory.hpp:77] Creating layer res3b_relu
02-26 17:17:22.738 11048 11048 I caffe_jni: I0226 17:17:22.738327 11048 net.cpp:102] Creating Layer res3b_relu
02-26 17:17:22.738 11048 11048 I caffe_jni: I0226 17:17:22.738343 11048 net.cpp:436] res3b_relu <- res3b
02-26 17:17:22.738 11048 11048 I caffe_jni: I0226 17:17:22.738361 11048 net.cpp:397] res3b_relu -> res3b (in-place)
02-26 17:17:22.738 11048 11048 I caffe_jni: I0226 17:17:22.738381 11048 net.cpp:152] Setting up res3b_relu
02-26 17:17:22.738 11048 11048 I caffe_jni: I0226 17:17:22.738396 11048 net.cpp:159] Top shape: 1 512 28 28 (401408)
02-26 17:17:22.738 11048 11048 I caffe_jni: I0226 17:17:22.738415 11048 net.cpp:167] Memory required for data: 142700556
02-26 17:17:22.738 11048 11048 I caffe_jni: I0226 17:17:22.738431 11048 layer_factory.hpp:77] Creating layer res3b_res3b_relu_0_split
02-26 17:17:22.738 11048 11048 I caffe_jni: I0226 17:17:22.738451 11048 net.cpp:102] Creating Layer res3b_res3b_relu_0_split
02-26 17:17:22.738 11048 11048 I caffe_jni: I0226 17:17:22.738467 11048 net.cpp:436] res3b_res3b_relu_0_split <- res3b
02-26 17:17:22.738 11048 11048 I caffe_jni: I0226 17:17:22.738483 11048 net.cpp:410] res3b_res3b_relu_0_split -> res3b_res3b_relu_0_split_0
02-26 17:17:22.738 11048 11048 I caffe_jni: I0226 17:17:22.738507 11048 net.cpp:410] res3b_res3b_relu_0_split -> res3b_res3b_relu_0_split_1
02-26 17:17:22.738 11048 11048 I caffe_jni: I0226 17:17:22.738531 11048 net.cpp:152] Setting up res3b_res3b_relu_0_split
02-26 17:17:22.738 11048 11048 I caffe_jni: I0226 17:17:22.738548 11048 net.cpp:159] Top shape: 1 512 28 28 (401408)
02-26 17:17:22.738 11048 11048 I caffe_jni: I0226 17:17:22.738566 11048 net.cpp:159] Top shape: 1 512 28 28 (401408)
02-26 17:17:22.738 11048 11048 I caffe_jni: I0226 17:17:22.738590 11048 net.cpp:167] Memory required for data: 145911820
02-26 17:17:22.738 11048 11048 I caffe_jni: I0226 17:17:22.738605 11048 layer_factory.hpp:77] Creating layer res3c_branch2a
02-26 17:17:22.738 11048 11048 I caffe_jni: I0226 17:17:22.738628 11048 net.cpp:102] Creating Layer res3c_branch2a
02-26 17:17:22.738 11048 11048 I caffe_jni: I0226 17:17:22.738646 11048 net.cpp:436] res3c_branch2a <- res3b_res3b_relu_0_split_0
02-26 17:17:22.738 11048 11048 I caffe_jni: I0226 17:17:22.738664 11048 net.cpp:410] res3c_branch2a -> res3c_branch2a
02-26 17:17:22.738 11048 11048 I caffe_jni: I0226 17:17:22.738863 11048 net.cpp:152] Setting up res3c_branch2a
02-26 17:17:22.738 11048 11048 I caffe_jni: I0226 17:17:22.738885 11048 net.cpp:159] Top shape: 1 128 28 28 (100352)
02-26 17:17:22.738 11048 11048 I caffe_jni: I0226 17:17:22.738904 11048 net.cpp:167] Memory required for data: 146313228
02-26 17:17:22.738 11048 11048 I caffe_jni: I0226 17:17:22.738925 11048 layer_factory.hpp:77] Creating layer bn3c_branch2a
02-26 17:17:22.738 11048 11048 I caffe_jni: I0226 17:17:22.738947 11048 net.cpp:102] Creating Layer bn3c_branch2a
02-26 17:17:22.738 11048 11048 I caffe_jni: I0226 17:17:22.738965 11048 net.cpp:436] bn3c_branch2a <- res3c_branch2a
02-26 17:17:22.738 11048 11048 I caffe_jni: I0226 17:17:22.738984 11048 net.cpp:397] bn3c_branch2a -> res3c_branch2a (in-place)
02-26 17:17:22.739 11048 11048 I caffe_jni: I0226 17:17:22.739019 11048 net.cpp:152] Setting up bn3c_branch2a
02-26 17:17:22.739 11048 11048 I caffe_jni: I0226 17:17:22.739037 11048 net.cpp:159] Top shape: 1 128 28 28 (100352)
02-26 17:17:22.739 11048 11048 I caffe_jni: I0226 17:17:22.739056 11048 net.cpp:167] Memory required for data: 146714636
02-26 17:17:22.739 11048 11048 I caffe_jni: I0226 17:17:22.739079 11048 layer_factory.hpp:77] Creating layer scale3c_branch2a
02-26 17:17:22.739 11048 11048 I caffe_jni: I0226 17:17:22.739101 11048 net.cpp:102] Creating Layer scale3c_branch2a
02-26 17:17:22.739 11048 11048 I caffe_jni: I0226 17:17:22.739120 11048 net.cpp:436] scale3c_branch2a <- res3c_branch2a
02-26 17:17:22.739 11048 11048 I caffe_jni: I0226 17:17:22.739171 11048 net.cpp:397] scale3c_branch2a -> res3c_branch2a (in-place)
02-26 17:17:22.739 11048 11048 I caffe_jni: I0226 17:17:22.739207 11048 layer_factory.hpp:77] Creating layer scale3c_branch2a
02-26 17:17:22.739 11048 11048 I caffe_jni: I0226 17:17:22.739246 11048 net.cpp:152] Setting up scale3c_branch2a
02-26 17:17:22.739 11048 11048 I caffe_jni: I0226 17:17:22.739265 11048 net.cpp:159] Top shape: 1 128 28 28 (100352)
02-26 17:17:22.739 11048 11048 I caffe_jni: I0226 17:17:22.739284 11048 net.cpp:167] Memory required for data: 147116044
02-26 17:17:22.739 11048 11048 I caffe_jni: I0226 17:17:22.739305 11048 layer_factory.hpp:77] Creating layer res3c_branch2a_relu
02-26 17:17:22.739 11048 11048 I caffe_jni: I0226 17:17:22.739326 11048 net.cpp:102] Creating Layer res3c_branch2a_relu
02-26 17:17:22.739 11048 11048 I caffe_jni: I0226 17:17:22.739343 11048 net.cpp:436] res3c_branch2a_relu <- res3c_branch2a
02-26 17:17:22.739 11048 11048 I caffe_jni: I0226 17:17:22.739363 11048 net.cpp:397] res3c_branch2a_relu -> res3c_branch2a (in-place)
02-26 17:17:22.739 11048 11048 I caffe_jni: I0226 17:17:22.739384 11048 net.cpp:152] Setting up res3c_branch2a_relu
02-26 17:17:22.739 11048 11048 I caffe_jni: I0226 17:17:22.739400 11048 net.cpp:159] Top shape: 1 128 28 28 (100352)
02-26 17:17:22.739 11048 11048 I caffe_jni: I0226 17:17:22.739418 11048 net.cpp:167] Memory required for data: 147517452
02-26 17:17:22.739 11048 11048 I caffe_jni: I0226 17:17:22.739434 11048 layer_factory.hpp:77] Creating layer res3c_branch2b
02-26 17:17:22.739 11048 11048 I caffe_jni: I0226 17:17:22.739459 11048 net.cpp:102] Creating Layer res3c_branch2b
02-26 17:17:22.739 11048 11048 I caffe_jni: I0226 17:17:22.739475 11048 net.cpp:436] res3c_branch2b <- res3c_branch2a
02-26 17:17:22.739 11048 11048 I caffe_jni: I0226 17:17:22.739495 11048 net.cpp:410] res3c_branch2b -> res3c_branch2b
02-26 17:17:22.739 11048 11048 I caffe_jni: I0226 17:17:22.739922 11048 net.cpp:152] Setting up res3c_branch2b
02-26 17:17:22.739 11048 11048 I caffe_jni: I0226 17:17:22.739955 11048 net.cpp:159] Top shape: 1 128 28 28 (100352)
02-26 17:17:22.739 11048 11048 I caffe_jni: I0226 17:17:22.739975 11048 net.cpp:167] Memory required for data: 147918860
02-26 17:17:22.740 11048 11048 I caffe_jni: I0226 17:17:22.739998 11048 layer_factory.hpp:77] Creating layer bn3c_branch2b
02-26 17:17:22.740 11048 11048 I caffe_jni: I0226 17:17:22.740023 11048 net.cpp:102] Creating Layer bn3c_branch2b
02-26 17:17:22.740 11048 11048 I caffe_jni: I0226 17:17:22.740042 11048 net.cpp:436] bn3c_branch2b <- res3c_branch2b
02-26 17:17:22.740 11048 11048 I caffe_jni: I0226 17:17:22.740065 11048 net.cpp:397] bn3c_branch2b -> res3c_branch2b (in-place)
02-26 17:17:22.740 11048 11048 I caffe_jni: I0226 17:17:22.740103 11048 net.cpp:152] Setting up bn3c_branch2b
02-26 17:17:22.740 11048 11048 I caffe_jni: I0226 17:17:22.740120 11048 net.cpp:159] Top shape: 1 128 28 28 (100352)
02-26 17:17:22.740 11048 11048 I caffe_jni: I0226 17:17:22.740139 11048 net.cpp:167] Memory required for data: 148320268
02-26 17:17:22.740 11048 11048 I caffe_jni: I0226 17:17:22.740161 11048 layer_factory.hpp:77] Creating layer scale3c_branch2b
02-26 17:17:22.740 11048 11048 I caffe_jni: I0226 17:17:22.740188 11048 net.cpp:102] Creating Layer scale3c_branch2b
02-26 17:17:22.740 11048 11048 I caffe_jni: I0226 17:17:22.740206 11048 net.cpp:436] scale3c_branch2b <- res3c_branch2b
02-26 17:17:22.740 11048 11048 I caffe_jni: I0226 17:17:22.740224 11048 net.cpp:397] scale3c_branch2b -> res3c_branch2b (in-place)
02-26 17:17:22.740 11048 11048 I caffe_jni: I0226 17:17:22.740255 11048 layer_factory.hpp:77] Creating layer scale3c_branch2b
02-26 17:17:22.740 11048 11048 I caffe_jni: I0226 17:17:22.740305 11048 net.cpp:152] Setting up scale3c_branch2b
02-26 17:17:22.740 11048 11048 I caffe_jni: I0226 17:17:22.740324 11048 net.cpp:159] Top shape: 1 128 28 28 (100352)
02-26 17:17:22.740 11048 11048 I caffe_jni: I0226 17:17:22.740342 11048 net.cpp:167] Memory required for data: 148721676
02-26 17:17:22.740 11048 11048 I caffe_jni: I0226 17:17:22.740363 11048 layer_factory.hpp:77] Creating layer res3c_branch2b_relu
02-26 17:17:22.740 11048 11048 I caffe_jni: I0226 17:17:22.740384 11048 net.cpp:102] Creating Layer res3c_branch2b_relu
02-26 17:17:22.740 11048 11048 I caffe_jni: I0226 17:17:22.740401 11048 net.cpp:436] res3c_branch2b_relu <- res3c_branch2b
02-26 17:17:22.740 11048 11048 I caffe_jni: I0226 17:17:22.740420 11048 net.cpp:397] res3c_branch2b_relu -> res3c_branch2b (in-place)
02-26 17:17:22.740 11048 11048 I caffe_jni: I0226 17:17:22.740442 11048 net.cpp:152] Setting up res3c_branch2b_relu
02-26 17:17:22.740 11048 11048 I caffe_jni: I0226 17:17:22.740458 11048 net.cpp:159] Top shape: 1 128 28 28 (100352)
02-26 17:17:22.740 11048 11048 I caffe_jni: I0226 17:17:22.740478 11048 net.cpp:167] Memory required for data: 149123084
02-26 17:17:22.740 11048 11048 I caffe_jni: I0226 17:17:22.740494 11048 layer_factory.hpp:77] Creating layer res3c_branch2c
02-26 17:17:22.740 11048 11048 I caffe_jni: I0226 17:17:22.740516 11048 net.cpp:102] Creating Layer res3c_branch2c
02-26 17:17:22.740 11048 11048 I caffe_jni: I0226 17:17:22.740533 11048 net.cpp:436] res3c_branch2c <- res3c_branch2b
02-26 17:17:22.740 11048 11048 I caffe_jni: I0226 17:17:22.740556 11048 net.cpp:410] res3c_branch2c -> res3c_branch2c
02-26 17:17:22.741 11048 11048 I caffe_jni: I0226 17:17:22.741360 11048 net.cpp:152] Setting up res3c_branch2c
02-26 17:17:22.741 11048 11048 I caffe_jni: I0226 17:17:22.741394 11048 net.cpp:159] Top shape: 1 512 28 28 (401408)
02-26 17:17:22.741 11048 11048 I caffe_jni: I0226 17:17:22.741415 11048 net.cpp:167] Memory required for data: 150728716
02-26 17:17:22.741 11048 11048 I caffe_jni: I0226 17:17:22.741437 11048 layer_factory.hpp:77] Creating layer bn3c_branch2c
02-26 17:17:22.741 11048 11048 I caffe_jni: I0226 17:17:22.741461 11048 net.cpp:102] Creating Layer bn3c_branch2c
02-26 17:17:22.741 11048 11048 I caffe_jni: I0226 17:17:22.741478 11048 net.cpp:436] bn3c_branch2c <- res3c_branch2c
02-26 17:17:22.741 11048 11048 I caffe_jni: I0226 17:17:22.741498 11048 net.cpp:397] bn3c_branch2c -> res3c_branch2c (in-place)
02-26 17:17:22.741 11048 11048 I caffe_jni: I0226 17:17:22.741538 11048 net.cpp:152] Setting up bn3c_branch2c
02-26 17:17:22.741 11048 11048 I caffe_jni: I0226 17:17:22.741554 11048 net.cpp:159] Top shape: 1 512 28 28 (401408)
02-26 17:17:22.741 11048 11048 I caffe_jni: I0226 17:17:22.741574 11048 net.cpp:167] Memory required for data: 152334348
02-26 17:17:22.741 11048 11048 I caffe_jni: I0226 17:17:22.741597 11048 layer_factory.hpp:77] Creating layer scale3c_branch2c
02-26 17:17:22.741 11048 11048 I caffe_jni: I0226 17:17:22.741618 11048 net.cpp:102] Creating Layer scale3c_branch2c
02-26 17:17:22.741 11048 11048 I caffe_jni: I0226 17:17:22.741634 11048 net.cpp:436] scale3c_branch2c <- res3c_branch2c
02-26 17:17:22.741 11048 11048 I caffe_jni: I0226 17:17:22.741652 11048 net.cpp:397] scale3c_branch2c -> res3c_branch2c (in-place)
02-26 17:17:22.741 11048 11048 I caffe_jni: I0226 17:17:22.741680 11048 layer_factory.hpp:77] Creating layer scale3c_branch2c
02-26 17:17:22.741 11048 11048 I caffe_jni: I0226 17:17:22.741722 11048 net.cpp:152] Setting up scale3c_branch2c
02-26 17:17:22.741 11048 11048 I caffe_jni: I0226 17:17:22.741740 11048 net.cpp:159] Top shape: 1 512 28 28 (401408)
02-26 17:17:22.741 11048 11048 I caffe_jni: I0226 17:17:22.741757 11048 net.cpp:167] Memory required for data: 153939980
02-26 17:17:22.741 11048 11048 I caffe_jni: I0226 17:17:22.741777 11048 layer_factory.hpp:77] Creating layer res3c
02-26 17:17:22.741 11048 11048 I caffe_jni: I0226 17:17:22.741798 11048 net.cpp:102] Creating Layer res3c
02-26 17:17:22.741 11048 11048 I caffe_jni: I0226 17:17:22.741816 11048 net.cpp:436] res3c <- res3b_res3b_relu_0_split_1
02-26 17:17:22.741 11048 11048 I caffe_jni: I0226 17:17:22.741832 11048 net.cpp:436] res3c <- res3c_branch2c
02-26 17:17:22.741 11048 11048 I caffe_jni: I0226 17:17:22.741850 11048 net.cpp:410] res3c -> res3c
02-26 17:17:22.741 11048 11048 I caffe_jni: I0226 17:17:22.741874 11048 net.cpp:152] Setting up res3c
02-26 17:17:22.741 11048 11048 I caffe_jni: I0226 17:17:22.741890 11048 net.cpp:159] Top shape: 1 512 28 28 (401408)
02-26 17:17:22.741 11048 11048 I caffe_jni: I0226 17:17:22.741907 11048 net.cpp:167] Memory required for data: 155545612
02-26 17:17:22.741 11048 11048 I caffe_jni: I0226 17:17:22.741922 11048 layer_factory.hpp:77] Creating layer res3c_relu
02-26 17:17:22.741 11048 11048 I caffe_jni: I0226 17:17:22.741942 11048 net.cpp:102] Creating Layer res3c_relu
02-26 17:17:22.741 11048 11048 I caffe_jni: I0226 17:17:22.741958 11048 net.cpp:436] res3c_relu <- res3c
02-26 17:17:22.741 11048 11048 I caffe_jni: I0226 17:17:22.741976 11048 net.cpp:397] res3c_relu -> res3c (in-place)
02-26 17:17:22.741 11048 11048 I caffe_jni: I0226 17:17:22.741996 11048 net.cpp:152] Setting up res3c_relu
02-26 17:17:22.742 11048 11048 I caffe_jni: I0226 17:17:22.742012 11048 net.cpp:159] Top shape: 1 512 28 28 (401408)
02-26 17:17:22.742 11048 11048 I caffe_jni: I0226 17:17:22.742029 11048 net.cpp:167] Memory required for data: 157151244
02-26 17:17:22.742 11048 11048 I caffe_jni: I0226 17:17:22.742045 11048 layer_factory.hpp:77] Creating layer res3c_res3c_relu_0_split
02-26 17:17:22.742 11048 11048 I caffe_jni: I0226 17:17:22.742065 11048 net.cpp:102] Creating Layer res3c_res3c_relu_0_split
02-26 17:17:22.742 11048 11048 I caffe_jni: I0226 17:17:22.742081 11048 net.cpp:436] res3c_res3c_relu_0_split <- res3c
02-26 17:17:22.742 11048 11048 I caffe_jni: I0226 17:17:22.742100 11048 net.cpp:410] res3c_res3c_relu_0_split -> res3c_res3c_relu_0_split_0
02-26 17:17:22.742 11048 11048 I caffe_jni: I0226 17:17:22.742120 11048 net.cpp:410] res3c_res3c_relu_0_split -> res3c_res3c_relu_0_split_1
02-26 17:17:22.742 11048 11048 I caffe_jni: I0226 17:17:22.742142 11048 net.cpp:152] Setting up res3c_res3c_relu_0_split
02-26 17:17:22.742 11048 11048 I caffe_jni: I0226 17:17:22.742158 11048 net.cpp:159] Top shape: 1 512 28 28 (401408)
02-26 17:17:22.742 11048 11048 I caffe_jni: I0226 17:17:22.742175 11048 net.cpp:159] Top shape: 1 512 28 28 (401408)
02-26 17:17:22.742 11048 11048 I caffe_jni: I0226 17:17:22.742193 11048 net.cpp:167] Memory required for data: 160362508
02-26 17:17:22.742 11048 11048 I caffe_jni: I0226 17:17:22.742210 11048 layer_factory.hpp:77] Creating layer res3d_branch2a
02-26 17:17:22.742 11048 11048 I caffe_jni: I0226 17:17:22.742233 11048 net.cpp:102] Creating Layer res3d_branch2a
02-26 17:17:22.742 11048 11048 I caffe_jni: I0226 17:17:22.742249 11048 net.cpp:436] res3d_branch2a <- res3c_res3c_relu_0_split_0
02-26 17:17:22.742 11048 11048 I caffe_jni: I0226 17:17:22.742270 11048 net.cpp:410] res3d_branch2a -> res3d_branch2a
02-26 17:17:22.742 11048 11048 I caffe_jni: I0226 17:17:22.742470 11048 net.cpp:152] Setting up res3d_branch2a
02-26 17:17:22.742 11048 11048 I caffe_jni: I0226 17:17:22.742491 11048 net.cpp:159] Top shape: 1 128 28 28 (100352)
02-26 17:17:22.742 11048 11048 I caffe_jni: I0226 17:17:22.742511 11048 net.cpp:167] Memory required for data: 160763916
02-26 17:17:22.742 11048 11048 I caffe_jni: I0226 17:17:22.742530 11048 layer_factory.hpp:77] Creating layer bn3d_branch2a
02-26 17:17:22.742 11048 11048 I caffe_jni: I0226 17:17:22.742552 11048 net.cpp:102] Creating Layer bn3d_branch2a
02-26 17:17:22.742 11048 11048 I caffe_jni: I0226 17:17:22.742568 11048 net.cpp:436] bn3d_branch2a <- res3d_branch2a
02-26 17:17:22.742 11048 11048 I caffe_jni: I0226 17:17:22.742588 11048 net.cpp:397] bn3d_branch2a -> res3d_branch2a (in-place)
02-26 17:17:22.742 11048 11048 I caffe_jni: I0226 17:17:22.742626 11048 net.cpp:152] Setting up bn3d_branch2a
02-26 17:17:22.742 11048 11048 I caffe_jni: I0226 17:17:22.742645 11048 net.cpp:159] Top shape: 1 128 28 28 (100352)
02-26 17:17:22.742 11048 11048 I caffe_jni: I0226 17:17:22.742663 11048 net.cpp:167] Memory required for data: 161165324
02-26 17:17:22.742 11048 11048 I caffe_jni: I0226 17:17:22.742704 11048 layer_factory.hpp:77] Creating layer scale3d_branch2a
02-26 17:17:22.742 11048 11048 I caffe_jni: I0226 17:17:22.742727 11048 net.cpp:102] Creating Layer scale3d_branch2a
02-26 17:17:22.742 11048 11048 I caffe_jni: I0226 17:17:22.742743 11048 net.cpp:436] scale3d_branch2a <- res3d_branch2a
02-26 17:17:22.742 11048 11048 I caffe_jni: I0226 17:17:22.742763 11048 net.cpp:397] scale3d_branch2a -> res3d_branch2a (in-place)
02-26 17:17:22.742 11048 11048 I caffe_jni: I0226 17:17:22.742789 11048 layer_factory.hpp:77] Creating layer scale3d_branch2a
02-26 17:17:22.742 11048 11048 I caffe_jni: I0226 17:17:22.742823 11048 net.cpp:152] Setting up scale3d_branch2a
02-26 17:17:22.742 11048 11048 I caffe_jni: I0226 17:17:22.742841 11048 net.cpp:159] Top shape: 1 128 28 28 (100352)
02-26 17:17:22.742 11048 11048 I caffe_jni: I0226 17:17:22.742859 11048 net.cpp:167] Memory required for data: 161566732
02-26 17:17:22.742 11048 11048 I caffe_jni: I0226 17:17:22.742880 11048 layer_factory.hpp:77] Creating layer res3d_branch2a_relu
02-26 17:17:22.742 11048 11048 I caffe_jni: I0226 17:17:22.742900 11048 net.cpp:102] Creating Layer res3d_branch2a_relu
02-26 17:17:22.742 11048 11048 I caffe_jni: I0226 17:17:22.742918 11048 net.cpp:436] res3d_branch2a_relu <- res3d_branch2a
02-26 17:17:22.742 11048 11048 I caffe_jni: I0226 17:17:22.742935 11048 net.cpp:397] res3d_branch2a_relu -> res3d_branch2a (in-place)
02-26 17:17:22.742 11048 11048 I caffe_jni: I0226 17:17:22.742955 11048 net.cpp:152] Setting up res3d_branch2a_relu
02-26 17:17:22.742 11048 11048 I caffe_jni: I0226 17:17:22.742972 11048 net.cpp:159] Top shape: 1 128 28 28 (100352)
02-26 17:17:22.742 11048 11048 I caffe_jni: I0226 17:17:22.742990 11048 net.cpp:167] Memory required for data: 161968140
02-26 17:17:22.743 11048 11048 I caffe_jni: I0226 17:17:22.743006 11048 layer_factory.hpp:77] Creating layer res3d_branch2b
02-26 17:17:22.743 11048 11048 I caffe_jni: I0226 17:17:22.743028 11048 net.cpp:102] Creating Layer res3d_branch2b
02-26 17:17:22.743 11048 11048 I caffe_jni: I0226 17:17:22.743044 11048 net.cpp:436] res3d_branch2b <- res3d_branch2a
02-26 17:17:22.743 11048 11048 I caffe_jni: I0226 17:17:22.743064 11048 net.cpp:410] res3d_branch2b -> res3d_branch2b
02-26 17:17:22.743 11048 11048 I caffe_jni: I0226 17:17:22.743429 11048 net.cpp:152] Setting up res3d_branch2b
02-26 17:17:22.743 11048 11048 I caffe_jni: I0226 17:17:22.743451 11048 net.cpp:159] Top shape: 1 128 28 28 (100352)
02-26 17:17:22.743 11048 11048 I caffe_jni: I0226 17:17:22.743469 11048 net.cpp:167] Memory required for data: 162369548
02-26 17:17:22.743 11048 11048 I caffe_jni: I0226 17:17:22.743489 11048 layer_factory.hpp:77] Creating layer bn3d_branch2b
02-26 17:17:22.743 11048 11048 I caffe_jni: I0226 17:17:22.743510 11048 net.cpp:102] Creating Layer bn3d_branch2b
02-26 17:17:22.743 11048 11048 I caffe_jni: I0226 17:17:22.743527 11048 net.cpp:436] bn3d_branch2b <- res3d_branch2b
02-26 17:17:22.743 11048 11048 I caffe_jni: I0226 17:17:22.743547 11048 net.cpp:397] bn3d_branch2b -> res3d_branch2b (in-place)
02-26 17:17:22.743 11048 11048 I caffe_jni: I0226 17:17:22.743582 11048 net.cpp:152] Setting up bn3d_branch2b
02-26 17:17:22.743 11048 11048 I caffe_jni: I0226 17:17:22.743598 11048 net.cpp:159] Top shape: 1 128 28 28 (100352)
02-26 17:17:22.743 11048 11048 I caffe_jni: I0226 17:17:22.743616 11048 net.cpp:167] Memory required for data: 162770956
02-26 17:17:22.743 11048 11048 I caffe_jni: I0226 17:17:22.743640 11048 layer_factory.hpp:77] Creating layer scale3d_branch2b
02-26 17:17:22.743 11048 11048 I caffe_jni: I0226 17:17:22.743662 11048 net.cpp:102] Creating Layer scale3d_branch2b
02-26 17:17:22.743 11048 11048 I caffe_jni: I0226 17:17:22.743680 11048 net.cpp:436] scale3d_branch2b <- res3d_branch2b
02-26 17:17:22.743 11048 11048 I caffe_jni: I0226 17:17:22.743697 11048 net.cpp:397] scale3d_branch2b -> res3d_branch2b (in-place)
02-26 17:17:22.743 11048 11048 I caffe_jni: I0226 17:17:22.743724 11048 layer_factory.hpp:77] Creating layer scale3d_branch2b
02-26 17:17:22.743 11048 11048 I caffe_jni: I0226 17:17:22.743763 11048 net.cpp:152] Setting up scale3d_branch2b
02-26 17:17:22.743 11048 11048 I caffe_jni: I0226 17:17:22.743780 11048 net.cpp:159] Top shape: 1 128 28 28 (100352)
02-26 17:17:22.743 11048 11048 I caffe_jni: I0226 17:17:22.743799 11048 net.cpp:167] Memory required for data: 163172364
02-26 17:17:22.743 11048 11048 I caffe_jni: I0226 17:17:22.743819 11048 layer_factory.hpp:77] Creating layer res3d_branch2b_relu
02-26 17:17:22.743 11048 11048 I caffe_jni: I0226 17:17:22.743839 11048 net.cpp:102] Creating Layer res3d_branch2b_relu
02-26 17:17:22.743 11048 11048 I caffe_jni: I0226 17:17:22.743855 11048 net.cpp:436] res3d_branch2b_relu <- res3d_branch2b
02-26 17:17:22.743 11048 11048 I caffe_jni: I0226 17:17:22.743873 11048 net.cpp:397] res3d_branch2b_relu -> res3d_branch2b (in-place)
02-26 17:17:22.743 11048 11048 I caffe_jni: I0226 17:17:22.743893 11048 net.cpp:152] Setting up res3d_branch2b_relu
02-26 17:17:22.743 11048 11048 I caffe_jni: I0226 17:17:22.743909 11048 net.cpp:159] Top shape: 1 128 28 28 (100352)
02-26 17:17:22.743 11048 11048 I caffe_jni: I0226 17:17:22.743927 11048 net.cpp:167] Memory required for data: 163573772
02-26 17:17:22.743 11048 11048 I caffe_jni: I0226 17:17:22.743943 11048 layer_factory.hpp:77] Creating layer res3d_branch2c
02-26 17:17:22.743 11048 11048 I caffe_jni: I0226 17:17:22.743965 11048 net.cpp:102] Creating Layer res3d_branch2c
02-26 17:17:22.743 11048 11048 I caffe_jni: I0226 17:17:22.743983 11048 net.cpp:436] res3d_branch2c <- res3d_branch2b
02-26 17:17:22.744 11048 11048 I caffe_jni: I0226 17:17:22.744001 11048 net.cpp:410] res3d_branch2c -> res3d_branch2c
02-26 17:17:22.744 11048 11048 I caffe_jni: I0226 17:17:22.744204 11048 net.cpp:152] Setting up res3d_branch2c
02-26 17:17:22.744 11048 11048 I caffe_jni: I0226 17:17:22.744232 11048 net.cpp:159] Top shape: 1 512 28 28 (401408)
02-26 17:17:22.744 11048 11048 I caffe_jni: I0226 17:17:22.744252 11048 net.cpp:167] Memory required for data: 165179404
02-26 17:17:22.744 11048 11048 I caffe_jni: I0226 17:17:22.744272 11048 layer_factory.hpp:77] Creating layer bn3d_branch2c
02-26 17:17:22.744 11048 11048 I caffe_jni: I0226 17:17:22.744299 11048 net.cpp:102] Creating Layer bn3d_branch2c
02-26 17:17:22.744 11048 11048 I caffe_jni: I0226 17:17:22.744316 11048 net.cpp:436] bn3d_branch2c <- res3d_branch2c
02-26 17:17:22.744 11048 11048 I caffe_jni: I0226 17:17:22.744338 11048 net.cpp:397] bn3d_branch2c -> res3d_branch2c (in-place)
02-26 17:17:22.744 11048 11048 I caffe_jni: I0226 17:17:22.744379 11048 net.cpp:152] Setting up bn3d_branch2c
02-26 17:17:22.744 11048 11048 I caffe_jni: I0226 17:17:22.744400 11048 net.cpp:159] Top shape: 1 512 28 28 (401408)
02-26 17:17:22.744 11048 11048 I caffe_jni: I0226 17:17:22.744419 11048 net.cpp:167] Memory required for data: 166785036
02-26 17:17:22.744 11048 11048 I caffe_jni: I0226 17:17:22.744442 11048 layer_factory.hpp:77] Creating layer scale3d_branch2c
02-26 17:17:22.744 11048 11048 I caffe_jni: I0226 17:17:22.744468 11048 net.cpp:102] Creating Layer scale3d_branch2c
02-26 17:17:22.744 11048 11048 I caffe_jni: I0226 17:17:22.744488 11048 net.cpp:436] scale3d_branch2c <- res3d_branch2c
02-26 17:17:22.744 11048 11048 I caffe_jni: I0226 17:17:22.744511 11048 net.cpp:397] scale3d_branch2c -> res3d_branch2c (in-place)
02-26 17:17:22.744 11048 11048 I caffe_jni: I0226 17:17:22.744539 11048 layer_factory.hpp:77] Creating layer scale3d_branch2c
02-26 17:17:22.744 11048 11048 I caffe_jni: I0226 17:17:22.744583 11048 net.cpp:152] Setting up scale3d_branch2c
02-26 17:17:22.744 11048 11048 I caffe_jni: I0226 17:17:22.744606 11048 net.cpp:159] Top shape: 1 512 28 28 (401408)
02-26 17:17:22.744 11048 11048 I caffe_jni: I0226 17:17:22.744624 11048 net.cpp:167] Memory required for data: 168390668
02-26 17:17:22.744 11048 11048 I caffe_jni: I0226 17:17:22.744644 11048 layer_factory.hpp:77] Creating layer res3d
02-26 17:17:22.744 11048 11048 I caffe_jni: I0226 17:17:22.744665 11048 net.cpp:102] Creating Layer res3d
02-26 17:17:22.744 11048 11048 I caffe_jni: I0226 17:17:22.744683 11048 net.cpp:436] res3d <- res3c_res3c_relu_0_split_1
02-26 17:17:22.744 11048 11048 I caffe_jni: I0226 17:17:22.744699 11048 net.cpp:436] res3d <- res3d_branch2c
02-26 17:17:22.744 11048 11048 I caffe_jni: I0226 17:17:22.744719 11048 net.cpp:410] res3d -> res3d
02-26 17:17:22.744 11048 11048 I caffe_jni: I0226 17:17:22.744742 11048 net.cpp:152] Setting up res3d
02-26 17:17:22.744 11048 11048 I caffe_jni: I0226 17:17:22.744758 11048 net.cpp:159] Top shape: 1 512 28 28 (401408)
02-26 17:17:22.744 11048 11048 I caffe_jni: I0226 17:17:22.744777 11048 net.cpp:167] Memory required for data: 169996300
02-26 17:17:22.744 11048 11048 I caffe_jni: I0226 17:17:22.744793 11048 layer_factory.hpp:77] Creating layer res3d_relu
02-26 17:17:22.744 11048 11048 I caffe_jni: I0226 17:17:22.744812 11048 net.cpp:102] Creating Layer res3d_relu
02-26 17:17:22.744 11048 11048 I caffe_jni: I0226 17:17:22.744827 11048 net.cpp:436] res3d_relu <- res3d
02-26 17:17:22.744 11048 11048 I caffe_jni: I0226 17:17:22.744844 11048 net.cpp:397] res3d_relu -> res3d (in-place)
02-26 17:17:22.744 11048 11048 I caffe_jni: I0226 17:17:22.744864 11048 net.cpp:152] Setting up res3d_relu
02-26 17:17:22.744 11048 11048 I caffe_jni: I0226 17:17:22.744879 11048 net.cpp:159] Top shape: 1 512 28 28 (401408)
02-26 17:17:22.744 11048 11048 I caffe_jni: I0226 17:17:22.744897 11048 net.cpp:167] Memory required for data: 171601932
02-26 17:17:22.744 11048 11048 I caffe_jni: I0226 17:17:22.744915 11048 layer_factory.hpp:77] Creating layer res3d_res3d_relu_0_split
02-26 17:17:22.744 11048 11048 I caffe_jni: I0226 17:17:22.744933 11048 net.cpp:102] Creating Layer res3d_res3d_relu_0_split
02-26 17:17:22.744 11048 11048 I caffe_jni: I0226 17:17:22.744949 11048 net.cpp:436] res3d_res3d_relu_0_split <- res3d
02-26 17:17:22.744 11048 11048 I caffe_jni: I0226 17:17:22.744966 11048 net.cpp:410] res3d_res3d_relu_0_split -> res3d_res3d_relu_0_split_0
02-26 17:17:22.744 11048 11048 I caffe_jni: I0226 17:17:22.744987 11048 net.cpp:410] res3d_res3d_relu_0_split -> res3d_res3d_relu_0_split_1
02-26 17:17:22.745 11048 11048 I caffe_jni: I0226 17:17:22.745008 11048 net.cpp:152] Setting up res3d_res3d_relu_0_split
02-26 17:17:22.745 11048 11048 I caffe_jni: I0226 17:17:22.745024 11048 net.cpp:159] Top shape: 1 512 28 28 (401408)
02-26 17:17:22.745 11048 11048 I caffe_jni: I0226 17:17:22.745043 11048 net.cpp:159] Top shape: 1 512 28 28 (401408)
02-26 17:17:22.745 11048 11048 I caffe_jni: I0226 17:17:22.745059 11048 net.cpp:167] Memory required for data: 174813196
02-26 17:17:22.745 11048 11048 I caffe_jni: I0226 17:17:22.745076 11048 layer_factory.hpp:77] Creating layer res4a_branch1
02-26 17:17:22.745 11048 11048 I caffe_jni: I0226 17:17:22.745098 11048 net.cpp:102] Creating Layer res4a_branch1
02-26 17:17:22.745 11048 11048 I caffe_jni: I0226 17:17:22.745134 11048 net.cpp:436] res4a_branch1 <- res3d_res3d_relu_0_split_0
02-26 17:17:22.745 11048 11048 I caffe_jni: I0226 17:17:22.745157 11048 net.cpp:410] res4a_branch1 -> res4a_branch1
02-26 17:17:22.746 11048 11048 I caffe_jni: I0226 17:17:22.746362 11048 net.cpp:152] Setting up res4a_branch1
02-26 17:17:22.746 11048 11048 I caffe_jni: I0226 17:17:22.746448 11048 net.cpp:159] Top shape: 1 1024 14 14 (200704)
02-26 17:17:22.746 11048 11048 I caffe_jni: I0226 17:17:22.746485 11048 net.cpp:167] Memory required for data: 175616012
02-26 17:17:22.746 11048 11048 I caffe_jni: I0226 17:17:22.746515 11048 layer_factory.hpp:77] Creating layer bn4a_branch1
02-26 17:17:22.746 11048 11048 I caffe_jni: I0226 17:17:22.746551 11048 net.cpp:102] Creating Layer bn4a_branch1
02-26 17:17:22.746 11048 11048 I caffe_jni: I0226 17:17:22.746577 11048 net.cpp:436] bn4a_branch1 <- res4a_branch1
02-26 17:17:22.746 11048 11048 I caffe_jni: I0226 17:17:22.746603 11048 net.cpp:397] bn4a_branch1 -> res4a_branch1 (in-place)
02-26 17:17:22.746 11048 11048 I caffe_jni: I0226 17:17:22.746661 11048 net.cpp:152] Setting up bn4a_branch1
02-26 17:17:22.746 11048 11048 I caffe_jni: I0226 17:17:22.746683 11048 net.cpp:159] Top shape: 1 1024 14 14 (200704)
02-26 17:17:22.746 11048 11048 I caffe_jni: I0226 17:17:22.746702 11048 net.cpp:167] Memory required for data: 176418828
02-26 17:17:22.746 11048 11048 I caffe_jni: I0226 17:17:22.746726 11048 layer_factory.hpp:77] Creating layer scale4a_branch1
02-26 17:17:22.746 11048 11048 I caffe_jni: I0226 17:17:22.746753 11048 net.cpp:102] Creating Layer scale4a_branch1
02-26 17:17:22.746 11048 11048 I caffe_jni: I0226 17:17:22.746773 11048 net.cpp:436] scale4a_branch1 <- res4a_branch1
02-26 17:17:22.746 11048 11048 I caffe_jni: I0226 17:17:22.746795 11048 net.cpp:397] scale4a_branch1 -> res4a_branch1 (in-place)
02-26 17:17:22.746 11048 11048 I caffe_jni: I0226 17:17:22.746831 11048 layer_factory.hpp:77] Creating layer scale4a_branch1
02-26 17:17:22.746 11048 11048 I caffe_jni: I0226 17:17:22.746876 11048 net.cpp:152] Setting up scale4a_branch1
02-26 17:17:22.746 11048 11048 I caffe_jni: I0226 17:17:22.746893 11048 net.cpp:159] Top shape: 1 1024 14 14 (200704)
02-26 17:17:22.746 11048 11048 I caffe_jni: I0226 17:17:22.746917 11048 net.cpp:167] Memory required for data: 177221644
02-26 17:17:22.746 11048 11048 I caffe_jni: I0226 17:17:22.746939 11048 layer_factory.hpp:77] Creating layer res4a_branch2a
02-26 17:17:22.746 11048 11048 I caffe_jni: I0226 17:17:22.746965 11048 net.cpp:102] Creating Layer res4a_branch2a
02-26 17:17:22.746 11048 11048 I caffe_jni: I0226 17:17:22.746981 11048 net.cpp:436] res4a_branch2a <- res3d_res3d_relu_0_split_1
02-26 17:17:22.747 11048 11048 I caffe_jni: I0226 17:17:22.747004 11048 net.cpp:410] res4a_branch2a -> res4a_branch2a
02-26 17:17:22.747 11048 11048 I caffe_jni: I0226 17:17:22.747395 11048 net.cpp:152] Setting up res4a_branch2a
02-26 17:17:22.747 11048 11048 I caffe_jni: I0226 17:17:22.747422 11048 net.cpp:159] Top shape: 1 256 14 14 (50176)
02-26 17:17:22.747 11048 11048 I caffe_jni: I0226 17:17:22.747442 11048 net.cpp:167] Memory required for data: 177422348
02-26 17:17:22.747 11048 11048 I caffe_jni: I0226 17:17:22.747463 11048 layer_factory.hpp:77] Creating layer bn4a_branch2a
02-26 17:17:22.747 11048 11048 I caffe_jni: I0226 17:17:22.747493 11048 net.cpp:102] Creating Layer bn4a_branch2a
02-26 17:17:22.747 11048 11048 I caffe_jni: I0226 17:17:22.747510 11048 net.cpp:436] bn4a_branch2a <- res4a_branch2a
02-26 17:17:22.747 11048 11048 I caffe_jni: I0226 17:17:22.747530 11048 net.cpp:397] bn4a_branch2a -> res4a_branch2a (in-place)
02-26 17:17:22.747 11048 11048 I caffe_jni: I0226 17:17:22.747566 11048 net.cpp:152] Setting up bn4a_branch2a
02-26 17:17:22.747 11048 11048 I caffe_jni: I0226 17:17:22.747582 11048 net.cpp:159] Top shape: 1 256 14 14 (50176)
02-26 17:17:22.747 11048 11048 I caffe_jni: I0226 17:17:22.747601 11048 net.cpp:167] Memory required for data: 177623052
02-26 17:17:22.747 11048 11048 I caffe_jni: I0226 17:17:22.747622 11048 layer_factory.hpp:77] Creating layer scale4a_branch2a
02-26 17:17:22.747 11048 11048 I caffe_jni: I0226 17:17:22.747647 11048 net.cpp:102] Creating Layer scale4a_branch2a
02-26 17:17:22.747 11048 11048 I caffe_jni: I0226 17:17:22.747664 11048 net.cpp:436] scale4a_branch2a <- res4a_branch2a
02-26 17:17:22.747 11048 11048 I caffe_jni: I0226 17:17:22.747684 11048 net.cpp:397] scale4a_branch2a -> res4a_branch2a (in-place)
02-26 17:17:22.747 11048 11048 I caffe_jni: I0226 17:17:22.747709 11048 layer_factory.hpp:77] Creating layer scale4a_branch2a
02-26 17:17:22.747 11048 11048 I caffe_jni: I0226 17:17:22.747745 11048 net.cpp:152] Setting up scale4a_branch2a
02-26 17:17:22.747 11048 11048 I caffe_jni: I0226 17:17:22.747761 11048 net.cpp:159] Top shape: 1 256 14 14 (50176)
02-26 17:17:22.747 11048 11048 I caffe_jni: I0226 17:17:22.747779 11048 net.cpp:167] Memory required for data: 177823756
02-26 17:17:22.747 11048 11048 I caffe_jni: I0226 17:17:22.747799 11048 layer_factory.hpp:77] Creating layer res4a_branch2a_relu
02-26 17:17:22.747 11048 11048 I caffe_jni: I0226 17:17:22.747819 11048 net.cpp:102] Creating Layer res4a_branch2a_relu
02-26 17:17:22.747 11048 11048 I caffe_jni: I0226 17:17:22.747836 11048 net.cpp:436] res4a_branch2a_relu <- res4a_branch2a
02-26 17:17:22.747 11048 11048 I caffe_jni: I0226 17:17:22.747853 11048 net.cpp:397] res4a_branch2a_relu -> res4a_branch2a (in-place)
02-26 17:17:22.747 11048 11048 I caffe_jni: I0226 17:17:22.747874 11048 net.cpp:152] Setting up res4a_branch2a_relu
02-26 17:17:22.747 11048 11048 I caffe_jni: I0226 17:17:22.747889 11048 net.cpp:159] Top shape: 1 256 14 14 (50176)
02-26 17:17:22.747 11048 11048 I caffe_jni: I0226 17:17:22.747906 11048 net.cpp:167] Memory required for data: 178024460
02-26 17:17:22.747 11048 11048 I caffe_jni: I0226 17:17:22.747922 11048 layer_factory.hpp:77] Creating layer res4a_branch2b
02-26 17:17:22.747 11048 11048 I caffe_jni: I0226 17:17:22.747944 11048 net.cpp:102] Creating Layer res4a_branch2b
02-26 17:17:22.747 11048 11048 I caffe_jni: I0226 17:17:22.747959 11048 net.cpp:436] res4a_branch2b <- res4a_branch2a
02-26 17:17:22.747 11048 11048 I caffe_jni: I0226 17:17:22.747979 11048 net.cpp:410] res4a_branch2b -> res4a_branch2b
02-26 17:17:22.749 11048 11048 I caffe_jni: I0226 17:17:22.749331 11048 net.cpp:152] Setting up res4a_branch2b
02-26 17:17:22.749 11048 11048 I caffe_jni: I0226 17:17:22.749433 11048 net.cpp:159] Top shape: 1 256 14 14 (50176)
02-26 17:17:22.749 11048 11048 I caffe_jni: I0226 17:17:22.749472 11048 net.cpp:167] Memory required for data: 178225164
02-26 17:17:22.749 11048 11048 I caffe_jni: I0226 17:17:22.749500 11048 layer_factory.hpp:77] Creating layer bn4a_branch2b
02-26 17:17:22.749 11048 11048 I caffe_jni: I0226 17:17:22.749533 11048 net.cpp:102] Creating Layer bn4a_branch2b
02-26 17:17:22.749 11048 11048 I caffe_jni: I0226 17:17:22.749558 11048 net.cpp:436] bn4a_branch2b <- res4a_branch2b
02-26 17:17:22.749 11048 11048 I caffe_jni: I0226 17:17:22.749584 11048 net.cpp:397] bn4a_branch2b -> res4a_branch2b (in-place)
02-26 17:17:22.749 11048 11048 I caffe_jni: I0226 17:17:22.749640 11048 net.cpp:152] Setting up bn4a_branch2b
02-26 17:17:22.749 11048 11048 I caffe_jni: I0226 17:17:22.749662 11048 net.cpp:159] Top shape: 1 256 14 14 (50176)
02-26 17:17:22.749 11048 11048 I caffe_jni: I0226 17:17:22.749681 11048 net.cpp:167] Memory required for data: 178425868
02-26 17:17:22.749 11048 11048 I caffe_jni: I0226 17:17:22.749704 11048 layer_factory.hpp:77] Creating layer scale4a_branch2b
02-26 17:17:22.749 11048 11048 I caffe_jni: I0226 17:17:22.749732 11048 net.cpp:102] Creating Layer scale4a_branch2b
02-26 17:17:22.749 11048 11048 I caffe_jni: I0226 17:17:22.749758 11048 net.cpp:436] scale4a_branch2b <- res4a_branch2b
02-26 17:17:22.749 11048 11048 I caffe_jni: I0226 17:17:22.749776 11048 net.cpp:397] scale4a_branch2b -> res4a_branch2b (in-place)
02-26 17:17:22.749 11048 11048 I caffe_jni: I0226 17:17:22.749809 11048 layer_factory.hpp:77] Creating layer scale4a_branch2b
02-26 17:17:22.749 11048 11048 I caffe_jni: I0226 17:17:22.749857 11048 net.cpp:152] Setting up scale4a_branch2b
02-26 17:17:22.749 11048 11048 I caffe_jni: I0226 17:17:22.749879 11048 net.cpp:159] Top shape: 1 256 14 14 (50176)
02-26 17:17:22.749 11048 11048 I caffe_jni: I0226 17:17:22.749898 11048 net.cpp:167] Memory required for data: 178626572
02-26 17:17:22.749 11048 11048 I caffe_jni: I0226 17:17:22.749919 11048 layer_factory.hpp:77] Creating layer res4a_branch2b_relu
02-26 17:17:22.749 11048 11048 I caffe_jni: I0226 17:17:22.749944 11048 net.cpp:102] Creating Layer res4a_branch2b_relu
02-26 17:17:22.749 11048 11048 I caffe_jni: I0226 17:17:22.749963 11048 net.cpp:436] res4a_branch2b_relu <- res4a_branch2b
02-26 17:17:22.749 11048 11048 I caffe_jni: I0226 17:17:22.749980 11048 net.cpp:397] res4a_branch2b_relu -> res4a_branch2b (in-place)
02-26 17:17:22.750 11048 11048 I caffe_jni: I0226 17:17:22.750006 11048 net.cpp:152] Setting up res4a_branch2b_relu
02-26 17:17:22.750 11048 11048 I caffe_jni: I0226 17:17:22.750022 11048 net.cpp:159] Top shape: 1 256 14 14 (50176)
02-26 17:17:22.750 11048 11048 I caffe_jni: I0226 17:17:22.750042 11048 net.cpp:167] Memory required for data: 178827276
02-26 17:17:22.750 11048 11048 I caffe_jni: I0226 17:17:22.750066 11048 layer_factory.hpp:77] Creating layer res4a_branch2c
02-26 17:17:22.750 11048 11048 I caffe_jni: I0226 17:17:22.750095 11048 net.cpp:102] Creating Layer res4a_branch2c
02-26 17:17:22.750 11048 11048 I caffe_jni: I0226 17:17:22.750116 11048 net.cpp:436] res4a_branch2c <- res4a_branch2b
02-26 17:17:22.750 11048 11048 I caffe_jni: I0226 17:17:22.750138 11048 net.cpp:410] res4a_branch2c -> res4a_branch2c
02-26 17:17:22.750 11048 11048 I caffe_jni: I0226 17:17:22.750787 11048 net.cpp:152] Setting up res4a_branch2c
02-26 17:17:22.750 11048 11048 I caffe_jni: I0226 17:17:22.750818 11048 net.cpp:159] Top shape: 1 1024 14 14 (200704)
02-26 17:17:22.750 11048 11048 I caffe_jni: I0226 17:17:22.750839 11048 net.cpp:167] Memory required for data: 179630092
02-26 17:17:22.750 11048 11048 I caffe_jni: I0226 17:17:22.750865 11048 layer_factory.hpp:77] Creating layer bn4a_branch2c
02-26 17:17:22.750 11048 11048 I caffe_jni: I0226 17:17:22.750890 11048 net.cpp:102] Creating Layer bn4a_branch2c
02-26 17:17:22.750 11048 11048 I caffe_jni: I0226 17:17:22.750911 11048 net.cpp:436] bn4a_branch2c <- res4a_branch2c
02-26 17:17:22.750 11048 11048 I caffe_jni: I0226 17:17:22.750933 11048 net.cpp:397] bn4a_branch2c -> res4a_branch2c (in-place)
02-26 17:17:22.750 11048 11048 I caffe_jni: I0226 17:17:22.750973 11048 net.cpp:152] Setting up bn4a_branch2c
02-26 17:17:22.750 11048 11048 I caffe_jni: I0226 17:17:22.750990 11048 net.cpp:159] Top shape: 1 1024 14 14 (200704)
02-26 17:17:22.751 11048 11048 I caffe_jni: I0226 17:17:22.751008 11048 net.cpp:167] Memory required for data: 180432908
02-26 17:17:22.751 11048 11048 I caffe_jni: I0226 17:17:22.751031 11048 layer_factory.hpp:77] Creating layer scale4a_branch2c
02-26 17:17:22.751 11048 11048 I caffe_jni: I0226 17:17:22.751054 11048 net.cpp:102] Creating Layer scale4a_branch2c
02-26 17:17:22.751 11048 11048 I caffe_jni: I0226 17:17:22.751070 11048 net.cpp:436] scale4a_branch2c <- res4a_branch2c
02-26 17:17:22.751 11048 11048 I caffe_jni: I0226 17:17:22.751090 11048 net.cpp:397] scale4a_branch2c -> res4a_branch2c (in-place)
02-26 17:17:22.751 11048 11048 I caffe_jni: I0226 17:17:22.751124 11048 layer_factory.hpp:77] Creating layer scale4a_branch2c
02-26 17:17:22.751 11048 11048 I caffe_jni: I0226 17:17:22.751165 11048 net.cpp:152] Setting up scale4a_branch2c
02-26 17:17:22.751 11048 11048 I caffe_jni: I0226 17:17:22.751186 11048 net.cpp:159] Top shape: 1 1024 14 14 (200704)
02-26 17:17:22.751 11048 11048 I caffe_jni: I0226 17:17:22.751205 11048 net.cpp:167] Memory required for data: 181235724
02-26 17:17:22.751 11048 11048 I caffe_jni: I0226 17:17:22.751227 11048 layer_factory.hpp:77] Creating layer res4a
02-26 17:17:22.751 11048 11048 I caffe_jni: I0226 17:17:22.751253 11048 net.cpp:102] Creating Layer res4a
02-26 17:17:22.751 11048 11048 I caffe_jni: I0226 17:17:22.751272 11048 net.cpp:436] res4a <- res4a_branch1
02-26 17:17:22.751 11048 11048 I caffe_jni: I0226 17:17:22.751291 11048 net.cpp:436] res4a <- res4a_branch2c
02-26 17:17:22.751 11048 11048 I caffe_jni: I0226 17:17:22.751313 11048 net.cpp:410] res4a -> res4a
02-26 17:17:22.751 11048 11048 I caffe_jni: I0226 17:17:22.751339 11048 net.cpp:152] Setting up res4a
02-26 17:17:22.751 11048 11048 I caffe_jni: I0226 17:17:22.751359 11048 net.cpp:159] Top shape: 1 1024 14 14 (200704)
02-26 17:17:22.751 11048 11048 I caffe_jni: I0226 17:17:22.751391 11048 net.cpp:167] Memory required for data: 182038540
02-26 17:17:22.751 11048 11048 I caffe_jni: I0226 17:17:22.751408 11048 layer_factory.hpp:77] Creating layer res4a_relu
02-26 17:17:22.751 11048 11048 I caffe_jni: I0226 17:17:22.751428 11048 net.cpp:102] Creating Layer res4a_relu
02-26 17:17:22.751 11048 11048 I caffe_jni: I0226 17:17:22.751446 11048 net.cpp:436] res4a_relu <- res4a
02-26 17:17:22.751 11048 11048 I caffe_jni: I0226 17:17:22.751464 11048 net.cpp:397] res4a_relu -> res4a (in-place)
02-26 17:17:22.751 11048 11048 I caffe_jni: I0226 17:17:22.751484 11048 net.cpp:152] Setting up res4a_relu
02-26 17:17:22.751 11048 11048 I caffe_jni: I0226 17:17:22.751500 11048 net.cpp:159] Top shape: 1 1024 14 14 (200704)
02-26 17:17:22.751 11048 11048 I caffe_jni: I0226 17:17:22.751518 11048 net.cpp:167] Memory required for data: 182841356
02-26 17:17:22.751 11048 11048 I caffe_jni: I0226 17:17:22.751533 11048 layer_factory.hpp:77] Creating layer res4a_res4a_relu_0_split
02-26 17:17:22.751 11048 11048 I caffe_jni: I0226 17:17:22.751554 11048 net.cpp:102] Creating Layer res4a_res4a_relu_0_split
02-26 17:17:22.751 11048 11048 I caffe_jni: I0226 17:17:22.751570 11048 net.cpp:436] res4a_res4a_relu_0_split <- res4a
02-26 17:17:22.751 11048 11048 I caffe_jni: I0226 17:17:22.751588 11048 net.cpp:410] res4a_res4a_relu_0_split -> res4a_res4a_relu_0_split_0
02-26 17:17:22.751 11048 11048 I caffe_jni: I0226 17:17:22.751610 11048 net.cpp:410] res4a_res4a_relu_0_split -> res4a_res4a_relu_0_split_1
02-26 17:17:22.751 11048 11048 I caffe_jni: I0226 17:17:22.751634 11048 net.cpp:152] Setting up res4a_res4a_relu_0_split
02-26 17:17:22.751 11048 11048 I caffe_jni: I0226 17:17:22.751652 11048 net.cpp:159] Top shape: 1 1024 14 14 (200704)
02-26 17:17:22.751 11048 11048 I caffe_jni: I0226 17:17:22.751669 11048 net.cpp:159] Top shape: 1 1024 14 14 (200704)
02-26 17:17:22.751 11048 11048 I caffe_jni: I0226 17:17:22.751688 11048 net.cpp:167] Memory required for data: 184446988
02-26 17:17:22.751 11048 11048 I caffe_jni: I0226 17:17:22.751704 11048 layer_factory.hpp:77] Creating layer res4b_branch2a
02-26 17:17:22.751 11048 11048 I caffe_jni: I0226 17:17:22.751731 11048 net.cpp:102] Creating Layer res4b_branch2a
02-26 17:17:22.751 11048 11048 I caffe_jni: I0226 17:17:22.751749 11048 net.cpp:436] res4b_branch2a <- res4a_res4a_relu_0_split_0
02-26 17:17:22.751 11048 11048 I caffe_jni: I0226 17:17:22.751768 11048 net.cpp:410] res4b_branch2a -> res4b_branch2a
02-26 17:17:22.752 11048 11048 I caffe_jni: I0226 17:17:22.752400 11048 net.cpp:152] Setting up res4b_branch2a
02-26 17:17:22.752 11048 11048 I caffe_jni: I0226 17:17:22.752455 11048 net.cpp:159] Top shape: 1 256 14 14 (50176)
02-26 17:17:22.752 11048 11048 I caffe_jni: I0226 17:17:22.752485 11048 net.cpp:167] Memory required for data: 184647692
02-26 17:17:22.752 11048 11048 I caffe_jni: I0226 17:17:22.752511 11048 layer_factory.hpp:77] Creating layer bn4b_branch2a
02-26 17:17:22.752 11048 11048 I caffe_jni: I0226 17:17:22.752545 11048 net.cpp:102] Creating Layer bn4b_branch2a
02-26 17:17:22.752 11048 11048 I caffe_jni: I0226 17:17:22.752570 11048 net.cpp:436] bn4b_branch2a <- res4b_branch2a
02-26 17:17:22.752 11048 11048 I caffe_jni: I0226 17:17:22.752593 11048 net.cpp:397] bn4b_branch2a -> res4b_branch2a (in-place)
02-26 17:17:22.752 11048 11048 I caffe_jni: I0226 17:17:22.752647 11048 net.cpp:152] Setting up bn4b_branch2a
02-26 17:17:22.752 11048 11048 I caffe_jni: I0226 17:17:22.752670 11048 net.cpp:159] Top shape: 1 256 14 14 (50176)
02-26 17:17:22.752 11048 11048 I caffe_jni: I0226 17:17:22.752687 11048 net.cpp:167] Memory required for data: 184848396
02-26 17:17:22.752 11048 11048 I caffe_jni: I0226 17:17:22.752713 11048 layer_factory.hpp:77] Creating layer scale4b_branch2a
02-26 17:17:22.752 11048 11048 I caffe_jni: I0226 17:17:22.752740 11048 net.cpp:102] Creating Layer scale4b_branch2a
02-26 17:17:22.752 11048 11048 I caffe_jni: I0226 17:17:22.752756 11048 net.cpp:436] scale4b_branch2a <- res4b_branch2a
02-26 17:17:22.752 11048 11048 I caffe_jni: I0226 17:17:22.752777 11048 net.cpp:397] scale4b_branch2a -> res4b_branch2a (in-place)
02-26 17:17:22.752 11048 11048 I caffe_jni: I0226 17:17:22.752810 11048 layer_factory.hpp:77] Creating layer scale4b_branch2a
02-26 17:17:22.752 11048 11048 I caffe_jni: I0226 17:17:22.752853 11048 net.cpp:152] Setting up scale4b_branch2a
02-26 17:17:22.752 11048 11048 I caffe_jni: I0226 17:17:22.752874 11048 net.cpp:159] Top shape: 1 256 14 14 (50176)
02-26 17:17:22.752 11048 11048 I caffe_jni: I0226 17:17:22.752893 11048 net.cpp:167] Memory required for data: 185049100
02-26 17:17:22.752 11048 11048 I caffe_jni: I0226 17:17:22.752914 11048 layer_factory.hpp:77] Creating layer res4b_branch2a_relu
02-26 17:17:22.752 11048 11048 I caffe_jni: I0226 17:17:22.752941 11048 net.cpp:102] Creating Layer res4b_branch2a_relu
02-26 17:17:22.752 11048 11048 I caffe_jni: I0226 17:17:22.752959 11048 net.cpp:436] res4b_branch2a_relu <- res4b_branch2a
02-26 17:17:22.752 11048 11048 I caffe_jni: I0226 17:17:22.752982 11048 net.cpp:397] res4b_branch2a_relu -> res4b_branch2a (in-place)
02-26 17:17:22.753 11048 11048 I caffe_jni: I0226 17:17:22.753005 11048 net.cpp:152] Setting up res4b_branch2a_relu
02-26 17:17:22.753 11048 11048 I caffe_jni: I0226 17:17:22.753026 11048 net.cpp:159] Top shape: 1 256 14 14 (50176)
02-26 17:17:22.753 11048 11048 I caffe_jni: I0226 17:17:22.753044 11048 net.cpp:167] Memory required for data: 185249804
02-26 17:17:22.753 11048 11048 I caffe_jni: I0226 17:17:22.753062 11048 layer_factory.hpp:77] Creating layer res4b_branch2b
02-26 17:17:22.753 11048 11048 I caffe_jni: I0226 17:17:22.753083 11048 net.cpp:102] Creating Layer res4b_branch2b
02-26 17:17:22.753 11048 11048 I caffe_jni: I0226 17:17:22.753104 11048 net.cpp:436] res4b_branch2b <- res4b_branch2a
02-26 17:17:22.753 11048 11048 I caffe_jni: I0226 17:17:22.753161 11048 net.cpp:410] res4b_branch2b -> res4b_branch2b
02-26 17:17:22.754 11048 11048 I caffe_jni: I0226 17:17:22.754498 11048 net.cpp:152] Setting up res4b_branch2b
02-26 17:17:22.754 11048 11048 I caffe_jni: I0226 17:17:22.754588 11048 net.cpp:159] Top shape: 1 256 14 14 (50176)
02-26 17:17:22.754 11048 11048 I caffe_jni: I0226 17:17:22.754622 11048 net.cpp:167] Memory required for data: 185450508
02-26 17:17:22.754 11048 11048 I caffe_jni: I0226 17:17:22.754650 11048 layer_factory.hpp:77] Creating layer bn4b_branch2b
02-26 17:17:22.754 11048 11048 I caffe_jni: I0226 17:17:22.754685 11048 net.cpp:102] Creating Layer bn4b_branch2b
02-26 17:17:22.754 11048 11048 I caffe_jni: I0226 17:17:22.754714 11048 net.cpp:436] bn4b_branch2b <- res4b_branch2b
02-26 17:17:22.754 11048 11048 I caffe_jni: I0226 17:17:22.754741 11048 net.cpp:397] bn4b_branch2b -> res4b_branch2b (in-place)
02-26 17:17:22.754 11048 11048 I caffe_jni: I0226 17:17:22.754806 11048 net.cpp:152] Setting up bn4b_branch2b
02-26 17:17:22.754 11048 11048 I caffe_jni: I0226 17:17:22.754832 11048 net.cpp:159] Top shape: 1 256 14 14 (50176)
02-26 17:17:22.754 11048 11048 I caffe_jni: I0226 17:17:22.754853 11048 net.cpp:167] Memory required for data: 185651212
02-26 17:17:22.754 11048 11048 I caffe_jni: I0226 17:17:22.754876 11048 layer_factory.hpp:77] Creating layer scale4b_branch2b
02-26 17:17:22.754 11048 11048 I caffe_jni: I0226 17:17:22.754900 11048 net.cpp:102] Creating Layer scale4b_branch2b
02-26 17:17:22.754 11048 11048 I caffe_jni: I0226 17:17:22.754917 11048 net.cpp:436] scale4b_branch2b <- res4b_branch2b
02-26 17:17:22.754 11048 11048 I caffe_jni: I0226 17:17:22.754936 11048 net.cpp:397] scale4b_branch2b -> res4b_branch2b (in-place)
02-26 17:17:22.754 11048 11048 I caffe_jni: I0226 17:17:22.754968 11048 layer_factory.hpp:77] Creating layer scale4b_branch2b
02-26 17:17:22.755 11048 11048 I caffe_jni: I0226 17:17:22.755013 11048 net.cpp:152] Setting up scale4b_branch2b
02-26 17:17:22.755 11048 11048 I caffe_jni: I0226 17:17:22.755030 11048 net.cpp:159] Top shape: 1 256 14 14 (50176)
02-26 17:17:22.755 11048 11048 I caffe_jni: I0226 17:17:22.755048 11048 net.cpp:167] Memory required for data: 185851916
02-26 17:17:22.755 11048 11048 I caffe_jni: I0226 17:17:22.755069 11048 layer_factory.hpp:77] Creating layer res4b_branch2b_relu
02-26 17:17:22.755 11048 11048 I caffe_jni: I0226 17:17:22.755090 11048 net.cpp:102] Creating Layer res4b_branch2b_relu
02-26 17:17:22.755 11048 11048 I caffe_jni: I0226 17:17:22.755107 11048 net.cpp:436] res4b_branch2b_relu <- res4b_branch2b
02-26 17:17:22.755 11048 11048 I caffe_jni: I0226 17:17:22.755126 11048 net.cpp:397] res4b_branch2b_relu -> res4b_branch2b (in-place)
02-26 17:17:22.755 11048 11048 I caffe_jni: I0226 17:17:22.755146 11048 net.cpp:152] Setting up res4b_branch2b_relu
02-26 17:17:22.755 11048 11048 I caffe_jni: I0226 17:17:22.755163 11048 net.cpp:159] Top shape: 1 256 14 14 (50176)
02-26 17:17:22.755 11048 11048 I caffe_jni: I0226 17:17:22.755180 11048 net.cpp:167] Memory required for data: 186052620
02-26 17:17:22.755 11048 11048 I caffe_jni: I0226 17:17:22.755197 11048 layer_factory.hpp:77] Creating layer res4b_branch2c
02-26 17:17:22.755 11048 11048 I caffe_jni: I0226 17:17:22.755221 11048 net.cpp:102] Creating Layer res4b_branch2c
02-26 17:17:22.755 11048 11048 I caffe_jni: I0226 17:17:22.755239 11048 net.cpp:436] res4b_branch2c <- res4b_branch2b
02-26 17:17:22.755 11048 11048 I caffe_jni: I0226 17:17:22.755259 11048 net.cpp:410] res4b_branch2c -> res4b_branch2c
02-26 17:17:22.755 11048 11048 I caffe_jni: I0226 17:17:22.755908 11048 net.cpp:152] Setting up res4b_branch2c
02-26 17:17:22.755 11048 11048 I caffe_jni: I0226 17:17:22.755954 11048 net.cpp:159] Top shape: 1 1024 14 14 (200704)
02-26 17:17:22.755 11048 11048 I caffe_jni: I0226 17:17:22.755975 11048 net.cpp:167] Memory required for data: 186855436
02-26 17:17:22.756 11048 11048 I caffe_jni: I0226 17:17:22.755997 11048 layer_factory.hpp:77] Creating layer bn4b_branch2c
02-26 17:17:22.756 11048 11048 I caffe_jni: I0226 17:17:22.756021 11048 net.cpp:102] Creating Layer bn4b_branch2c
02-26 17:17:22.756 11048 11048 I caffe_jni: I0226 17:17:22.756048 11048 net.cpp:436] bn4b_branch2c <- res4b_branch2c
02-26 17:17:22.756 11048 11048 I caffe_jni: I0226 17:17:22.756069 11048 net.cpp:397] bn4b_branch2c -> res4b_branch2c (in-place)
02-26 17:17:22.756 11048 11048 I caffe_jni: I0226 17:17:22.756115 11048 net.cpp:152] Setting up bn4b_branch2c
02-26 17:17:22.756 11048 11048 I caffe_jni: I0226 17:17:22.756137 11048 net.cpp:159] Top shape: 1 1024 14 14 (200704)
02-26 17:17:22.756 11048 11048 I caffe_jni: I0226 17:17:22.756155 11048 net.cpp:167] Memory required for data: 187658252
02-26 17:17:22.756 11048 11048 I caffe_jni: I0226 17:17:22.756180 11048 layer_factory.hpp:77] Creating layer scale4b_branch2c
02-26 17:17:22.756 11048 11048 I caffe_jni: I0226 17:17:22.756204 11048 net.cpp:102] Creating Layer scale4b_branch2c
02-26 17:17:22.756 11048 11048 I caffe_jni: I0226 17:17:22.756223 11048 net.cpp:436] scale4b_branch2c <- res4b_branch2c
02-26 17:17:22.756 11048 11048 I caffe_jni: I0226 17:17:22.756247 11048 net.cpp:397] scale4b_branch2c -> res4b_branch2c (in-place)
02-26 17:17:22.756 11048 11048 I caffe_jni: I0226 17:17:22.756281 11048 layer_factory.hpp:77] Creating layer scale4b_branch2c
02-26 17:17:22.756 11048 11048 I caffe_jni: I0226 17:17:22.756367 11048 net.cpp:152] Setting up scale4b_branch2c
02-26 17:17:22.756 11048 11048 I caffe_jni: I0226 17:17:22.756392 11048 net.cpp:159] Top shape: 1 1024 14 14 (200704)
02-26 17:17:22.756 11048 11048 I caffe_jni: I0226 17:17:22.756412 11048 net.cpp:167] Memory required for data: 188461068
02-26 17:17:22.756 11048 11048 I caffe_jni: I0226 17:17:22.756435 11048 layer_factory.hpp:77] Creating layer res4b
02-26 17:17:22.756 11048 11048 I caffe_jni: I0226 17:17:22.756461 11048 net.cpp:102] Creating Layer res4b
02-26 17:17:22.756 11048 11048 I caffe_jni: I0226 17:17:22.756479 11048 net.cpp:436] res4b <- res4a_res4a_relu_0_split_1
02-26 17:17:22.756 11048 11048 I caffe_jni: I0226 17:17:22.756503 11048 net.cpp:436] res4b <- res4b_branch2c
02-26 17:17:22.756 11048 11048 I caffe_jni: I0226 17:17:22.756525 11048 net.cpp:410] res4b -> res4b
02-26 17:17:22.756 11048 11048 I caffe_jni: I0226 17:17:22.756554 11048 net.cpp:152] Setting up res4b
02-26 17:17:22.756 11048 11048 I caffe_jni: I0226 17:17:22.756575 11048 net.cpp:159] Top shape: 1 1024 14 14 (200704)
02-26 17:17:22.756 11048 11048 I caffe_jni: I0226 17:17:22.756595 11048 net.cpp:167] Memory required for data: 189263884
02-26 17:17:22.756 11048 11048 I caffe_jni: I0226 17:17:22.756611 11048 layer_factory.hpp:77] Creating layer res4b_relu
02-26 17:17:22.756 11048 11048 I caffe_jni: I0226 17:17:22.756631 11048 net.cpp:102] Creating Layer res4b_relu
02-26 17:17:22.756 11048 11048 I caffe_jni: I0226 17:17:22.756656 11048 net.cpp:436] res4b_relu <- res4b
02-26 17:17:22.756 11048 11048 I caffe_jni: I0226 17:17:22.756675 11048 net.cpp:397] res4b_relu -> res4b (in-place)
02-26 17:17:22.756 11048 11048 I caffe_jni: I0226 17:17:22.756695 11048 net.cpp:152] Setting up res4b_relu
02-26 17:17:22.756 11048 11048 I caffe_jni: I0226 17:17:22.756716 11048 net.cpp:159] Top shape: 1 1024 14 14 (200704)
02-26 17:17:22.756 11048 11048 I caffe_jni: I0226 17:17:22.756732 11048 net.cpp:167] Memory required for data: 190066700
02-26 17:17:22.756 11048 11048 I caffe_jni: I0226 17:17:22.756749 11048 layer_factory.hpp:77] Creating layer res4b_res4b_relu_0_split
02-26 17:17:22.756 11048 11048 I caffe_jni: I0226 17:17:22.756770 11048 net.cpp:102] Creating Layer res4b_res4b_relu_0_split
02-26 17:17:22.756 11048 11048 I caffe_jni: I0226 17:17:22.756790 11048 net.cpp:436] res4b_res4b_relu_0_split <- res4b
02-26 17:17:22.756 11048 11048 I caffe_jni: I0226 17:17:22.756809 11048 net.cpp:410] res4b_res4b_relu_0_split -> res4b_res4b_relu_0_split_0
02-26 17:17:22.756 11048 11048 I caffe_jni: I0226 17:17:22.756832 11048 net.cpp:410] res4b_res4b_relu_0_split -> res4b_res4b_relu_0_split_1
02-26 17:17:22.756 11048 11048 I caffe_jni: I0226 17:17:22.756863 11048 net.cpp:152] Setting up res4b_res4b_relu_0_split
02-26 17:17:22.756 11048 11048 I caffe_jni: I0226 17:17:22.756887 11048 net.cpp:159] Top shape: 1 1024 14 14 (200704)
02-26 17:17:22.756 11048 11048 I caffe_jni: I0226 17:17:22.756906 11048 net.cpp:159] Top shape: 1 1024 14 14 (200704)
02-26 17:17:22.756 11048 11048 I caffe_jni: I0226 17:17:22.756929 11048 net.cpp:167] Memory required for data: 191672332
02-26 17:17:22.756 11048 11048 I caffe_jni: I0226 17:17:22.756945 11048 layer_factory.hpp:77] Creating layer res4c_branch2a
02-26 17:17:22.756 11048 11048 I caffe_jni: I0226 17:17:22.756970 11048 net.cpp:102] Creating Layer res4c_branch2a
02-26 17:17:22.756 11048 11048 I caffe_jni: I0226 17:17:22.756992 11048 net.cpp:436] res4c_branch2a <- res4b_res4b_relu_0_split_0
02-26 17:17:22.757 11048 11048 I caffe_jni: I0226 17:17:22.757012 11048 net.cpp:410] res4c_branch2a -> res4c_branch2a
02-26 17:17:22.757 11048 11048 I caffe_jni: I0226 17:17:22.757665 11048 net.cpp:152] Setting up res4c_branch2a
02-26 17:17:22.757 11048 11048 I caffe_jni: I0226 17:17:22.757720 11048 net.cpp:159] Top shape: 1 256 14 14 (50176)
02-26 17:17:22.757 11048 11048 I caffe_jni: I0226 17:17:22.757745 11048 net.cpp:167] Memory required for data: 191873036
02-26 17:17:22.757 11048 11048 I caffe_jni: I0226 17:17:22.757776 11048 layer_factory.hpp:77] Creating layer bn4c_branch2a
02-26 17:17:22.757 11048 11048 I caffe_jni: I0226 17:17:22.757803 11048 net.cpp:102] Creating Layer bn4c_branch2a
02-26 17:17:22.757 11048 11048 I caffe_jni: I0226 17:17:22.757823 11048 net.cpp:436] bn4c_branch2a <- res4c_branch2a
02-26 17:17:22.757 11048 11048 I caffe_jni: I0226 17:17:22.757848 11048 net.cpp:397] bn4c_branch2a -> res4c_branch2a (in-place)
02-26 17:17:22.757 11048 11048 I caffe_jni: I0226 17:17:22.757889 11048 net.cpp:152] Setting up bn4c_branch2a
02-26 17:17:22.757 11048 11048 I caffe_jni: I0226 17:17:22.757910 11048 net.cpp:159] Top shape: 1 256 14 14 (50176)
02-26 17:17:22.757 11048 11048 I caffe_jni: I0226 17:17:22.757930 11048 net.cpp:167] Memory required for data: 192073740
02-26 17:17:22.757 11048 11048 I caffe_jni: I0226 17:17:22.757954 11048 layer_factory.hpp:77] Creating layer scale4c_branch2a
02-26 17:17:22.757 11048 11048 I caffe_jni: I0226 17:17:22.757982 11048 net.cpp:102] Creating Layer scale4c_branch2a
02-26 17:17:22.758 11048 11048 I caffe_jni: I0226 17:17:22.758007 11048 net.cpp:436] scale4c_branch2a <- res4c_branch2a
02-26 17:17:22.758 11048 11048 I caffe_jni: I0226 17:17:22.758028 11048 net.cpp:397] scale4c_branch2a -> res4c_branch2a (in-place)
02-26 17:17:22.758 11048 11048 I caffe_jni: I0226 17:17:22.758066 11048 layer_factory.hpp:77] Creating layer scale4c_branch2a
02-26 17:17:22.758 11048 11048 I caffe_jni: I0226 17:17:22.758112 11048 net.cpp:152] Setting up scale4c_branch2a
02-26 17:17:22.758 11048 11048 I caffe_jni: I0226 17:17:22.758133 11048 net.cpp:159] Top shape: 1 256 14 14 (50176)
02-26 17:17:22.758 11048 11048 I caffe_jni: I0226 17:17:22.758154 11048 net.cpp:167] Memory required for data: 192274444
02-26 17:17:22.758 11048 11048 I caffe_jni: I0226 17:17:22.758177 11048 layer_factory.hpp:77] Creating layer res4c_branch2a_relu
02-26 17:17:22.758 11048 11048 I caffe_jni: I0226 17:17:22.758203 11048 net.cpp:102] Creating Layer res4c_branch2a_relu
02-26 17:17:22.758 11048 11048 I caffe_jni: I0226 17:17:22.758229 11048 net.cpp:436] res4c_branch2a_relu <- res4c_branch2a
02-26 17:17:22.758 11048 11048 I caffe_jni: I0226 17:17:22.758246 11048 net.cpp:397] res4c_branch2a_relu -> res4c_branch2a (in-place)
02-26 17:17:22.758 11048 11048 I caffe_jni: I0226 17:17:22.758267 11048 net.cpp:152] Setting up res4c_branch2a_relu
02-26 17:17:22.758 11048 11048 I caffe_jni: I0226 17:17:22.758285 11048 net.cpp:159] Top shape: 1 256 14 14 (50176)
02-26 17:17:22.758 11048 11048 I caffe_jni: I0226 17:17:22.758306 11048 net.cpp:167] Memory required for data: 192475148
02-26 17:17:22.758 11048 11048 I caffe_jni: I0226 17:17:22.758322 11048 layer_factory.hpp:77] Creating layer res4c_branch2b
02-26 17:17:22.758 11048 11048 I caffe_jni: I0226 17:17:22.758347 11048 net.cpp:102] Creating Layer res4c_branch2b
02-26 17:17:22.758 11048 11048 I caffe_jni: I0226 17:17:22.758368 11048 net.cpp:436] res4c_branch2b <- res4c_branch2a
02-26 17:17:22.758 11048 11048 I caffe_jni: I0226 17:17:22.758389 11048 net.cpp:410] res4c_branch2b -> res4c_branch2b
02-26 17:17:22.759 11048 11048 I caffe_jni: I0226 17:17:22.759807 11048 net.cpp:152] Setting up res4c_branch2b
02-26 17:17:22.759 11048 11048 I caffe_jni: I0226 17:17:22.759913 11048 net.cpp:159] Top shape: 1 256 14 14 (50176)
02-26 17:17:22.759 11048 11048 I caffe_jni: I0226 17:17:22.759948 11048 net.cpp:167] Memory required for data: 192675852
02-26 17:17:22.759 11048 11048 I caffe_jni: I0226 17:17:22.759975 11048 layer_factory.hpp:77] Creating layer bn4c_branch2b
02-26 17:17:22.760 11048 11048 I caffe_jni: I0226 17:17:22.760010 11048 net.cpp:102] Creating Layer bn4c_branch2b
02-26 17:17:22.760 11048 11048 I caffe_jni: I0226 17:17:22.760038 11048 net.cpp:436] bn4c_branch2b <- res4c_branch2b
02-26 17:17:22.760 11048 11048 I caffe_jni: I0226 17:17:22.760071 11048 net.cpp:397] bn4c_branch2b -> res4c_branch2b (in-place)
02-26 17:17:22.760 11048 11048 I caffe_jni: I0226 17:17:22.760125 11048 net.cpp:152] Setting up bn4c_branch2b
02-26 17:17:22.760 11048 11048 I caffe_jni: I0226 17:17:22.760149 11048 net.cpp:159] Top shape: 1 256 14 14 (50176)
02-26 17:17:22.760 11048 11048 I caffe_jni: I0226 17:17:22.760167 11048 net.cpp:167] Memory required for data: 192876556
02-26 17:17:22.760 11048 11048 I caffe_jni: I0226 17:17:22.760191 11048 layer_factory.hpp:77] Creating layer scale4c_branch2b
02-26 17:17:22.760 11048 11048 I caffe_jni: I0226 17:17:22.760219 11048 net.cpp:102] Creating Layer scale4c_branch2b
02-26 17:17:22.760 11048 11048 I caffe_jni: I0226 17:17:22.760238 11048 net.cpp:436] scale4c_branch2b <- res4c_branch2b
02-26 17:17:22.760 11048 11048 I caffe_jni: I0226 17:17:22.760267 11048 net.cpp:397] scale4c_branch2b -> res4c_branch2b (in-place)
02-26 17:17:22.760 11048 11048 I caffe_jni: I0226 17:17:22.760299 11048 layer_factory.hpp:77] Creating layer scale4c_branch2b
02-26 17:17:22.760 11048 11048 I caffe_jni: I0226 17:17:22.760352 11048 net.cpp:152] Setting up scale4c_branch2b
02-26 17:17:22.760 11048 11048 I caffe_jni: I0226 17:17:22.760375 11048 net.cpp:159] Top shape: 1 256 14 14 (50176)
02-26 17:17:22.760 11048 11048 I caffe_jni: I0226 17:17:22.760395 11048 net.cpp:167] Memory required for data: 193077260
02-26 17:17:22.760 11048 11048 I caffe_jni: I0226 17:17:22.760416 11048 layer_factory.hpp:77] Creating layer res4c_branch2b_relu
02-26 17:17:22.760 11048 11048 I caffe_jni: I0226 17:17:22.760442 11048 net.cpp:102] Creating Layer res4c_branch2b_relu
02-26 17:17:22.760 11048 11048 I caffe_jni: I0226 17:17:22.760458 11048 net.cpp:436] res4c_branch2b_relu <- res4c_branch2b
02-26 17:17:22.760 11048 11048 I caffe_jni: I0226 17:17:22.760483 11048 net.cpp:397] res4c_branch2b_relu -> res4c_branch2b (in-place)
02-26 17:17:22.760 11048 11048 I caffe_jni: I0226 17:17:22.760505 11048 net.cpp:152] Setting up res4c_branch2b_relu
02-26 17:17:22.760 11048 11048 I caffe_jni: I0226 17:17:22.760529 11048 net.cpp:159] Top shape: 1 256 14 14 (50176)
02-26 17:17:22.760 11048 11048 I caffe_jni: I0226 17:17:22.760550 11048 net.cpp:167] Memory required for data: 193277964
02-26 17:17:22.760 11048 11048 I caffe_jni: I0226 17:17:22.760565 11048 layer_factory.hpp:77] Creating layer res4c_branch2c
02-26 17:17:22.760 11048 11048 I caffe_jni: I0226 17:17:22.760591 11048 net.cpp:102] Creating Layer res4c_branch2c
02-26 17:17:22.760 11048 11048 I caffe_jni: I0226 17:17:22.760607 11048 net.cpp:436] res4c_branch2c <- res4c_branch2b
02-26 17:17:22.760 11048 11048 I caffe_jni: I0226 17:17:22.760627 11048 net.cpp:410] res4c_branch2c -> res4c_branch2c
02-26 17:17:22.761 11048 11048 I caffe_jni: I0226 17:17:22.761287 11048 net.cpp:152] Setting up res4c_branch2c
02-26 17:17:22.761 11048 11048 I caffe_jni: I0226 17:17:22.761320 11048 net.cpp:159] Top shape: 1 1024 14 14 (200704)
02-26 17:17:22.761 11048 11048 I caffe_jni: I0226 17:17:22.761340 11048 net.cpp:167] Memory required for data: 194080780
02-26 17:17:22.761 11048 11048 I caffe_jni: I0226 17:17:22.761359 11048 layer_factory.hpp:77] Creating layer bn4c_branch2c
02-26 17:17:22.761 11048 11048 I caffe_jni: I0226 17:17:22.761389 11048 net.cpp:102] Creating Layer bn4c_branch2c
02-26 17:17:22.761 11048 11048 I caffe_jni: I0226 17:17:22.761412 11048 net.cpp:436] bn4c_branch2c <- res4c_branch2c
02-26 17:17:22.761 11048 11048 I caffe_jni: I0226 17:17:22.761432 11048 net.cpp:397] bn4c_branch2c -> res4c_branch2c (in-place)
02-26 17:17:22.761 11048 11048 I caffe_jni: I0226 17:17:22.761472 11048 net.cpp:152] Setting up bn4c_branch2c
02-26 17:17:22.761 11048 11048 I caffe_jni: I0226 17:17:22.761493 11048 net.cpp:159] Top shape: 1 1024 14 14 (200704)
02-26 17:17:22.761 11048 11048 I caffe_jni: I0226 17:17:22.761512 11048 net.cpp:167] Memory required for data: 194883596
02-26 17:17:22.761 11048 11048 I caffe_jni: I0226 17:17:22.761535 11048 layer_factory.hpp:77] Creating layer scale4c_branch2c
02-26 17:17:22.761 11048 11048 I caffe_jni: I0226 17:17:22.761560 11048 net.cpp:102] Creating Layer scale4c_branch2c
02-26 17:17:22.761 11048 11048 I caffe_jni: I0226 17:17:22.761579 11048 net.cpp:436] scale4c_branch2c <- res4c_branch2c
02-26 17:17:22.761 11048 11048 I caffe_jni: I0226 17:17:22.761597 11048 net.cpp:397] scale4c_branch2c -> res4c_branch2c (in-place)
02-26 17:17:22.761 11048 11048 I caffe_jni: I0226 17:17:22.761634 11048 layer_factory.hpp:77] Creating layer scale4c_branch2c
02-26 17:17:22.761 11048 11048 I caffe_jni: I0226 17:17:22.761672 11048 net.cpp:152] Setting up scale4c_branch2c
02-26 17:17:22.761 11048 11048 I caffe_jni: I0226 17:17:22.761690 11048 net.cpp:159] Top shape: 1 1024 14 14 (200704)
02-26 17:17:22.761 11048 11048 I caffe_jni: I0226 17:17:22.761708 11048 net.cpp:167] Memory required for data: 195686412
02-26 17:17:22.761 11048 11048 I caffe_jni: I0226 17:17:22.761729 11048 layer_factory.hpp:77] Creating layer res4c
02-26 17:17:22.761 11048 11048 I caffe_jni: I0226 17:17:22.761750 11048 net.cpp:102] Creating Layer res4c
02-26 17:17:22.761 11048 11048 I caffe_jni: I0226 17:17:22.761768 11048 net.cpp:436] res4c <- res4b_res4b_relu_0_split_1
02-26 17:17:22.761 11048 11048 I caffe_jni: I0226 17:17:22.761785 11048 net.cpp:436] res4c <- res4c_branch2c
02-26 17:17:22.761 11048 11048 I caffe_jni: I0226 17:17:22.761802 11048 net.cpp:410] res4c -> res4c
02-26 17:17:22.761 11048 11048 I caffe_jni: I0226 17:17:22.761828 11048 net.cpp:152] Setting up res4c
02-26 17:17:22.761 11048 11048 I caffe_jni: I0226 17:17:22.761844 11048 net.cpp:159] Top shape: 1 1024 14 14 (200704)
02-26 17:17:22.761 11048 11048 I caffe_jni: I0226 17:17:22.761862 11048 net.cpp:167] Memory required for data: 196489228
02-26 17:17:22.761 11048 11048 I caffe_jni: I0226 17:17:22.761878 11048 layer_factory.hpp:77] Creating layer res4c_relu
02-26 17:17:22.761 11048 11048 I caffe_jni: I0226 17:17:22.761898 11048 net.cpp:102] Creating Layer res4c_relu
02-26 17:17:22.761 11048 11048 I caffe_jni: I0226 17:17:22.761914 11048 net.cpp:436] res4c_relu <- res4c
02-26 17:17:22.761 11048 11048 I caffe_jni: I0226 17:17:22.761931 11048 net.cpp:397] res4c_relu -> res4c (in-place)
02-26 17:17:22.761 11048 11048 I caffe_jni: I0226 17:17:22.761952 11048 net.cpp:152] Setting up res4c_relu
02-26 17:17:22.761 11048 11048 I caffe_jni: I0226 17:17:22.761967 11048 net.cpp:159] Top shape: 1 1024 14 14 (200704)
02-26 17:17:22.761 11048 11048 I caffe_jni: I0226 17:17:22.761984 11048 net.cpp:167] Memory required for data: 197292044
02-26 17:17:22.762 11048 11048 I caffe_jni: I0226 17:17:22.762001 11048 layer_factory.hpp:77] Creating layer res4c_res4c_relu_0_split
02-26 17:17:22.762 11048 11048 I caffe_jni: I0226 17:17:22.762019 11048 net.cpp:102] Creating Layer res4c_res4c_relu_0_split
02-26 17:17:22.762 11048 11048 I caffe_jni: I0226 17:17:22.762034 11048 net.cpp:436] res4c_res4c_relu_0_split <- res4c
02-26 17:17:22.762 11048 11048 I caffe_jni: I0226 17:17:22.762053 11048 net.cpp:410] res4c_res4c_relu_0_split -> res4c_res4c_relu_0_split_0
02-26 17:17:22.762 11048 11048 I caffe_jni: I0226 17:17:22.762071 11048 net.cpp:410] res4c_res4c_relu_0_split -> res4c_res4c_relu_0_split_1
02-26 17:17:22.762 11048 11048 I caffe_jni: I0226 17:17:22.762094 11048 net.cpp:152] Setting up res4c_res4c_relu_0_split
02-26 17:17:22.762 11048 11048 I caffe_jni: I0226 17:17:22.762110 11048 net.cpp:159] Top shape: 1 1024 14 14 (200704)
02-26 17:17:22.762 11048 11048 I caffe_jni: I0226 17:17:22.762127 11048 net.cpp:159] Top shape: 1 1024 14 14 (200704)
02-26 17:17:22.762 11048 11048 I caffe_jni: I0226 17:17:22.762145 11048 net.cpp:167] Memory required for data: 198897676
02-26 17:17:22.762 11048 11048 I caffe_jni: I0226 17:17:22.762159 11048 layer_factory.hpp:77] Creating layer res4d_branch2a
02-26 17:17:22.762 11048 11048 I caffe_jni: I0226 17:17:22.762182 11048 net.cpp:102] Creating Layer res4d_branch2a
02-26 17:17:22.762 11048 11048 I caffe_jni: I0226 17:17:22.762198 11048 net.cpp:436] res4d_branch2a <- res4c_res4c_relu_0_split_0
02-26 17:17:22.762 11048 11048 I caffe_jni: I0226 17:17:22.762223 11048 net.cpp:410] res4d_branch2a -> res4d_branch2a
02-26 17:17:22.762 11048 11048 I caffe_jni: I0226 17:17:22.762845 11048 net.cpp:152] Setting up res4d_branch2a
02-26 17:17:22.762 11048 11048 I caffe_jni: I0226 17:17:22.762892 11048 net.cpp:159] Top shape: 1 256 14 14 (50176)
02-26 17:17:22.762 11048 11048 I caffe_jni: I0226 17:17:22.762918 11048 net.cpp:167] Memory required for data: 199098380
02-26 17:17:22.762 11048 11048 I caffe_jni: I0226 17:17:22.762943 11048 layer_factory.hpp:77] Creating layer bn4d_branch2a
02-26 17:17:22.762 11048 11048 I caffe_jni: I0226 17:17:22.762970 11048 net.cpp:102] Creating Layer bn4d_branch2a
02-26 17:17:22.762 11048 11048 I caffe_jni: I0226 17:17:22.762989 11048 net.cpp:436] bn4d_branch2a <- res4d_branch2a
02-26 17:17:22.763 11048 11048 I caffe_jni: I0226 17:17:22.763013 11048 net.cpp:397] bn4d_branch2a -> res4d_branch2a (in-place)
02-26 17:17:22.763 11048 11048 I caffe_jni: I0226 17:17:22.763051 11048 net.cpp:152] Setting up bn4d_branch2a
02-26 17:17:22.763 11048 11048 I caffe_jni: I0226 17:17:22.763068 11048 net.cpp:159] Top shape: 1 256 14 14 (50176)
02-26 17:17:22.763 11048 11048 I caffe_jni: I0226 17:17:22.763085 11048 net.cpp:167] Memory required for data: 199299084
02-26 17:17:22.763 11048 11048 I caffe_jni: I0226 17:17:22.763109 11048 layer_factory.hpp:77] Creating layer scale4d_branch2a
02-26 17:17:22.763 11048 11048 I caffe_jni: I0226 17:17:22.763133 11048 net.cpp:102] Creating Layer scale4d_branch2a
02-26 17:17:22.763 11048 11048 I caffe_jni: I0226 17:17:22.763150 11048 net.cpp:436] scale4d_branch2a <- res4d_branch2a
02-26 17:17:22.763 11048 11048 I caffe_jni: I0226 17:17:22.763170 11048 net.cpp:397] scale4d_branch2a -> res4d_branch2a (in-place)
02-26 17:17:22.763 11048 11048 I caffe_jni: I0226 17:17:22.763200 11048 layer_factory.hpp:77] Creating layer scale4d_branch2a
02-26 17:17:22.763 11048 11048 I caffe_jni: I0226 17:17:22.763245 11048 net.cpp:152] Setting up scale4d_branch2a
02-26 17:17:22.763 11048 11048 I caffe_jni: I0226 17:17:22.763262 11048 net.cpp:159] Top shape: 1 256 14 14 (50176)
02-26 17:17:22.763 11048 11048 I caffe_jni: I0226 17:17:22.763281 11048 net.cpp:167] Memory required for data: 199499788
02-26 17:17:22.763 11048 11048 I caffe_jni: I0226 17:17:22.763303 11048 layer_factory.hpp:77] Creating layer res4d_branch2a_relu
02-26 17:17:22.763 11048 11048 I caffe_jni: I0226 17:17:22.763327 11048 net.cpp:102] Creating Layer res4d_branch2a_relu
02-26 17:17:22.763 11048 11048 I caffe_jni: I0226 17:17:22.763345 11048 net.cpp:436] res4d_branch2a_relu <- res4d_branch2a
02-26 17:17:22.763 11048 11048 I caffe_jni: I0226 17:17:22.763362 11048 net.cpp:397] res4d_branch2a_relu -> res4d_branch2a (in-place)
02-26 17:17:22.763 11048 11048 I caffe_jni: I0226 17:17:22.763382 11048 net.cpp:152] Setting up res4d_branch2a_relu
02-26 17:17:22.763 11048 11048 I caffe_jni: I0226 17:17:22.763398 11048 net.cpp:159] Top shape: 1 256 14 14 (50176)
02-26 17:17:22.763 11048 11048 I caffe_jni: I0226 17:17:22.763417 11048 net.cpp:167] Memory required for data: 199700492
02-26 17:17:22.763 11048 11048 I caffe_jni: I0226 17:17:22.763432 11048 layer_factory.hpp:77] Creating layer res4d_branch2b
02-26 17:17:22.763 11048 11048 I caffe_jni: I0226 17:17:22.763456 11048 net.cpp:102] Creating Layer res4d_branch2b
02-26 17:17:22.763 11048 11048 I caffe_jni: I0226 17:17:22.763473 11048 net.cpp:436] res4d_branch2b <- res4d_branch2a
02-26 17:17:22.763 11048 11048 I caffe_jni: I0226 17:17:22.763492 11048 net.cpp:410] res4d_branch2b -> res4d_branch2b
02-26 17:17:22.764 11048 11048 I caffe_jni: I0226 17:17:22.764837 11048 net.cpp:152] Setting up res4d_branch2b
02-26 17:17:22.764 11048 11048 I caffe_jni: I0226 17:17:22.764930 11048 net.cpp:159] Top shape: 1 256 14 14 (50176)
02-26 17:17:22.764 11048 11048 I caffe_jni: I0226 17:17:22.764966 11048 net.cpp:167] Memory required for data: 199901196
02-26 17:17:22.765 11048 11048 I caffe_jni: I0226 17:17:22.764998 11048 layer_factory.hpp:77] Creating layer bn4d_branch2b
02-26 17:17:22.765 11048 11048 I caffe_jni: I0226 17:17:22.765035 11048 net.cpp:102] Creating Layer bn4d_branch2b
02-26 17:17:22.765 11048 11048 I caffe_jni: I0226 17:17:22.765060 11048 net.cpp:436] bn4d_branch2b <- res4d_branch2b
02-26 17:17:22.765 11048 11048 I caffe_jni: I0226 17:17:22.765087 11048 net.cpp:397] bn4d_branch2b -> res4d_branch2b (in-place)
02-26 17:17:22.765 11048 11048 I caffe_jni: I0226 17:17:22.765168 11048 net.cpp:152] Setting up bn4d_branch2b
02-26 17:17:22.765 11048 11048 I caffe_jni: I0226 17:17:22.765189 11048 net.cpp:159] Top shape: 1 256 14 14 (50176)
02-26 17:17:22.765 11048 11048 I caffe_jni: I0226 17:17:22.765208 11048 net.cpp:167] Memory required for data: 200101900
02-26 17:17:22.765 11048 11048 I caffe_jni: I0226 17:17:22.765231 11048 layer_factory.hpp:77] Creating layer scale4d_branch2b
02-26 17:17:22.765 11048 11048 I caffe_jni: I0226 17:17:22.765256 11048 net.cpp:102] Creating Layer scale4d_branch2b
02-26 17:17:22.765 11048 11048 I caffe_jni: I0226 17:17:22.765274 11048 net.cpp:436] scale4d_branch2b <- res4d_branch2b
02-26 17:17:22.765 11048 11048 I caffe_jni: I0226 17:17:22.765292 11048 net.cpp:397] scale4d_branch2b -> res4d_branch2b (in-place)
02-26 17:17:22.765 11048 11048 I caffe_jni: I0226 17:17:22.765323 11048 layer_factory.hpp:77] Creating layer scale4d_branch2b
02-26 17:17:22.765 11048 11048 I caffe_jni: I0226 17:17:22.765370 11048 net.cpp:152] Setting up scale4d_branch2b
02-26 17:17:22.765 11048 11048 I caffe_jni: I0226 17:17:22.765388 11048 net.cpp:159] Top shape: 1 256 14 14 (50176)
02-26 17:17:22.765 11048 11048 I caffe_jni: I0226 17:17:22.765408 11048 net.cpp:167] Memory required for data: 200302604
02-26 17:17:22.765 11048 11048 I caffe_jni: I0226 17:17:22.765429 11048 layer_factory.hpp:77] Creating layer res4d_branch2b_relu
02-26 17:17:22.765 11048 11048 I caffe_jni: I0226 17:17:22.765450 11048 net.cpp:102] Creating Layer res4d_branch2b_relu
02-26 17:17:22.765 11048 11048 I caffe_jni: I0226 17:17:22.765465 11048 net.cpp:436] res4d_branch2b_relu <- res4d_branch2b
02-26 17:17:22.765 11048 11048 I caffe_jni: I0226 17:17:22.765482 11048 net.cpp:397] res4d_branch2b_relu -> res4d_branch2b (in-place)
02-26 17:17:22.765 11048 11048 I caffe_jni: I0226 17:17:22.765503 11048 net.cpp:152] Setting up res4d_branch2b_relu
02-26 17:17:22.765 11048 11048 I caffe_jni: I0226 17:17:22.765519 11048 net.cpp:159] Top shape: 1 256 14 14 (50176)
02-26 17:17:22.765 11048 11048 I caffe_jni: I0226 17:17:22.765537 11048 net.cpp:167] Memory required for data: 200503308
02-26 17:17:22.765 11048 11048 I caffe_jni: I0226 17:17:22.765552 11048 layer_factory.hpp:77] Creating layer res4d_branch2c
02-26 17:17:22.765 11048 11048 I caffe_jni: I0226 17:17:22.765576 11048 net.cpp:102] Creating Layer res4d_branch2c
02-26 17:17:22.765 11048 11048 I caffe_jni: I0226 17:17:22.765592 11048 net.cpp:436] res4d_branch2c <- res4d_branch2b
02-26 17:17:22.765 11048 11048 I caffe_jni: I0226 17:17:22.765612 11048 net.cpp:410] res4d_branch2c -> res4d_branch2c
02-26 17:17:22.766 11048 11048 I caffe_jni: I0226 17:17:22.766245 11048 net.cpp:152] Setting up res4d_branch2c
02-26 17:17:22.766 11048 11048 I caffe_jni: I0226 17:17:22.766270 11048 net.cpp:159] Top shape: 1 1024 14 14 (200704)
02-26 17:17:22.766 11048 11048 I caffe_jni: I0226 17:17:22.766290 11048 net.cpp:167] Memory required for data: 201306124
02-26 17:17:22.766 11048 11048 I caffe_jni: I0226 17:17:22.766310 11048 layer_factory.hpp:77] Creating layer bn4d_branch2c
02-26 17:17:22.766 11048 11048 I caffe_jni: I0226 17:17:22.766333 11048 net.cpp:102] Creating Layer bn4d_branch2c
02-26 17:17:22.766 11048 11048 I caffe_jni: I0226 17:17:22.766357 11048 net.cpp:436] bn4d_branch2c <- res4d_branch2c
02-26 17:17:22.766 11048 11048 I caffe_jni: I0226 17:17:22.766378 11048 net.cpp:397] bn4d_branch2c -> res4d_branch2c (in-place)
02-26 17:17:22.766 11048 11048 I caffe_jni: I0226 17:17:22.766417 11048 net.cpp:152] Setting up bn4d_branch2c
02-26 17:17:22.766 11048 11048 I caffe_jni: I0226 17:17:22.766434 11048 net.cpp:159] Top shape: 1 1024 14 14 (200704)
02-26 17:17:22.766 11048 11048 I caffe_jni: I0226 17:17:22.766453 11048 net.cpp:167] Memory required for data: 202108940
02-26 17:17:22.766 11048 11048 I caffe_jni: I0226 17:17:22.766476 11048 layer_factory.hpp:77] Creating layer scale4d_branch2c
02-26 17:17:22.766 11048 11048 I caffe_jni: I0226 17:17:22.766497 11048 net.cpp:102] Creating Layer scale4d_branch2c
02-26 17:17:22.766 11048 11048 I caffe_jni: I0226 17:17:22.766515 11048 net.cpp:436] scale4d_branch2c <- res4d_branch2c
02-26 17:17:22.766 11048 11048 I caffe_jni: I0226 17:17:22.766533 11048 net.cpp:397] scale4d_branch2c -> res4d_branch2c (in-place)
02-26 17:17:22.766 11048 11048 I caffe_jni: I0226 17:17:22.766562 11048 layer_factory.hpp:77] Creating layer scale4d_branch2c
02-26 17:17:22.766 11048 11048 I caffe_jni: I0226 17:17:22.766607 11048 net.cpp:152] Setting up scale4d_branch2c
02-26 17:17:22.766 11048 11048 I caffe_jni: I0226 17:17:22.766625 11048 net.cpp:159] Top shape: 1 1024 14 14 (200704)
02-26 17:17:22.766 11048 11048 I caffe_jni: I0226 17:17:22.766644 11048 net.cpp:167] Memory required for data: 202911756
02-26 17:17:22.766 11048 11048 I caffe_jni: I0226 17:17:22.766664 11048 layer_factory.hpp:77] Creating layer res4d
02-26 17:17:22.766 11048 11048 I caffe_jni: I0226 17:17:22.766685 11048 net.cpp:102] Creating Layer res4d
02-26 17:17:22.766 11048 11048 I caffe_jni: I0226 17:17:22.766703 11048 net.cpp:436] res4d <- res4c_res4c_relu_0_split_1
02-26 17:17:22.766 11048 11048 I caffe_jni: I0226 17:17:22.766721 11048 net.cpp:436] res4d <- res4d_branch2c
02-26 17:17:22.766 11048 11048 I caffe_jni: I0226 17:17:22.766741 11048 net.cpp:410] res4d -> res4d
02-26 17:17:22.766 11048 11048 I caffe_jni: I0226 17:17:22.766764 11048 net.cpp:152] Setting up res4d
02-26 17:17:22.766 11048 11048 I caffe_jni: I0226 17:17:22.766779 11048 net.cpp:159] Top shape: 1 1024 14 14 (200704)
02-26 17:17:22.766 11048 11048 I caffe_jni: I0226 17:17:22.766803 11048 net.cpp:167] Memory required for data: 203714572
02-26 17:17:22.766 11048 11048 I caffe_jni: I0226 17:17:22.766819 11048 layer_factory.hpp:77] Creating layer res4d_relu
02-26 17:17:22.766 11048 11048 I caffe_jni: I0226 17:17:22.766839 11048 net.cpp:102] Creating Layer res4d_relu
02-26 17:17:22.766 11048 11048 I caffe_jni: I0226 17:17:22.766856 11048 net.cpp:436] res4d_relu <- res4d
02-26 17:17:22.766 11048 11048 I caffe_jni: I0226 17:17:22.766872 11048 net.cpp:397] res4d_relu -> res4d (in-place)
02-26 17:17:22.766 11048 11048 I caffe_jni: I0226 17:17:22.766892 11048 net.cpp:152] Setting up res4d_relu
02-26 17:17:22.766 11048 11048 I caffe_jni: I0226 17:17:22.766907 11048 net.cpp:159] Top shape: 1 1024 14 14 (200704)
02-26 17:17:22.766 11048 11048 I caffe_jni: I0226 17:17:22.766924 11048 net.cpp:167] Memory required for data: 204517388
02-26 17:17:22.766 11048 11048 I caffe_jni: I0226 17:17:22.766940 11048 layer_factory.hpp:77] Creating layer res4d_res4d_relu_0_split
…
02-26 17:18:08.543 11227 11227 I caffe_jni: I0226 17:18:08.543746 11227 net.cpp:436] bn5a_branch2b <- res5a_branch2b
02-26 17:18:08.543 11227 11227 I caffe_jni: I0226 17:18:08.543781 11227 net.cpp:397] bn5a_branch2b -> res5a_branch2b (in-place)
02-26 17:18:08.543 11227 11227 I caffe_jni: I0226 17:18:08.543853 11227 net.cpp:152] Setting up bn5a_branch2b
02-26 17:18:08.543 11227 11227 I caffe_jni: I0226 17:18:08.543877 11227 net.cpp:159] Top shape: 1 512 14 14 (100352)
02-26 17:18:08.543 11227 11227 I caffe_jni: I0226 17:18:08.543900 11227 net.cpp:167] Memory required for data: 228601868
02-26 17:18:08.543 11227 11227 I caffe_jni: I0226 17:18:08.543938 11227 layer_factory.hpp:77] Creating layer scale5a_branch2b
02-26 17:18:08.543 11227 11227 I caffe_jni: I0226 17:18:08.543970 11227 net.cpp:102] Creating Layer scale5a_branch2b
02-26 17:18:08.544 11227 11227 I caffe_jni: I0226 17:18:08.543995 11227 net.cpp:436] scale5a_branch2b <- res5a_branch2b
02-26 17:18:08.544 11227 11227 I caffe_jni: I0226 17:18:08.544019 11227 net.cpp:397] scale5a_branch2b -> res5a_branch2b (in-place)
02-26 17:18:08.544 11227 11227 I caffe_jni: I0226 17:18:08.544065 11227 layer_factory.hpp:77] Creating layer scale5a_branch2b
02-26 17:18:08.544 11227 11227 I caffe_jni: I0226 17:18:08.544119 11227 net.cpp:152] Setting up scale5a_branch2b
02-26 17:18:08.544 11227 11227 I caffe_jni: I0226 17:18:08.544142 11227 net.cpp:159] Top shape: 1 512 14 14 (100352)
02-26 17:18:08.544 11227 11227 I caffe_jni: I0226 17:18:08.544167 11227 net.cpp:167] Memory required for data: 229003276
02-26 17:18:08.544 11227 11227 I caffe_jni: I0226 17:18:08.544209 11227 layer_factory.hpp:77] Creating layer res5a_branch2b_relu
02-26 17:18:08.544 11227 11227 I caffe_jni: I0226 17:18:08.544240 11227 net.cpp:102] Creating Layer res5a_branch2b_relu
02-26 17:18:08.544 11227 11227 I caffe_jni: I0226 17:18:08.544261 11227 net.cpp:436] res5a_branch2b_relu <- res5a_branch2b
02-26 17:18:08.544 11227 11227 I caffe_jni: I0226 17:18:08.544287 11227 net.cpp:397] res5a_branch2b_relu -> res5a_branch2b (in-place)
02-26 17:18:08.544 11227 11227 I caffe_jni: I0226 17:18:08.544314 11227 net.cpp:152] Setting up res5a_branch2b_relu
02-26 17:18:08.544 11227 11227 I caffe_jni: I0226 17:18:08.544335 11227 net.cpp:159] Top shape: 1 512 14 14 (100352)
02-26 17:18:08.544 11227 11227 I caffe_jni: I0226 17:18:08.544373 11227 net.cpp:167] Memory required for data: 229404684
02-26 17:18:08.544 11227 11227 I caffe_jni: I0226 17:18:08.544407 11227 layer_factory.hpp:77] Creating layer res5a_branch2c
02-26 17:18:08.544 11227 11227 I caffe_jni: I0226 17:18:08.544443 11227 net.cpp:102] Creating Layer res5a_branch2c
02-26 17:18:08.544 11227 11227 I caffe_jni: I0226 17:18:08.544468 11227 net.cpp:436] res5a_branch2c <- res5a_branch2b
02-26 17:18:08.544 11227 11227 I caffe_jni: I0226 17:18:08.544497 11227 net.cpp:410] res5a_branch2c -> res5a_branch2c
02-26 17:18:08.548 11227 11227 I caffe_jni: I0226 17:18:08.548099 11227 net.cpp:152] Setting up res5a_branch2c
02-26 17:18:08.548 11227 11227 I caffe_jni: I0226 17:18:08.548260 11227 net.cpp:159] Top shape: 1 2048 14 14 (401408)
02-26 17:18:08.548 11227 11227 I caffe_jni: I0226 17:18:08.548321 11227 net.cpp:167] Memory required for data: 231010316
02-26 17:18:08.548 11227 11227 I caffe_jni: I0226 17:18:08.548360 11227 layer_factory.hpp:77] Creating layer bn5a_branch2c
02-26 17:18:08.548 11227 11227 I caffe_jni: I0226 17:18:08.548408 11227 net.cpp:102] Creating Layer bn5a_branch2c
02-26 17:18:08.548 11227 11227 I caffe_jni: I0226 17:18:08.548455 11227 net.cpp:436] bn5a_branch2c <- res5a_branch2c
02-26 17:18:08.548 11227 11227 I caffe_jni: I0226 17:18:08.548502 11227 net.cpp:397] bn5a_branch2c -> res5a_branch2c (in-place)
02-26 17:18:08.548 11227 11227 I caffe_jni: I0226 17:18:08.548591 11227 net.cpp:152] Setting up bn5a_branch2c
02-26 17:18:08.548 11227 11227 I caffe_jni: I0226 17:18:08.548622 11227 net.cpp:159] Top shape: 1 2048 14 14 (401408)
02-26 17:18:08.548 11227 11227 I caffe_jni: I0226 17:18:08.548655 11227 net.cpp:167] Memory required for data: 232615948
02-26 17:18:08.548 11227 11227 I caffe_jni: I0226 17:18:08.548696 11227 layer_factory.hpp:77] Creating layer scale5a_branch2c
02-26 17:18:08.548 11227 11227 I caffe_jni: I0226 17:18:08.548734 11227 net.cpp:102] Creating Layer scale5a_branch2c
02-26 17:18:08.548 11227 11227 I caffe_jni: I0226 17:18:08.548758 11227 net.cpp:436] scale5a_branch2c <- res5a_branch2c
02-26 17:18:08.548 11227 11227 I caffe_jni: I0226 17:18:08.548785 11227 net.cpp:397] scale5a_branch2c -> res5a_branch2c (in-place)
02-26 17:18:08.548 11227 11227 I caffe_jni: I0226 17:18:08.548840 11227 layer_factory.hpp:77] Creating layer scale5a_branch2c
02-26 17:18:08.548 11227 11227 I caffe_jni: I0226 17:18:08.548905 11227 net.cpp:152] Setting up scale5a_branch2c
02-26 17:18:08.548 11227 11227 I caffe_jni: I0226 17:18:08.548949 11227 net.cpp:159] Top shape: 1 2048 14 14 (401408)
02-26 17:18:08.548 11227 11227 I caffe_jni: I0226 17:18:08.548974 11227 net.cpp:167] Memory required for data: 234221580
02-26 17:18:08.549 11227 11227 I caffe_jni: I0226 17:18:08.549001 11227 layer_factory.hpp:77] Creating layer res5a
02-26 17:18:08.549 11227 11227 I caffe_jni: I0226 17:18:08.549031 11227 net.cpp:102] Creating Layer res5a
02-26 17:18:08.549 11227 11227 I caffe_jni: I0226 17:18:08.549054 11227 net.cpp:436] res5a <- res5a_branch1
02-26 17:18:08.549 11227 11227 I caffe_jni: I0226 17:18:08.549077 11227 net.cpp:436] res5a <- res5a_branch2c
02-26 17:18:08.549 11227 11227 I caffe_jni: I0226 17:18:08.549108 11227 net.cpp:410] res5a -> res5a
02-26 17:18:08.549 11227 11227 I caffe_jni: I0226 17:18:08.549190 11227 net.cpp:152] Setting up res5a
02-26 17:18:08.549 11227 11227 I caffe_jni: I0226 17:18:08.549214 11227 net.cpp:159] Top shape: 1 2048 14 14 (401408)
02-26 17:18:08.549 11227 11227 I caffe_jni: I0226 17:18:08.549239 11227 net.cpp:167] Memory required for data: 235827212
02-26 17:18:08.549 11227 11227 I caffe_jni: I0226 17:18:08.549262 11227 layer_factory.hpp:77] Creating layer res5a_relu
02-26 17:18:08.549 11227 11227 I caffe_jni: I0226 17:18:08.549289 11227 net.cpp:102] Creating Layer res5a_relu
02-26 17:18:08.549 11227 11227 I caffe_jni: I0226 17:18:08.549312 11227 net.cpp:436] res5a_relu <- res5a
02-26 17:18:08.549 11227 11227 I caffe_jni: I0226 17:18:08.549340 11227 net.cpp:397] res5a_relu -> res5a (in-place)
02-26 17:18:08.549 11227 11227 I caffe_jni: I0226 17:18:08.549373 11227 net.cpp:152] Setting up res5a_relu
02-26 17:18:08.549 11227 11227 I caffe_jni: I0226 17:18:08.549393 11227 net.cpp:159] Top shape: 1 2048 14 14 (401408)
02-26 17:18:08.549 11227 11227 I caffe_jni: I0226 17:18:08.549417 11227 net.cpp:167] Memory required for data: 237432844
02-26 17:18:08.549 11227 11227 I caffe_jni: I0226 17:18:08.549439 11227 layer_factory.hpp:77] Creating layer res5a_res5a_relu_0_split
02-26 17:18:08.549 11227 11227 I caffe_jni: I0226 17:18:08.549466 11227 net.cpp:102] Creating Layer res5a_res5a_relu_0_split
02-26 17:18:08.549 11227 11227 I caffe_jni: I0226 17:18:08.549489 11227 net.cpp:436] res5a_res5a_relu_0_split <- res5a
02-26 17:18:08.549 11227 11227 I caffe_jni: I0226 17:18:08.549515 11227 net.cpp:410] res5a_res5a_relu_0_split -> res5a_res5a_relu_0_split_0
02-26 17:18:08.549 11227 11227 I caffe_jni: I0226 17:18:08.549548 11227 net.cpp:410] res5a_res5a_relu_0_split -> res5a_res5a_relu_0_split_1
02-26 17:18:08.549 11227 11227 I caffe_jni: I0226 17:18:08.549578 11227 net.cpp:152] Setting up res5a_res5a_relu_0_split
02-26 17:18:08.549 11227 11227 I caffe_jni: I0226 17:18:08.549602 11227 net.cpp:159] Top shape: 1 2048 14 14 (401408)
02-26 17:18:08.549 11227 11227 I caffe_jni: I0226 17:18:08.549625 11227 net.cpp:159] Top shape: 1 2048 14 14 (401408)
02-26 17:18:08.549 11227 11227 I caffe_jni: I0226 17:18:08.549646 11227 net.cpp:167] Memory required for data: 240644108
02-26 17:18:08.549 11227 11227 I caffe_jni: I0226 17:18:08.549667 11227 layer_factory.hpp:77] Creating layer res5b_branch2a
02-26 17:18:08.549 11227 11227 I caffe_jni: I0226 17:18:08.549702 11227 net.cpp:102] Creating Layer res5b_branch2a
02-26 17:18:08.549 11227 11227 I caffe_jni: I0226 17:18:08.549733 11227 net.cpp:436] res5b_branch2a <- res5a_res5a_relu_0_split_0
02-26 17:18:08.549 11227 11227 I caffe_jni: I0226 17:18:08.549758 11227 net.cpp:410] res5b_branch2a -> res5b_branch2a
02-26 17:18:08.553 11227 11227 I caffe_jni: I0226 17:18:08.553418 11227 net.cpp:152] Setting up res5b_branch2a
02-26 17:18:08.553 11227 11227 I caffe_jni: I0226 17:18:08.553611 11227 net.cpp:159] Top shape: 1 512 14 14 (100352)
02-26 17:18:08.553 11227 11227 I caffe_jni: I0226 17:18:08.553679 11227 net.cpp:167] Memory required for data: 241045516
02-26 17:18:08.553 11227 11227 I caffe_jni: I0226 17:18:08.553725 11227 layer_factory.hpp:77] Creating layer bn5b_branch2a
02-26 17:18:08.553 11227 11227 I caffe_jni: I0226 17:18:08.553789 11227 net.cpp:102] Creating Layer bn5b_branch2a
02-26 17:18:08.553 11227 11227 I caffe_jni: I0226 17:18:08.553822 11227 net.cpp:436] bn5b_branch2a <- res5b_branch2a
02-26 17:18:08.553 11227 11227 I caffe_jni: I0226 17:18:08.553859 11227 net.cpp:397] bn5b_branch2a -> res5b_branch2a (in-place)
02-26 17:18:08.553 11227 11227 I caffe_jni: I0226 17:18:08.553953 11227 net.cpp:152] Setting up bn5b_branch2a
02-26 17:18:08.554 11227 11227 I caffe_jni: I0226 17:18:08.553992 11227 net.cpp:159] Top shape: 1 512 14 14 (100352)
02-26 17:18:08.554 11227 11227 I caffe_jni: I0226 17:18:08.554019 11227 net.cpp:167] Memory required for data: 241446924
02-26 17:18:08.554 11227 11227 I caffe_jni: I0226 17:18:08.554050 11227 layer_factory.hpp:77] Creating layer scale5b_branch2a
02-26 17:18:08.554 11227 11227 I caffe_jni: I0226 17:18:08.554087 11227 net.cpp:102] Creating Layer scale5b_branch2a
02-26 17:18:08.554 11227 11227 I caffe_jni: I0226 17:18:08.554111 11227 net.cpp:436] scale5b_branch2a <- res5b_branch2a
02-26 17:18:08.554 11227 11227 I caffe_jni: I0226 17:18:08.554137 11227 net.cpp:397] scale5b_branch2a -> res5b_branch2a (in-place)
02-26 17:18:08.554 11227 11227 I caffe_jni: I0226 17:18:08.554191 11227 layer_factory.hpp:77] Creating layer scale5b_branch2a
02-26 17:18:08.554 11227 11227 I caffe_jni: I0226 17:18:08.554260 11227 net.cpp:152] Setting up scale5b_branch2a
02-26 17:18:08.554 11227 11227 I caffe_jni: I0226 17:18:08.554286 11227 net.cpp:159] Top shape: 1 512 14 14 (100352)
02-26 17:18:08.554 11227 11227 I caffe_jni: I0226 17:18:08.554311 11227 net.cpp:167] Memory required for data: 241848332
02-26 17:18:08.554 11227 11227 I caffe_jni: I0226 17:18:08.554342 11227 layer_factory.hpp:77] Creating layer res5b_branch2a_relu
02-26 17:18:08.554 11227 11227 I caffe_jni: I0226 17:18:08.554374 11227 net.cpp:102] Creating Layer res5b_branch2a_relu
02-26 17:18:08.554 11227 11227 I caffe_jni: I0226 17:18:08.554399 11227 net.cpp:436] res5b_branch2a_relu <- res5b_branch2a
02-26 17:18:08.554 11227 11227 I caffe_jni: I0226 17:18:08.554427 11227 net.cpp:397] res5b_branch2a_relu -> res5b_branch2a (in-place)
02-26 17:18:08.554 11227 11227 I caffe_jni: I0226 17:18:08.554466 11227 net.cpp:152] Setting up res5b_branch2a_relu
02-26 17:18:08.554 11227 11227 I caffe_jni: I0226 17:18:08.554487 11227 net.cpp:159] Top shape: 1 512 14 14 (100352)
02-26 17:18:08.554 11227 11227 I caffe_jni: I0226 17:18:08.554513 11227 net.cpp:167] Memory required for data: 242249740
02-26 17:18:08.554 11227 11227 I caffe_jni: I0226 17:18:08.554535 11227 layer_factory.hpp:77] Creating layer res5b_branch2b
02-26 17:18:08.554 11227 11227 I caffe_jni: I0226 17:18:08.554572 11227 net.cpp:102] Creating Layer res5b_branch2b
02-26 17:18:08.554 11227 11227 I caffe_jni: I0226 17:18:08.554597 11227 net.cpp:436] res5b_branch2b <- res5b_branch2a
02-26 17:18:08.554 11227 11227 I caffe_jni: I0226 17:18:08.554627 11227 net.cpp:410] res5b_branch2b -> res5b_branch2b
02-26 17:18:08.563 11227 11227 I caffe_jni: I0226 17:18:08.563055 11227 net.cpp:152] Setting up res5b_branch2b
02-26 17:18:08.563 11227 11227 I caffe_jni: I0226 17:18:08.563252 11227 net.cpp:159] Top shape: 1 512 14 14 (100352)
02-26 17:18:08.563 11227 11227 I caffe_jni: I0226 17:18:08.563323 11227 net.cpp:167] Memory required for data: 242651148
02-26 17:18:08.563 11227 11227 I caffe_jni: I0226 17:18:08.563364 11227 layer_factory.hpp:77] Creating layer bn5b_branch2b
02-26 17:18:08.563 11227 11227 I caffe_jni: I0226 17:18:08.563417 11227 net.cpp:102] Creating Layer bn5b_branch2b
02-26 17:18:08.563 11227 11227 I caffe_jni: I0226 17:18:08.563450 11227 net.cpp:436] bn5b_branch2b <- res5b_branch2b
02-26 17:18:08.563 11227 11227 I caffe_jni: I0226 17:18:08.563490 11227 net.cpp:397] bn5b_branch2b -> res5b_branch2b (in-place)
02-26 17:18:08.563 11227 11227 I caffe_jni: I0226 17:18:08.563571 11227 net.cpp:152] Setting up bn5b_branch2b
02-26 17:18:08.563 11227 11227 I caffe_jni: I0226 17:18:08.563606 11227 net.cpp:159] Top shape: 1 512 14 14 (100352)
02-26 17:18:08.563 11227 11227 I caffe_jni: I0226 17:18:08.563630 11227 net.cpp:167] Memory required for data: 243052556
02-26 17:18:08.563 11227 11227 I caffe_jni: I0226 17:18:08.563663 11227 layer_factory.hpp:77] Creating layer scale5b_branch2b
02-26 17:18:08.563 11227 11227 I caffe_jni: I0226 17:18:08.563695 11227 net.cpp:102] Creating Layer scale5b_branch2b
02-26 17:18:08.563 11227 11227 I caffe_jni: I0226 17:18:08.563719 11227 net.cpp:436] scale5b_branch2b <- res5b_branch2b
02-26 17:18:08.563 11227 11227 I caffe_jni: I0226 17:18:08.563745 11227 net.cpp:397] scale5b_branch2b -> res5b_branch2b (in-place)
02-26 17:18:08.563 11227 11227 I caffe_jni: I0226 17:18:08.563813 11227 layer_factory.hpp:77] Creating layer scale5b_branch2b
02-26 17:18:08.563 11227 11227 I caffe_jni: I0226 17:18:08.563890 11227 net.cpp:152] Setting up scale5b_branch2b
02-26 17:18:08.563 11227 11227 I caffe_jni: I0226 17:18:08.563916 11227 net.cpp:159] Top shape: 1 512 14 14 (100352)
02-26 17:18:08.563 11227 11227 I caffe_jni: I0226 17:18:08.563941 11227 net.cpp:167] Memory required for data: 243453964
02-26 17:18:08.563 11227 11227 I caffe_jni: I0226 17:18:08.563971 11227 layer_factory.hpp:77] Creating layer res5b_branch2b_relu
02-26 17:18:08.564 11227 11227 I caffe_jni: I0226 17:18:08.564003 11227 net.cpp:102] Creating Layer res5b_branch2b_relu
02-26 17:18:08.564 11227 11227 I caffe_jni: I0226 17:18:08.564034 11227 net.cpp:436] res5b_branch2b_relu <- res5b_branch2b
02-26 17:18:08.564 11227 11227 I caffe_jni: I0226 17:18:08.564071 11227 net.cpp:397] res5b_branch2b_relu -> res5b_branch2b (in-place)
02-26 17:18:08.564 11227 11227 I caffe_jni: I0226 17:18:08.564098 11227 net.cpp:152] Setting up res5b_branch2b_relu
02-26 17:18:08.564 11227 11227 I caffe_jni: I0226 17:18:08.564122 11227 net.cpp:159] Top shape: 1 512 14 14 (100352)
02-26 17:18:08.564 11227 11227 I caffe_jni: I0226 17:18:08.564148 11227 net.cpp:167] Memory required for data: 243855372
02-26 17:18:08.564 11227 11227 I caffe_jni: I0226 17:18:08.564170 11227 layer_factory.hpp:77] Creating layer res5b_branch2c
02-26 17:18:08.564 11227 11227 I caffe_jni: I0226 17:18:08.564204 11227 net.cpp:102] Creating Layer res5b_branch2c
02-26 17:18:08.564 11227 11227 I caffe_jni: I0226 17:18:08.564234 11227 net.cpp:436] res5b_branch2c <- res5b_branch2b
02-26 17:18:08.564 11227 11227 I caffe_jni: I0226 17:18:08.564270 11227 net.cpp:410] res5b_branch2c -> res5b_branch2c
02-26 17:18:08.568 11227 11227 I caffe_jni: I0226 17:18:08.567977 11227 net.cpp:152] Setting up res5b_branch2c
02-26 17:18:08.568 11227 11227 I caffe_jni: I0226 17:18:08.568164 11227 net.cpp:159] Top shape: 1 2048 14 14 (401408)
02-26 17:18:08.568 11227 11227 I caffe_jni: I0226 17:18:08.568229 11227 net.cpp:167] Memory required for data: 245461004
02-26 17:18:08.568 11227 11227 I caffe_jni: I0226 17:18:08.568269 11227 layer_factory.hpp:77] Creating layer bn5b_branch2c
02-26 17:18:08.568 11227 11227 I caffe_jni: I0226 17:18:08.568320 11227 net.cpp:102] Creating Layer bn5b_branch2c
02-26 17:18:08.568 11227 11227 I caffe_jni: I0226 17:18:08.568353 11227 net.cpp:436] bn5b_branch2c <- res5b_branch2c
02-26 17:18:08.568 11227 11227 I caffe_jni: I0226 17:18:08.568389 11227 net.cpp:397] bn5b_branch2c -> res5b_branch2c (in-place)
02-26 17:18:08.568 11227 11227 I caffe_jni: I0226 17:18:08.568478 11227 net.cpp:152] Setting up bn5b_branch2c
02-26 17:18:08.568 11227 11227 I caffe_jni: I0226 17:18:08.568512 11227 net.cpp:159] Top shape: 1 2048 14 14 (401408)
02-26 17:18:08.568 11227 11227 I caffe_jni: I0226 17:18:08.568538 11227 net.cpp:167] Memory required for data: 247066636
02-26 17:18:08.568 11227 11227 I caffe_jni: I0226 17:18:08.568567 11227 layer_factory.hpp:77] Creating layer scale5b_branch2c
02-26 17:18:08.568 11227 11227 I caffe_jni: I0226 17:18:08.568598 11227 net.cpp:102] Creating Layer scale5b_branch2c
02-26 17:18:08.568 11227 11227 I caffe_jni: I0226 17:18:08.568629 11227 net.cpp:436] scale5b_branch2c <- res5b_branch2c
02-26 17:18:08.568 11227 11227 I caffe_jni: I0226 17:18:08.568661 11227 net.cpp:397] scale5b_branch2c -> res5b_branch2c (in-place)
02-26 17:18:08.568 11227 11227 I caffe_jni: I0226 17:18:08.568709 11227 layer_factory.hpp:77] Creating layer scale5b_branch2c
02-26 17:18:08.568 11227 11227 I caffe_jni: I0226 17:18:08.568778 11227 net.cpp:152] Setting up scale5b_branch2c
02-26 17:18:08.568 11227 11227 I caffe_jni: I0226 17:18:08.568802 11227 net.cpp:159] Top shape: 1 2048 14 14 (401408)
02-26 17:18:08.568 11227 11227 I caffe_jni: I0226 17:18:08.568830 11227 net.cpp:167] Memory required for data: 248672268
02-26 17:18:08.568 11227 11227 I caffe_jni: I0226 17:18:08.568866 11227 layer_factory.hpp:77] Creating layer res5b
02-26 17:18:08.568 11227 11227 I caffe_jni: I0226 17:18:08.568892 11227 net.cpp:102] Creating Layer res5b
02-26 17:18:08.568 11227 11227 I caffe_jni: I0226 17:18:08.568913 11227 net.cpp:436] res5b <- res5a_res5a_relu_0_split_1
02-26 17:18:08.568 11227 11227 I caffe_jni: I0226 17:18:08.568938 11227 net.cpp:436] res5b <- res5b_branch2c
02-26 17:18:08.568 11227 11227 I caffe_jni: I0226 17:18:08.568962 11227 net.cpp:410] res5b -> res5b
02-26 17:18:08.569 11227 11227 I caffe_jni: I0226 17:18:08.568996 11227 net.cpp:152] Setting up res5b
02-26 17:18:08.569 11227 11227 I caffe_jni: I0226 17:18:08.569020 11227 net.cpp:159] Top shape: 1 2048 14 14 (401408)
02-26 17:18:08.569 11227 11227 I caffe_jni: I0226 17:18:08.569046 11227 net.cpp:167] Memory required for data: 250277900
02-26 17:18:08.569 11227 11227 I caffe_jni: I0226 17:18:08.569075 11227 layer_factory.hpp:77] Creating layer res5b_relu
02-26 17:18:08.569 11227 11227 I caffe_jni: I0226 17:18:08.569103 11227 net.cpp:102] Creating Layer res5b_relu
02-26 17:18:08.569 11227 11227 I caffe_jni: I0226 17:18:08.569190 11227 net.cpp:436] res5b_relu <- res5b
02-26 17:18:08.569 11227 11227 I caffe_jni: I0226 17:18:08.569216 11227 net.cpp:397] res5b_relu -> res5b (in-place)
02-26 17:18:08.569 11227 11227 I caffe_jni: I0226 17:18:08.569245 11227 net.cpp:152] Setting up res5b_relu
02-26 17:18:08.569 11227 11227 I caffe_jni: I0226 17:18:08.569272 11227 net.cpp:159] Top shape: 1 2048 14 14 (401408)
02-26 17:18:08.569 11227 11227 I caffe_jni: I0226 17:18:08.569293 11227 net.cpp:167] Memory required for data: 251883532
02-26 17:18:08.569 11227 11227 I caffe_jni: I0226 17:18:08.569315 11227 layer_factory.hpp:77] Creating layer res5b_res5b_relu_0_split
02-26 17:18:08.569 11227 11227 I caffe_jni: I0226 17:18:08.569341 11227 net.cpp:102] Creating Layer res5b_res5b_relu_0_split
02-26 17:18:08.569 11227 11227 I caffe_jni: I0226 17:18:08.569365 11227 net.cpp:436] res5b_res5b_relu_0_split <- res5b
02-26 17:18:08.569 11227 11227 I caffe_jni: I0226 17:18:08.569389 11227 net.cpp:410] res5b_res5b_relu_0_split -> res5b_res5b_relu_0_split_0
02-26 17:18:08.569 11227 11227 I caffe_jni: I0226 17:18:08.569416 11227 net.cpp:410] res5b_res5b_relu_0_split -> res5b_res5b_relu_0_split_1
02-26 17:18:08.569 11227 11227 I caffe_jni: I0226 17:18:08.569447 11227 net.cpp:152] Setting up res5b_res5b_relu_0_split
02-26 17:18:08.569 11227 11227 I caffe_jni: I0226 17:18:08.569470 11227 net.cpp:159] Top shape: 1 2048 14 14 (401408)
02-26 17:18:08.569 11227 11227 I caffe_jni: I0226 17:18:08.569495 11227 net.cpp:159] Top shape: 1 2048 14 14 (401408)
02-26 17:18:08.569 11227 11227 I caffe_jni: I0226 17:18:08.569519 11227 net.cpp:167] Memory required for data: 255094796
02-26 17:18:08.569 11227 11227 I caffe_jni: I0226 17:18:08.569540 11227 layer_factory.hpp:77] Creating layer res5c_branch2a
02-26 17:18:08.569 11227 11227 I caffe_jni: I0226 17:18:08.569573 11227 net.cpp:102] Creating Layer res5c_branch2a
02-26 17:18:08.569 11227 11227 I caffe_jni: I0226 17:18:08.569595 11227 net.cpp:436] res5c_branch2a <- res5b_res5b_relu_0_split_0
02-26 17:18:08.569 11227 11227 I caffe_jni: I0226 17:18:08.569620 11227 net.cpp:410] res5c_branch2a -> res5c_branch2a
02-26 17:18:08.573 11227 11227 I caffe_jni: I0226 17:18:08.573091 11227 net.cpp:152] Setting up res5c_branch2a
02-26 17:18:08.573 11227 11227 I caffe_jni: I0226 17:18:08.573356 11227 net.cpp:159] Top shape: 1 512 14 14 (100352)
02-26 17:18:08.573 11227 11227 I caffe_jni: I0226 17:18:08.573412 11227 net.cpp:167] Memory required for data: 255496204
02-26 17:18:08.573 11227 11227 I caffe_jni: I0226 17:18:08.573451 11227 layer_factory.hpp:77] Creating layer bn5c_branch2a
02-26 17:18:08.573 11227 11227 I caffe_jni: I0226 17:18:08.573493 11227 net.cpp:102] Creating Layer bn5c_branch2a
02-26 17:18:08.573 11227 11227 I caffe_jni: I0226 17:18:08.573524 11227 net.cpp:436] bn5c_branch2a <- res5c_branch2a
02-26 17:18:08.573 11227 11227 I caffe_jni: I0226 17:18:08.573557 11227 net.cpp:397] bn5c_branch2a -> res5c_branch2a (in-place)
02-26 17:18:08.573 11227 11227 I caffe_jni: I0226 17:18:08.573626 11227 net.cpp:152] Setting up bn5c_branch2a
02-26 17:18:08.573 11227 11227 I caffe_jni: I0226 17:18:08.573648 11227 net.cpp:159] Top shape: 1 512 14 14 (100352)
02-26 17:18:08.573 11227 11227 I caffe_jni: I0226 17:18:08.573670 11227 net.cpp:167] Memory required for data: 255897612
02-26 17:18:08.573 11227 11227 I caffe_jni: I0226 17:18:08.573700 11227 layer_factory.hpp:77] Creating layer scale5c_branch2a
02-26 17:18:08.573 11227 11227 I caffe_jni: I0226 17:18:08.573730 11227 net.cpp:102] Creating Layer scale5c_branch2a
02-26 17:18:08.573 11227 11227 I caffe_jni: I0226 17:18:08.573750 11227 net.cpp:436] scale5c_branch2a <- res5c_branch2a
02-26 17:18:08.573 11227 11227 I caffe_jni: I0226 17:18:08.573773 11227 net.cpp:397] scale5c_branch2a -> res5c_branch2a (in-place)
02-26 17:18:08.573 11227 11227 I caffe_jni: I0226 17:18:08.573817 11227 layer_factory.hpp:77] Creating layer scale5c_branch2a
02-26 17:18:08.573 11227 11227 I caffe_jni: I0226 17:18:08.573871 11227 net.cpp:152] Setting up scale5c_branch2a
02-26 17:18:08.573 11227 11227 I caffe_jni: I0226 17:18:08.573892 11227 net.cpp:159] Top shape: 1 512 14 14 (100352)
02-26 17:18:08.573 11227 11227 I caffe_jni: I0226 17:18:08.573915 11227 net.cpp:167] Memory required for data: 256299020
02-26 17:18:08.573 11227 11227 I caffe_jni: I0226 17:18:08.573941 11227 layer_factory.hpp:77] Creating layer res5c_branch2a_relu
02-26 17:18:08.573 11227 11227 I caffe_jni: I0226 17:18:08.573969 11227 net.cpp:102] Creating Layer res5c_branch2a_relu
02-26 17:18:08.573 11227 11227 I caffe_jni: I0226 17:18:08.573990 11227 net.cpp:436] res5c_branch2a_relu <- res5c_branch2a
02-26 17:18:08.574 11227 11227 I caffe_jni: I0226 17:18:08.574013 11227 net.cpp:397] res5c_branch2a_relu -> res5c_branch2a (in-place)
02-26 17:18:08.574 11227 11227 I caffe_jni: I0226 17:18:08.574039 11227 net.cpp:152] Setting up res5c_branch2a_relu
02-26 17:18:08.574 11227 11227 I caffe_jni: I0226 17:18:08.574060 11227 net.cpp:159] Top shape: 1 512 14 14 (100352)
02-26 17:18:08.574 11227 11227 I caffe_jni: I0226 17:18:08.574082 11227 net.cpp:167] Memory required for data: 256700428
02-26 17:18:08.574 11227 11227 I caffe_jni: I0226 17:18:08.574102 11227 layer_factory.hpp:77] Creating layer res5c_branch2b
02-26 17:18:08.574 11227 11227 I caffe_jni: I0226 17:18:08.574138 11227 net.cpp:102] Creating Layer res5c_branch2b
02-26 17:18:08.574 11227 11227 I caffe_jni: I0226 17:18:08.574159 11227 net.cpp:436] res5c_branch2b <- res5c_branch2a
02-26 17:18:08.574 11227 11227 I caffe_jni: I0226 17:18:08.574184 11227 net.cpp:410] res5c_branch2b -> res5c_branch2b
02-26 17:18:08.582 11227 11227 I caffe_jni: I0226 17:18:08.582113 11227 net.cpp:152] Setting up res5c_branch2b
02-26 17:18:08.582 11227 11227 I caffe_jni: I0226 17:18:08.582289 11227 net.cpp:159] Top shape: 1 512 14 14 (100352)
02-26 17:18:08.582 11227 11227 I caffe_jni: I0226 17:18:08.582340 11227 net.cpp:167] Memory required for data: 257101836
02-26 17:18:08.582 11227 11227 I caffe_jni: I0226 17:18:08.582377 11227 layer_factory.hpp:77] Creating layer bn5c_branch2b
02-26 17:18:08.582 11227 11227 I caffe_jni: I0226 17:18:08.582428 11227 net.cpp:102] Creating Layer bn5c_branch2b
02-26 17:18:08.582 11227 11227 I caffe_jni: I0226 17:18:08.582460 11227 net.cpp:436] bn5c_branch2b <- res5c_branch2b
02-26 17:18:08.582 11227 11227 I caffe_jni: I0226 17:18:08.582496 11227 net.cpp:397] bn5c_branch2b -> res5c_branch2b (in-place)
02-26 17:18:08.582 11227 11227 I caffe_jni: I0226 17:18:08.582579 11227 net.cpp:152] Setting up bn5c_branch2b
02-26 17:18:08.582 11227 11227 I caffe_jni: I0226 17:18:08.582603 11227 net.cpp:159] Top shape: 1 512 14 14 (100352)
02-26 17:18:08.582 11227 11227 I caffe_jni: I0226 17:18:08.582628 11227 net.cpp:167] Memory required for data: 257503244
02-26 17:18:08.582 11227 11227 I caffe_jni: I0226 17:18:08.582659 11227 layer_factory.hpp:77] Creating layer scale5c_branch2b
02-26 17:18:08.582 11227 11227 I caffe_jni: I0226 17:18:08.582690 11227 net.cpp:102] Creating Layer scale5c_branch2b
02-26 17:18:08.582 11227 11227 I caffe_jni: I0226 17:18:08.582712 11227 net.cpp:436] scale5c_branch2b <- res5c_branch2b
02-26 17:18:08.582 11227 11227 I caffe_jni: I0226 17:18:08.582741 11227 net.cpp:397] scale5c_branch2b -> res5c_branch2b (in-place)
02-26 17:18:08.582 11227 11227 I caffe_jni: I0226 17:18:08.582793 11227 layer_factory.hpp:77] Creating layer scale5c_branch2b
02-26 17:18:08.582 11227 11227 I caffe_jni: I0226 17:18:08.582850 11227 net.cpp:152] Setting up scale5c_branch2b
02-26 17:18:08.582 11227 11227 I caffe_jni: I0226 17:18:08.582875 11227 net.cpp:159] Top shape: 1 512 14 14 (100352)
02-26 17:18:08.582 11227 11227 I caffe_jni: I0226 17:18:08.582900 11227 net.cpp:167] Memory required for data: 257904652
02-26 17:18:08.582 11227 11227 I caffe_jni: I0226 17:18:08.582927 11227 layer_factory.hpp:77] Creating layer res5c_branch2b_relu
02-26 17:18:08.582 11227 11227 I caffe_jni: I0226 17:18:08.582960 11227 net.cpp:102] Creating Layer res5c_branch2b_relu
02-26 17:18:08.582 11227 11227 I caffe_jni: I0226 17:18:08.582991 11227 net.cpp:436] res5c_branch2b_relu <- res5c_branch2b
02-26 17:18:08.583 11227 11227 I caffe_jni: I0226 17:18:08.583016 11227 net.cpp:397] res5c_branch2b_relu -> res5c_branch2b (in-place)
02-26 17:18:08.583 11227 11227 I caffe_jni: I0226 17:18:08.583045 11227 net.cpp:152] Setting up res5c_branch2b_relu
02-26 17:18:08.583 11227 11227 I caffe_jni: I0226 17:18:08.583067 11227 net.cpp:159] Top shape: 1 512 14 14 (100352)
02-26 17:18:08.583 11227 11227 I caffe_jni: I0226 17:18:08.583091 11227 net.cpp:167] Memory required for data: 258306060
02-26 17:18:08.583 11227 11227 I caffe_jni: I0226 17:18:08.583112 11227 layer_factory.hpp:77] Creating layer res5c_branch2c
02-26 17:18:08.583 11227 11227 I caffe_jni: I0226 17:18:08.583147 11227 net.cpp:102] Creating Layer res5c_branch2c
02-26 17:18:08.583 11227 11227 I caffe_jni: I0226 17:18:08.583179 11227 net.cpp:436] res5c_branch2c <- res5c_branch2b
02-26 17:18:08.583 11227 11227 I caffe_jni: I0226 17:18:08.583207 11227 net.cpp:410] res5c_branch2c -> res5c_branch2c
02-26 17:18:08.586 11227 11227 I caffe_jni: I0226 17:18:08.586755 11227 net.cpp:152] Setting up res5c_branch2c
02-26 17:18:08.586 11227 11227 I caffe_jni: I0226 17:18:08.586943 11227 net.cpp:159] Top shape: 1 2048 14 14 (401408)
02-26 17:18:08.587 11227 11227 I caffe_jni: I0226 17:18:08.587007 11227 net.cpp:167] Memory required for data: 259911692
02-26 17:18:08.587 11227 11227 I caffe_jni: I0226 17:18:08.587057 11227 layer_factory.hpp:77] Creating layer bn5c_branch2c
02-26 17:18:08.587 11227 11227 I caffe_jni: I0226 17:18:08.587105 11227 net.cpp:102] Creating Layer bn5c_branch2c
02-26 17:18:08.587 11227 11227 I caffe_jni: I0226 17:18:08.587136 11227 net.cpp:436] bn5c_branch2c <- res5c_branch2c
02-26 17:18:08.587 11227 11227 I caffe_jni: I0226 17:18:08.587178 11227 net.cpp:397] bn5c_branch2c -> res5c_branch2c (in-place)
02-26 17:18:08.587 11227 11227 I caffe_jni: I0226 17:18:08.587267 11227 net.cpp:152] Setting up bn5c_branch2c
02-26 17:18:08.587 11227 11227 I caffe_jni: I0226 17:18:08.587291 11227 net.cpp:159] Top shape: 1 2048 14 14 (401408)
02-26 17:18:08.587 11227 11227 I caffe_jni: I0226 17:18:08.587316 11227 net.cpp:167] Memory required for data: 261517324
02-26 17:18:08.587 11227 11227 I caffe_jni: I0226 17:18:08.587348 11227 layer_factory.hpp:77] Creating layer scale5c_branch2c
02-26 17:18:08.587 11227 11227 I caffe_jni: I0226 17:18:08.587380 11227 net.cpp:102] Creating Layer scale5c_branch2c
02-26 17:18:08.587 11227 11227 I caffe_jni: I0226 17:18:08.587404 11227 net.cpp:436] scale5c_branch2c <- res5c_branch2c
02-26 17:18:08.587 11227 11227 I caffe_jni: I0226 17:18:08.587430 11227 net.cpp:397] scale5c_branch2c -> res5c_branch2c (in-place)
02-26 17:18:08.587 11227 11227 I caffe_jni: I0226 17:18:08.587478 11227 layer_factory.hpp:77] Creating layer scale5c_branch2c
02-26 17:18:08.587 11227 11227 I caffe_jni: I0226 17:18:08.587538 11227 net.cpp:152] Setting up scale5c_branch2c
02-26 17:18:08.587 11227 11227 I caffe_jni: I0226 17:18:08.587563 11227 net.cpp:159] Top shape: 1 2048 14 14 (401408)
02-26 17:18:08.587 11227 11227 I caffe_jni: I0226 17:18:08.587589 11227 net.cpp:167] Memory required for data: 263122956
02-26 17:18:08.587 11227 11227 I caffe_jni: I0226 17:18:08.587617 11227 layer_factory.hpp:77] Creating layer res5c
02-26 17:18:08.587 11227 11227 I caffe_jni: I0226 17:18:08.587658 11227 net.cpp:102] Creating Layer res5c
02-26 17:18:08.587 11227 11227 I caffe_jni: I0226 17:18:08.587694 11227 net.cpp:436] res5c <- res5b_res5b_relu_0_split_1
02-26 17:18:08.587 11227 11227 I caffe_jni: I0226 17:18:08.587719 11227 net.cpp:436] res5c <- res5c_branch2c
02-26 17:18:08.587 11227 11227 I caffe_jni: I0226 17:18:08.587744 11227 net.cpp:410] res5c -> res5c
02-26 17:18:08.587 11227 11227 I caffe_jni: I0226 17:18:08.587782 11227 net.cpp:152] Setting up res5c
02-26 17:18:08.587 11227 11227 I caffe_jni: I0226 17:18:08.587805 11227 net.cpp:159] Top shape: 1 2048 14 14 (401408)
02-26 17:18:08.587 11227 11227 I caffe_jni: I0226 17:18:08.587826 11227 net.cpp:167] Memory required for data: 264728588
02-26 17:18:08.587 11227 11227 I caffe_jni: I0226 17:18:08.587852 11227 layer_factory.hpp:77] Creating layer res5c_relu
02-26 17:18:08.587 11227 11227 I caffe_jni: I0226 17:18:08.587888 11227 net.cpp:102] Creating Layer res5c_relu
02-26 17:18:08.587 11227 11227 I caffe_jni: I0226 17:18:08.587913 11227 net.cpp:436] res5c_relu <- res5c
02-26 17:18:08.587 11227 11227 I caffe_jni: I0226 17:18:08.587937 11227 net.cpp:397] res5c_relu -> res5c (in-place)
02-26 17:18:08.587 11227 11227 I caffe_jni: I0226 17:18:08.587965 11227 net.cpp:152] Setting up res5c_relu
02-26 17:18:08.587 11227 11227 I caffe_jni: I0226 17:18:08.587990 11227 net.cpp:159] Top shape: 1 2048 14 14 (401408)
02-26 17:18:08.588 11227 11227 I caffe_jni: I0226 17:18:08.588016 11227 net.cpp:167] Memory required for data: 266334220
02-26 17:18:08.588 11227 11227 I caffe_jni: I0226 17:18:08.588045 11227 layer_factory.hpp:77] Creating layer rpn_conv/3x3
02-26 17:18:08.588 11227 11227 I caffe_jni: I0226 17:18:08.588084 11227 net.cpp:102] Creating Layer rpn_conv/3x3
02-26 17:18:08.588 11227 11227 I caffe_jni: I0226 17:18:08.588107 11227 net.cpp:436] rpn_conv/3x3 <- res4f_res4f_relu_0_split_2
02-26 17:18:08.588 11227 11227 I caffe_jni: I0226 17:18:08.588135 11227 net.cpp:410] rpn_conv/3x3 -> rpn/output
02-26 17:18:08.630  1256  1845 D HwArpVerifier: performPollAndLog:
02-26 17:18:08.632  1256  1845 D hw_netstat: total/0/120,com.google.uid.shared:10019/0/120
02-26 17:18:08.633  1256  1845 E HwCHRWifiFile: getFileResult throw exceptionjava.io.FileNotFoundException: proc/net/wifi_network_stat (No such file or directory)
02-26 17:18:09.188   703  1831 D DE N ^EP: onChange:103:  mode=0x1c mAmbientLux=300 mAmbientLuxOffset=0 biasedAmbientLux=0 r=32768 g=32768 b=32768
02-26 17:18:09.188   703  1831 D DE N VH : start:45: Wake up
02-26 17:18:09.188   703  1832 D DE N VH : run:118: Start
02-26 17:18:09.206 11227 11227 I caffe_jni: I0226 17:18:09.206445 11227 net.cpp:152] Setting up rpn_conv/3x3
02-26 17:18:09.206 11227 11227 I caffe_jni: I0226 17:18:09.206666 11227 net.cpp:159] Top shape: 1 512 14 14 (100352)
02-26 17:18:09.206 11227 11227 I caffe_jni: I0226 17:18:09.206727 11227 net.cpp:167] Memory required for data: 266735628
02-26 17:18:09.206 11227 11227 I caffe_jni: I0226 17:18:09.206773 11227 layer_factory.hpp:77] Creating layer rpn_relu/3x3
02-26 17:18:09.206 11227 11227 I caffe_jni: I0226 17:18:09.206822 11227 net.cpp:102] Creating Layer rpn_relu/3x3
02-26 17:18:09.206 11227 11227 I caffe_jni: I0226 17:18:09.206859 11227 net.cpp:436] rpn_relu/3x3 <- rpn/output
02-26 17:18:09.206 11227 11227 I caffe_jni: I0226 17:18:09.206897 11227 net.cpp:397] rpn_relu/3x3 -> rpn/output (in-place)
02-26 17:18:09.206 11227 11227 I caffe_jni: I0226 17:18:09.206940 11227 net.cpp:152] Setting up rpn_relu/3x3
02-26 17:18:09.206 11227 11227 I caffe_jni: I0226 17:18:09.206965 11227 net.cpp:159] Top shape: 1 512 14 14 (100352)
02-26 17:18:09.206 11227 11227 I caffe_jni: I0226 17:18:09.206991 11227 net.cpp:167] Memory required for data: 267137036
02-26 17:18:09.207 11227 11227 I caffe_jni: I0226 17:18:09.207016 11227 layer_factory.hpp:77] Creating layer rpn/output_rpn_relu/3x3_0_split
02-26 17:18:09.207 11227 11227 I caffe_jni: I0226 17:18:09.207048 11227 net.cpp:102] Creating Layer rpn/output_rpn_relu/3x3_0_split
02-26 17:18:09.207 11227 11227 I caffe_jni: I0226 17:18:09.207072 11227 net.cpp:436] rpn/output_rpn_relu/3x3_0_split <- rpn/output
02-26 17:18:09.207 11227 11227 I caffe_jni: I0226 17:18:09.207096 11227 net.cpp:410] rpn/output_rpn_relu/3x3_0_split -> rpn/output_rpn_relu/3x3_0_split_0
02-26 17:18:09.207 11227 11227 I caffe_jni: I0226 17:18:09.207132 11227 net.cpp:410] rpn/output_rpn_relu/3x3_0_split -> rpn/output_rpn_relu/3x3_0_split_1
02-26 17:18:09.207 11227 11227 I caffe_jni: I0226 17:18:09.207168 11227 net.cpp:152] Setting up rpn/output_rpn_relu/3x3_0_split
02-26 17:18:09.207 11227 11227 I caffe_jni: I0226 17:18:09.207191 11227 net.cpp:159] Top shape: 1 512 14 14 (100352)
02-26 17:18:09.207 11227 11227 I caffe_jni: I0226 17:18:09.207216 11227 net.cpp:159] Top shape: 1 512 14 14 (100352)
02-26 17:18:09.207 11227 11227 I caffe_jni: I0226 17:18:09.207240 11227 net.cpp:167] Memory required for data: 267939852
02-26 17:18:09.207 11227 11227 I caffe_jni: I0226 17:18:09.207263 11227 layer_factory.hpp:77] Creating layer rpn_cls_score
02-26 17:18:09.207 11227 11227 I caffe_jni: I0226 17:18:09.207306 11227 net.cpp:102] Creating Layer rpn_cls_score
02-26 17:18:09.207 11227 11227 I caffe_jni: I0226 17:18:09.207331 11227 net.cpp:436] rpn_cls_score <- rpn/output_rpn_relu/3x3_0_split_0
02-26 17:18:09.207 11227 11227 I caffe_jni: I0226 17:18:09.207362 11227 net.cpp:410] rpn_cls_score -> rpn_cls_score
02-26 17:18:09.208 11227 11227 I caffe_jni: I0226 17:18:09.208642 11227 net.cpp:152] Setting up rpn_cls_score
02-26 17:18:09.208 11227 11227 I caffe_jni: I0226 17:18:09.208674 11227 net.cpp:159] Top shape: 1 18 14 14 (3528)
02-26 17:18:09.208 11227 11227 I caffe_jni: I0226 17:18:09.208701 11227 net.cpp:167] Memory required for data: 267953964
02-26 17:18:09.208 11227 11227 I caffe_jni: I0226 17:18:09.208732 11227 layer_factory.hpp:77] Creating layer rpn_bbox_pred
02-26 17:18:09.208 11227 11227 I caffe_jni: I0226 17:18:09.208767 11227 net.cpp:102] Creating Layer rpn_bbox_pred
02-26 17:18:09.208 11227 11227 I caffe_jni: I0226 17:18:09.208794 11227 net.cpp:436] rpn_bbox_pred <- rpn/output_rpn_relu/3x3_0_split_1
02-26 17:18:09.208 11227 11227 I caffe_jni: I0226 17:18:09.208822 11227 net.cpp:410] rpn_bbox_pred -> rpn_bbox_pred
02-26 17:18:09.211 11227 11227 I caffe_jni: I0226 17:18:09.211330 11227 net.cpp:152] Setting up rpn_bbox_pred
02-26 17:18:09.211 11227 11227 I caffe_jni: I0226 17:18:09.211369 11227 net.cpp:159] Top shape: 1 36 14 14 (7056)
02-26 17:18:09.211 11227 11227 I caffe_jni: I0226 17:18:09.211396 11227 net.cpp:167] Memory required for data: 267982188
02-26 17:18:09.211 11227 11227 I caffe_jni: I0226 17:18:09.211426 11227 layer_factory.hpp:77] Creating layer rpn_cls_score_reshape
02-26 17:18:09.211 11227 11227 I caffe_jni: I0226 17:18:09.211483 11227 net.cpp:102] Creating Layer rpn_cls_score_reshape
02-26 17:18:09.211 11227 11227 I caffe_jni: I0226 17:18:09.211506 11227 net.cpp:436] rpn_cls_score_reshape <- rpn_cls_score
02-26 17:18:09.211 11227 11227 I caffe_jni: I0226 17:18:09.211534 11227 net.cpp:410] rpn_cls_score_reshape -> rpn_cls_score_reshape
02-26 17:18:09.211 11227 11227 I caffe_jni: I0226 17:18:09.211577 11227 net.cpp:152] Setting up rpn_cls_score_reshape
02-26 17:18:09.211 11227 11227 I caffe_jni: I0226 17:18:09.211602 11227 net.cpp:159] Top shape: 1 2 126 14 (3528)
02-26 17:18:09.211 11227 11227 I caffe_jni: I0226 17:18:09.211628 11227 net.cpp:167] Memory required for data: 267996300
02-26 17:18:09.211 11227 11227 I caffe_jni: I0226 17:18:09.211652 11227 layer_factory.hpp:77] Creating layer rpn_cls_prob
02-26 17:18:09.211 11227 11227 I caffe_jni: I0226 17:18:09.211681 11227 net.cpp:102] Creating Layer rpn_cls_prob
02-26 17:18:09.211 11227 11227 I caffe_jni: I0226 17:18:09.211705 11227 net.cpp:436] rpn_cls_prob <- rpn_cls_score_reshape
02-26 17:18:09.211 11227 11227 I caffe_jni: I0226 17:18:09.211731 11227 net.cpp:410] rpn_cls_prob -> rpn_cls_prob
02-26 17:18:09.211 11227 11227 I caffe_jni: I0226 17:18:09.211769 11227 net.cpp:152] Setting up rpn_cls_prob
02-26 17:18:09.211 11227 11227 I caffe_jni: I0226 17:18:09.211794 11227 net.cpp:159] Top shape: 1 2 126 14 (3528)
02-26 17:18:09.211 11227 11227 I caffe_jni: I0226 17:18:09.211822 11227 net.cpp:167] Memory required for data: 268010412
02-26 17:18:09.211 11227 11227 I caffe_jni: I0226 17:18:09.211844 11227 layer_factory.hpp:77] Creating layer rpn_cls_prob_reshape
02-26 17:18:09.211 11227 11227 I caffe_jni: I0226 17:18:09.211876 11227 net.cpp:102] Creating Layer rpn_cls_prob_reshape
02-26 17:18:09.211 11227 11227 I caffe_jni: I0226 17:18:09.211900 11227 net.cpp:436] rpn_cls_prob_reshape <- rpn_cls_prob
02-26 17:18:09.211 11227 11227 I caffe_jni: I0226 17:18:09.211927 11227 net.cpp:410] rpn_cls_prob_reshape -> rpn_cls_prob_reshape
02-26 17:18:09.211 11227 11227 I caffe_jni: I0226 17:18:09.211961 11227 net.cpp:152] Setting up rpn_cls_prob_reshape
02-26 17:18:09.211 11227 11227 I caffe_jni: I0226 17:18:09.211983 11227 net.cpp:159] Top shape: 1 18 14 14 (3528)
02-26 17:18:09.212 11227 11227 I caffe_jni: I0226 17:18:09.212008 11227 net.cpp:167] Memory required for data: 268024524
02-26 17:18:09.212 11227 11227 I caffe_jni: I0226 17:18:09.212030 11227 layer_factory.hpp:77] Creating layer proposal
02-26 17:18:09.212 11227 11227 I caffe_jni: I0226 17:18:09.212064 11227 net.cpp:102] Creating Layer proposal
02-26 17:18:09.212 11227 11227 I caffe_jni: I0226 17:18:09.212087 11227 net.cpp:436] proposal <- rpn_cls_prob_reshape
02-26 17:18:09.212 11227 11227 I caffe_jni: I0226 17:18:09.212115 11227 net.cpp:436] proposal <- rpn_bbox_pred
02-26 17:18:09.212 11227 11227 I caffe_jni: I0226 17:18:09.212141 11227 net.cpp:436] proposal <- im_info
02-26 17:18:09.212 11227 11227 I caffe_jni: I0226 17:18:09.212168 11227 net.cpp:410] proposal -> rois
02-26 17:18:09.212 11227 11227 I caffe_jni: I0226 17:18:09.212203 11227 net.cpp:152] Setting up proposal
02-26 17:18:09.212 11227 11227 I caffe_jni: I0226 17:18:09.212226 11227 net.cpp:159] Top shape: 300 5 1 1 (1500)
02-26 17:18:09.212 11227 11227 I caffe_jni: I0226 17:18:09.212252 11227 net.cpp:167] Memory required for data: 268030524
02-26 17:18:09.212 11227 11227 I caffe_jni: I0226 17:18:09.212278 11227 layer_factory.hpp:77] Creating layer rois_proposal_0_split
02-26 17:18:09.212 11227 11227 I caffe_jni: I0226 17:18:09.212307 11227 net.cpp:102] Creating Layer rois_proposal_0_split
02-26 17:18:09.212 11227 11227 I caffe_jni: I0226 17:18:09.212332 11227 net.cpp:436] rois_proposal_0_split <- rois
02-26 17:18:09.212 11227 11227 I caffe_jni: I0226 17:18:09.212361 11227 net.cpp:410] rois_proposal_0_split -> rois_proposal_0_split_0
02-26 17:18:09.212 11227 11227 I caffe_jni: I0226 17:18:09.212390 11227 net.cpp:410] rois_proposal_0_split -> rois_proposal_0_split_1
02-26 17:18:09.212 11227 11227 I caffe_jni: I0226 17:18:09.212424 11227 net.cpp:152] Setting up rois_proposal_0_split
02-26 17:18:09.212 11227 11227 I caffe_jni: I0226 17:18:09.212447 11227 net.cpp:159] Top shape: 300 5 1 1 (1500)
02-26 17:18:09.212 11227 11227 I caffe_jni: I0226 17:18:09.212472 11227 net.cpp:159] Top shape: 300 5 1 1 (1500)
02-26 17:18:09.212 11227 11227 I caffe_jni: I0226 17:18:09.212496 11227 net.cpp:167] Memory required for data: 268042524
02-26 17:18:09.212 11227 11227 I caffe_jni: I0226 17:18:09.212519 11227 layer_factory.hpp:77] Creating layer conv_new_1
02-26 17:18:09.212 11227 11227 I caffe_jni: I0226 17:18:09.212550 11227 net.cpp:102] Creating Layer conv_new_1
02-26 17:18:09.212 11227 11227 I caffe_jni: I0226 17:18:09.212577 11227 net.cpp:436] conv_new_1 <- res5c
…
02-26 17:18:09.586  1256  1586 D PMS10019: package:com.android.email, input flags:1, output hwFlags:0
02-26 17:18:09.586  1256  1586 D PMS10019: package:com.android.exchange, input flags:1, output hwFlags:0
02-26 17:18:09.586  1256  1586 D PMS10019: package:com.google.android.gm, input flags:1, output is null
02-26 17:18:09.586  1256  1586 W HwAlarmManagerService: isContainsAppUidInWorksource-->happend NameNotFoundException
02-26 17:18:09.627 11227 11227 I caffe_jni: I0226 17:18:09.627264 11227 net.cpp:152] Setting up rfcn_cls
02-26 17:18:09.627 11227 11227 I caffe_jni: I0226 17:18:09.627470 11227 net.cpp:159] Top shape: 1 1029 14 14 (201684)
02-26 17:18:09.627 11227 11227 I caffe_jni: I0226 17:18:09.627514 11227 net.cpp:167] Memory required for data: 272060524
02-26 17:18:09.627 11227 11227 I caffe_jni: I0226 17:18:09.627557 11227 layer_factory.hpp:77] Creating layer rfcn_bbox
02-26 17:18:09.627 11227 11227 I caffe_jni: I0226 17:18:09.627638 11227 net.cpp:102] Creating Layer rfcn_bbox
02-26 17:18:09.627 11227 11227 I caffe_jni: I0226 17:18:09.627672 11227 net.cpp:436] rfcn_bbox <- conv_new_1_conv_new_1_relu_0_split_1
02-26 17:18:09.627 11227 11227 I caffe_jni: I0226 17:18:09.627722 11227 net.cpp:410] rfcn_bbox -> rfcn_bbox
02-26 17:18:09.680 11227 11227 I caffe_jni: I0226 17:18:09.680460 11227 net.cpp:152] Setting up rfcn_bbox
02-26 17:18:09.680 11227 11227 I caffe_jni: I0226 17:18:09.680608 11227 net.cpp:159] Top shape: 1 392 14 14 (76832)
02-26 17:18:09.680 11227 11227 I caffe_jni: I0226 17:18:09.680655 11227 net.cpp:167] Memory required for data: 272367852
02-26 17:18:09.680 11227 11227 I caffe_jni: I0226 17:18:09.680703 11227 layer_factory.hpp:77] Creating layer psroipooled_cls_rois
02-26 17:18:09.680 11227 11227 I caffe_jni: I0226 17:18:09.680773 11227 net.cpp:102] Creating Layer psroipooled_cls_rois
02-26 17:18:09.680 11227 11227 I caffe_jni: I0226 17:18:09.680807 11227 net.cpp:436] psroipooled_cls_rois <- rfcn_cls
02-26 17:18:09.680 11227 11227 I caffe_jni: I0226 17:18:09.680838 11227 net.cpp:436] psroipooled_cls_rois <- rois_proposal_0_split_0
02-26 17:18:09.680 11227 11227 I caffe_jni: I0226 17:18:09.680876 11227 net.cpp:410] psroipooled_cls_rois -> psroipooled_cls_rois
02-26 17:18:09.680 11227 11227 I caffe_jni: I0226 17:18:09.680920 11227 psroi_pooling_layer.cpp:28] Spatial scale: 0.0625
02-26 17:18:09.681 11227 11227 I caffe_jni: I0226 17:18:09.681001 11227 psroi_pooling_layer.cpp:44] psroipooling reshape
02-26 17:18:09.681 11227 11227 I caffe_jni: I0226 17:18:09.681044 11227 net.cpp:152] Setting up psroipooled_cls_rois
02-26 17:18:09.681 11227 11227 I caffe_jni: I0226 17:18:09.681084 11227 net.cpp:159] Top shape: 300 21 7 7 (308700)
02-26 17:18:09.681 11227 11227 I caffe_jni: I0226 17:18:09.681126 11227 net.cpp:167] Memory required for data: 273602652
02-26 17:18:09.681 11227 11227 I caffe_jni: I0226 17:18:09.681152 11227 layer_factory.hpp:77] Creating layer ave_cls_score_rois
02-26 17:18:09.681 11227 11227 I caffe_jni: I0226 17:18:09.681185 11227 net.cpp:102] Creating Layer ave_cls_score_rois
02-26 17:18:09.681 11227 11227 I caffe_jni: I0226 17:18:09.681207 11227 net.cpp:436] ave_cls_score_rois <- psroipooled_cls_rois
02-26 17:18:09.681 11227 11227 I caffe_jni: I0226 17:18:09.681238 11227 net.cpp:410] ave_cls_score_rois -> cls_score
02-26 17:18:09.681 11227 11227 I caffe_jni: I0226 17:18:09.681273 11227 net.cpp:152] Setting up ave_cls_score_rois
02-26 17:18:09.681 11227 11227 I caffe_jni: I0226 17:18:09.681301 11227 net.cpp:159] Top shape: 300 21 1 1 (6300)
02-26 17:18:09.681 11227 11227 I caffe_jni: I0226 17:18:09.681339 11227 net.cpp:167] Memory required for data: 273627852
02-26 17:18:09.681 11227 11227 I caffe_jni: I0226 17:18:09.681360 11227 layer_factory.hpp:77] Creating layer psroipooled_loc_rois
02-26 17:18:09.681 11227 11227 I caffe_jni: I0226 17:18:09.681392 11227 net.cpp:102] Creating Layer psroipooled_loc_rois
02-26 17:18:09.681 11227 11227 I caffe_jni: I0226 17:18:09.681416 11227 net.cpp:436] psroipooled_loc_rois <- rfcn_bbox
02-26 17:18:09.681 11227 11227 I caffe_jni: I0226 17:18:09.681440 11227 net.cpp:436] psroipooled_loc_rois <- rois_proposal_0_split_1
02-26 17:18:09.681 11227 11227 I caffe_jni: I0226 17:18:09.681473 11227 net.cpp:410] psroipooled_loc_rois -> psroipooled_loc_rois
02-26 17:18:09.681 11227 11227 I caffe_jni: I0226 17:18:09.681512 11227 psroi_pooling_layer.cpp:28] Spatial scale: 0.0625
02-26 17:18:09.681 11227 11227 I caffe_jni: I0226 17:18:09.681541 11227 psroi_pooling_layer.cpp:44] psroipooling reshape
02-26 17:18:09.681 11227 11227 I caffe_jni: I0226 17:18:09.681567 11227 net.cpp:152] Setting up psroipooled_loc_rois
02-26 17:18:09.681 11227 11227 I caffe_jni: I0226 17:18:09.681588 11227 net.cpp:159] Top shape: 300 8 7 7 (117600)
02-26 17:18:09.681 11227 11227 I caffe_jni: I0226 17:18:09.681610 11227 net.cpp:167] Memory required for data: 274098252
02-26 17:18:09.681 11227 11227 I caffe_jni: I0226 17:18:09.681634 11227 layer_factory.hpp:77] Creating layer ave_bbox_pred_rois
02-26 17:18:09.681 11227 11227 I caffe_jni: I0226 17:18:09.681661 11227 net.cpp:102] Creating Layer ave_bbox_pred_rois
02-26 17:18:09.681 11227 11227 I caffe_jni: I0226 17:18:09.681689 11227 net.cpp:436] ave_bbox_pred_rois <- psroipooled_loc_rois
02-26 17:18:09.681 11227 11227 I caffe_jni: I0226 17:18:09.681726 11227 net.cpp:410] ave_bbox_pred_rois -> bbox_pred_pre
02-26 17:18:09.681 11227 11227 I caffe_jni: I0226 17:18:09.681757 11227 net.cpp:152] Setting up ave_bbox_pred_rois
02-26 17:18:09.681 11227 11227 I caffe_jni: I0226 17:18:09.681780 11227 net.cpp:159] Top shape: 300 8 1 1 (2400)
02-26 17:18:09.681 11227 11227 I caffe_jni: I0226 17:18:09.681805 11227 net.cpp:167] Memory required for data: 274107852
02-26 17:18:09.681 11227 11227 I caffe_jni: I0226 17:18:09.681828 11227 layer_factory.hpp:77] Creating layer cls_prob
02-26 17:18:09.681 11227 11227 I caffe_jni: I0226 17:18:09.681859 11227 net.cpp:102] Creating Layer cls_prob
02-26 17:18:09.681 11227 11227 I caffe_jni: I0226 17:18:09.681887 11227 net.cpp:436] cls_prob <- cls_score
02-26 17:18:09.681 11227 11227 I caffe_jni: I0226 17:18:09.681931 11227 net.cpp:410] cls_prob -> cls_prob_pre
02-26 17:18:09.681 11227 11227 I caffe_jni: I0226 17:18:09.681967 11227 net.cpp:152] Setting up cls_prob
02-26 17:18:09.682 11227 11227 I caffe_jni: I0226 17:18:09.681991 11227 net.cpp:159] Top shape: 300 21 1 1 (6300)
02-26 17:18:09.682 11227 11227 I caffe_jni: I0226 17:18:09.682019 11227 net.cpp:167] Memory required for data: 274133052
02-26 17:18:09.682 11227 11227 I caffe_jni: I0226 17:18:09.682042 11227 layer_factory.hpp:77] Creating layer cls_prob_reshape
02-26 17:18:09.682 11227 11227 I caffe_jni: I0226 17:18:09.682075 11227 net.cpp:102] Creating Layer cls_prob_reshape
02-26 17:18:09.682 11227 11227 I caffe_jni: I0226 17:18:09.682097 11227 net.cpp:436] cls_prob_reshape <- cls_prob_pre
02-26 17:18:09.682 11227 11227 I caffe_jni: I0226 17:18:09.682130 11227 net.cpp:410] cls_prob_reshape -> cls_prob
02-26 17:18:09.682 11227 11227 I caffe_jni: I0226 17:18:09.682184 11227 net.cpp:152] Setting up cls_prob_reshape
02-26 17:18:09.682 11227 11227 I caffe_jni: I0226 17:18:09.682206 11227 net.cpp:159] Top shape: 300 21 (6300)
02-26 17:18:09.682 11227 11227 I caffe_jni: I0226 17:18:09.682231 11227 net.cpp:167] Memory required for data: 274158252
02-26 17:18:09.682 11227 11227 I caffe_jni: I0226 17:18:09.682252 11227 layer_factory.hpp:77] Creating layer bbox_pred_reshape
02-26 17:18:09.682 11227 11227 I caffe_jni: I0226 17:18:09.682281 11227 net.cpp:102] Creating Layer bbox_pred_reshape
02-26 17:18:09.682 11227 11227 I caffe_jni: I0226 17:18:09.682303 11227 net.cpp:436] bbox_pred_reshape <- bbox_pred_pre
02-26 17:18:09.682 11227 11227 I caffe_jni: I0226 17:18:09.682334 11227 net.cpp:410] bbox_pred_reshape -> bbox_pred
02-26 17:18:09.682 11227 11227 I caffe_jni: I0226 17:18:09.682379 11227 net.cpp:152] Setting up bbox_pred_reshape
02-26 17:18:09.682 11227 11227 I caffe_jni: I0226 17:18:09.682404 11227 net.cpp:159] Top shape: 300 8 (2400)
02-26 17:18:09.682 11227 11227 I caffe_jni: I0226 17:18:09.682431 11227 net.cpp:167] Memory required for data: 274167852
02-26 17:18:09.682 11227 11227 I caffe_jni: I0226 17:18:09.682456 11227 net.cpp:230] bbox_pred_reshape does not need backward computation.
02-26 17:18:09.682 11227 11227 I caffe_jni: I0226 17:18:09.682479 11227 net.cpp:230] cls_prob_reshape does not need backward computation.
…
