…
02-28 10:09:25.160  6856  6856 I caffe_jni: I0228 10:09:25.160871  6856 layer_factory.hpp:77] Creating layer res4d_branch2b_relu
02-28 10:09:25.160  6856  6856 I caffe_jni: I0228 10:09:25.160897  6856 net.cpp:102] Creating Layer res4d_branch2b_relu
02-28 10:09:25.160  6856  6856 I caffe_jni: I0228 10:09:25.160914  6856 net.cpp:436] res4d_branch2b_relu <- res4d_branch2b
02-28 10:09:25.160  6856  6856 I caffe_jni: I0228 10:09:25.160935  6856 net.cpp:397] res4d_branch2b_relu -> res4d_branch2b (in-place)
02-28 10:09:25.160  6856  6856 I caffe_jni: I0228 10:09:25.160960  6856 net.cpp:152] Setting up res4d_branch2b_relu
02-28 10:09:25.160  6856  6856 I caffe_jni: I0228 10:09:25.160975  6856 net.cpp:159] Top shape: 1 256 14 14 (50176)
02-28 10:09:25.160  6856  6856 I caffe_jni: I0228 10:09:25.160993  6856 net.cpp:167] Memory required for data: 200503308
02-28 10:09:25.161  6856  6856 I caffe_jni: I0228 10:09:25.161010  6856 layer_factory.hpp:77] Creating layer res4d_branch2c
02-28 10:09:25.161  6856  6856 I caffe_jni: I0228 10:09:25.161031  6856 net.cpp:102] Creating Layer res4d_branch2c
02-28 10:09:25.161  6856  6856 I caffe_jni: I0228 10:09:25.161049  6856 net.cpp:436] res4d_branch2c <- res4d_branch2b
02-28 10:09:25.161  6856  6856 I caffe_jni: I0228 10:09:25.161068  6856 net.cpp:410] res4d_branch2c -> res4d_branch2c
02-28 10:09:25.161  6856  6856 I caffe_jni: I0228 10:09:25.161669  6856 net.cpp:152] Setting up res4d_branch2c
02-28 10:09:25.161  6856  6856 I caffe_jni: I0228 10:09:25.161703  6856 net.cpp:159] Top shape: 1 1024 14 14 (200704)
02-28 10:09:25.161  6856  6856 I caffe_jni: I0228 10:09:25.161725  6856 net.cpp:167] Memory required for data: 201306124
02-28 10:09:25.161  6856  6856 I caffe_jni: I0228 10:09:25.161747  6856 layer_factory.hpp:77] Creating layer bn4d_branch2c
02-28 10:09:25.161  6856  6856 I caffe_jni: I0228 10:09:25.161770  6856 net.cpp:102] Creating Layer bn4d_branch2c
02-28 10:09:25.161  6856  6856 I caffe_jni: I0228 10:09:25.161788  6856 net.cpp:436] bn4d_branch2c <- res4d_branch2c
02-28 10:09:25.161  6856  6856 I caffe_jni: I0228 10:09:25.161808  6856 net.cpp:397] bn4d_branch2c -> res4d_branch2c (in-place)
02-28 10:09:25.161  6856  6856 I caffe_jni: I0228 10:09:25.161851  6856 net.cpp:152] Setting up bn4d_branch2c
02-28 10:09:25.161  6856  6856 I caffe_jni: I0228 10:09:25.161870  6856 net.cpp:159] Top shape: 1 1024 14 14 (200704)
02-28 10:09:25.161  6856  6856 I caffe_jni: I0228 10:09:25.161892  6856 net.cpp:167] Memory required for data: 202108940
02-28 10:09:25.161  6856  6856 I caffe_jni: I0228 10:09:25.161922  6856 layer_factory.hpp:77] Creating layer scale4d_branch2c
02-28 10:09:25.161  6856  6856 I caffe_jni: I0228 10:09:25.161945  6856 net.cpp:102] Creating Layer scale4d_branch2c
02-28 10:09:25.161  6856  6856 I caffe_jni: I0228 10:09:25.161962  6856 net.cpp:436] scale4d_branch2c <- res4d_branch2c
02-28 10:09:25.161  6856  6856 I caffe_jni: I0228 10:09:25.161979  6856 net.cpp:397] scale4d_branch2c -> res4d_branch2c (in-place)
02-28 10:09:25.162  6856  6856 I caffe_jni: I0228 10:09:25.162010  6856 layer_factory.hpp:77] Creating layer scale4d_branch2c
02-28 10:09:25.162  6856  6856 I caffe_jni: I0228 10:09:25.162050  6856 net.cpp:152] Setting up scale4d_branch2c
02-28 10:09:25.162  6856  6856 I caffe_jni: I0228 10:09:25.162071  6856 net.cpp:159] Top shape: 1 1024 14 14 (200704)
02-28 10:09:25.162  6856  6856 I caffe_jni: I0228 10:09:25.162088  6856 net.cpp:167] Memory required for data: 202911756
02-28 10:09:25.162  6856  6856 I caffe_jni: I0228 10:09:25.162108  6856 layer_factory.hpp:77] Creating layer res4d
02-28 10:09:25.162  6856  6856 I caffe_jni: I0228 10:09:25.162158  6856 net.cpp:102] Creating Layer res4d
02-28 10:09:25.162  6856  6856 I caffe_jni: I0228 10:09:25.162175  6856 net.cpp:436] res4d <- res4c_res4c_relu_0_split_1
02-28 10:09:25.162  6856  6856 I caffe_jni: I0228 10:09:25.162192  6856 net.cpp:436] res4d <- res4d_branch2c
02-28 10:09:25.162  6856  6856 I caffe_jni: I0228 10:09:25.162216  6856 net.cpp:410] res4d -> res4d
02-28 10:09:25.162  6856  6856 I caffe_jni: I0228 10:09:25.162243  6856 net.cpp:152] Setting up res4d
02-28 10:09:25.162  6856  6856 I caffe_jni: I0228 10:09:25.162261  6856 net.cpp:159] Top shape: 1 1024 14 14 (200704)
02-28 10:09:25.162  6856  6856 I caffe_jni: I0228 10:09:25.162279  6856 net.cpp:167] Memory required for data: 203714572
02-28 10:09:25.162  6856  6856 I caffe_jni: I0228 10:09:25.162295  6856 layer_factory.hpp:77] Creating layer res4d_relu
02-28 10:09:25.162  6856  6856 I caffe_jni: I0228 10:09:25.162314  6856 net.cpp:102] Creating Layer res4d_relu
02-28 10:09:25.162  6856  6856 I caffe_jni: I0228 10:09:25.162330  6856 net.cpp:436] res4d_relu <- res4d
02-28 10:09:25.162  6856  6856 I caffe_jni: I0228 10:09:25.162351  6856 net.cpp:397] res4d_relu -> res4d (in-place)
02-28 10:09:25.162  6856  6856 I caffe_jni: I0228 10:09:25.162374  6856 net.cpp:152] Setting up res4d_relu
02-28 10:09:25.162  6856  6856 I caffe_jni: I0228 10:09:25.162390  6856 net.cpp:159] Top shape: 1 1024 14 14 (200704)
02-28 10:09:25.162  6856  6856 I caffe_jni: I0228 10:09:25.162407  6856 net.cpp:167] Memory required for data: 204517388
02-28 10:09:25.162  6856  6856 I caffe_jni: I0228 10:09:25.162425  6856 layer_factory.hpp:77] Creating layer res4d_res4d_relu_0_split
02-28 10:09:25.162  6856  6856 I caffe_jni: I0228 10:09:25.162443  6856 net.cpp:102] Creating Layer res4d_res4d_relu_0_split
02-28 10:09:25.162  6856  6856 I caffe_jni: I0228 10:09:25.162461  6856 net.cpp:436] res4d_res4d_relu_0_split <- res4d
02-28 10:09:25.162  6856  6856 I caffe_jni: I0228 10:09:25.162482  6856 net.cpp:410] res4d_res4d_relu_0_split -> res4d_res4d_relu_0_split_0
02-28 10:09:25.162  6856  6856 I caffe_jni: I0228 10:09:25.162510  6856 net.cpp:410] res4d_res4d_relu_0_split -> res4d_res4d_relu_0_split_1
02-28 10:09:25.162  6856  6856 I caffe_jni: I0228 10:09:25.162533  6856 net.cpp:152] Setting up res4d_res4d_relu_0_split
02-28 10:09:25.162  6856  6856 I caffe_jni: I0228 10:09:25.162549  6856 net.cpp:159] Top shape: 1 1024 14 14 (200704)
02-28 10:09:25.162  6856  6856 I caffe_jni: I0228 10:09:25.162565  6856 net.cpp:159] Top shape: 1 1024 14 14 (200704)
02-28 10:09:25.162  6856  6856 I caffe_jni: I0228 10:09:25.162581  6856 net.cpp:167] Memory required for data: 206123020
02-28 10:09:25.162  6856  6856 I caffe_jni: I0228 10:09:25.162596  6856 layer_factory.hpp:77] Creating layer res4e_branch2a
02-28 10:09:25.162  6856  6856 I caffe_jni: I0228 10:09:25.162617  6856 net.cpp:102] Creating Layer res4e_branch2a
02-28 10:09:25.162  6856  6856 I caffe_jni: I0228 10:09:25.162637  6856 net.cpp:436] res4e_branch2a <- res4d_res4d_relu_0_split_0
02-28 10:09:25.162  6856  6856 I caffe_jni: I0228 10:09:25.162662  6856 net.cpp:410] res4e_branch2a -> res4e_branch2a
02-28 10:09:25.163  6856  6856 I caffe_jni: I0228 10:09:25.163252  6856 net.cpp:152] Setting up res4e_branch2a
02-28 10:09:25.163  6856  6856 I caffe_jni: I0228 10:09:25.163288  6856 net.cpp:159] Top shape: 1 256 14 14 (50176)
02-28 10:09:25.163  6856  6856 I caffe_jni: I0228 10:09:25.163314  6856 net.cpp:167] Memory required for data: 206323724
02-28 10:09:25.163  6856  6856 I caffe_jni: I0228 10:09:25.163336  6856 layer_factory.hpp:77] Creating layer bn4e_branch2a
02-28 10:09:25.163  6856  6856 I caffe_jni: I0228 10:09:25.163358  6856 net.cpp:102] Creating Layer bn4e_branch2a
02-28 10:09:25.163  6856  6856 I caffe_jni: I0228 10:09:25.163375  6856 net.cpp:436] bn4e_branch2a <- res4e_branch2a
02-28 10:09:25.163  6856  6856 I caffe_jni: I0228 10:09:25.163394  6856 net.cpp:397] bn4e_branch2a -> res4e_branch2a (in-place)
02-28 10:09:25.163  6856  6856 I caffe_jni: I0228 10:09:25.163436  6856 net.cpp:152] Setting up bn4e_branch2a
02-28 10:09:25.163  6856  6856 I caffe_jni: I0228 10:09:25.163460  6856 net.cpp:159] Top shape: 1 256 14 14 (50176)
02-28 10:09:25.163  6856  6856 I caffe_jni: I0228 10:09:25.163477  6856 net.cpp:167] Memory required for data: 206524428
02-28 10:09:25.163  6856  6856 I caffe_jni: I0228 10:09:25.163501  6856 layer_factory.hpp:77] Creating layer scale4e_branch2a
02-28 10:09:25.163  6856  6856 I caffe_jni: I0228 10:09:25.163522  6856 net.cpp:102] Creating Layer scale4e_branch2a
02-28 10:09:25.163  6856  6856 I caffe_jni: I0228 10:09:25.163542  6856 net.cpp:436] scale4e_branch2a <- res4e_branch2a
02-28 10:09:25.163  6856  6856 I caffe_jni: I0228 10:09:25.163560  6856 net.cpp:397] scale4e_branch2a -> res4e_branch2a (in-place)
02-28 10:09:25.163  6856  6856 I caffe_jni: I0228 10:09:25.163591  6856 layer_factory.hpp:77] Creating layer scale4e_branch2a
02-28 10:09:25.163  6856  6856 I caffe_jni: I0228 10:09:25.163633  6856 net.cpp:152] Setting up scale4e_branch2a
02-28 10:09:25.163  6856  6856 I caffe_jni: I0228 10:09:25.163650  6856 net.cpp:159] Top shape: 1 256 14 14 (50176)
02-28 10:09:25.164   742  1828 D DE N HWC: apply:55: FEATURE_CONTRAST: mEnable=0 enable=0
02-28 10:09:25.164   742  1828 D DE N HWC: apply:55: FEATURE_BLC: mEnable=0 enable=0
02-28 10:09:25.164   742  1828 D DE N ABT: mergeXccOperating:550: Xcc Operation cannot be merged,seg:0,mode:0x1c,datamode:0xffffffff
02-28 10:09:25.164   742  1828 D DE N HWC: apply:55: FEATURE_HUE: mEnable=0 enable=0
…
02-28 10:09:25.164  6856  6856 I caffe_jni: I0228 10:09:25.164345  6856 layer_factory.hpp:77] Creating layer res4e_branch2a_relu
02-28 10:09:25.164  6856  6856 I caffe_jni: I0228 10:09:25.164371  6856 net.cpp:102] Creating Layer res4e_branch2a_relu
02-28 10:09:25.164  6856  6856 I caffe_jni: I0228 10:09:25.164388  6856 net.cpp:436] res4e_branch2a_relu <- res4e_branch2a
02-28 10:09:25.164  6856  6856 I caffe_jni: I0228 10:09:25.164410  6856 net.cpp:397] res4e_branch2a_relu -> res4e_branch2a (in-place)
02-28 10:09:25.164  6856  6856 I caffe_jni: I0228 10:09:25.164438  6856 net.cpp:152] Setting up res4e_branch2a_relu
02-28 10:09:25.164  6856  6856 I caffe_jni: I0228 10:09:25.164463  6856 net.cpp:159] Top shape: 1 256 14 14 (50176)
02-28 10:09:25.164  6856  6856 I caffe_jni: I0228 10:09:25.164480  6856 net.cpp:167] Memory required for data: 206925836
02-28 10:09:25.164  6856  6856 I caffe_jni: I0228 10:09:25.164499  6856 layer_factory.hpp:77] Creating layer res4e_branch2b
02-28 10:09:25.164  6856  6856 I caffe_jni: I0228 10:09:25.164522  6856 net.cpp:102] Creating Layer res4e_branch2b
02-28 10:09:25.164  6856  6856 I caffe_jni: I0228 10:09:25.164538  6856 net.cpp:436] res4e_branch2b <- res4e_branch2a
02-28 10:09:25.164  6856  6856 I caffe_jni: I0228 10:09:25.164561  6856 net.cpp:410] res4e_branch2b -> res4e_branch2b
02-28 10:09:25.165  6856  6856 I caffe_jni: I0228 10:09:25.165803  6856 net.cpp:152] Setting up res4e_branch2b
02-28 10:09:25.165  6856  6856 I caffe_jni: I0228 10:09:25.165889  6856 net.cpp:159] Top shape: 1 256 14 14 (50176)
02-28 10:09:25.165  6856  6856 I caffe_jni: I0228 10:09:25.165926  6856 net.cpp:167] Memory required for data: 207126540
02-28 10:09:25.165  6856  6856 I caffe_jni: I0228 10:09:25.165953  6856 layer_factory.hpp:77] Creating layer bn4e_branch2b
02-28 10:09:25.165  6856  6856 I caffe_jni: I0228 10:09:25.165984  6856 net.cpp:102] Creating Layer bn4e_branch2b
02-28 10:09:25.166  6856  6856 I caffe_jni: I0228 10:09:25.166004  6856 net.cpp:436] bn4e_branch2b <- res4e_branch2b
02-28 10:09:25.166  6856  6856 I caffe_jni: I0228 10:09:25.166033  6856 net.cpp:397] bn4e_branch2b -> res4e_branch2b (in-place)
02-28 10:09:25.166  6856  6856 I caffe_jni: I0228 10:09:25.166103  6856 net.cpp:152] Setting up bn4e_branch2b
02-28 10:09:25.166  6856  6856 I caffe_jni: I0228 10:09:25.166159  6856 net.cpp:159] Top shape: 1 256 14 14 (50176)
02-28 10:09:25.166  6856  6856 I caffe_jni: I0228 10:09:25.166187  6856 net.cpp:167] Memory required for data: 207327244
02-28 10:09:25.166  6856  6856 I caffe_jni: I0228 10:09:25.166218  6856 layer_factory.hpp:77] Creating layer scale4e_branch2b
02-28 10:09:25.166  6856  6856 I caffe_jni: I0228 10:09:25.166244  6856 net.cpp:102] Creating Layer scale4e_branch2b
02-28 10:09:25.166  6856  6856 I caffe_jni: I0228 10:09:25.166265  6856 net.cpp:436] scale4e_branch2b <- res4e_branch2b
02-28 10:09:25.166  6856  6856 I caffe_jni: I0228 10:09:25.166286  6856 net.cpp:397] scale4e_branch2b -> res4e_branch2b (in-place)
02-28 10:09:25.166  6856  6856 I caffe_jni: I0228 10:09:25.166326  6856 layer_factory.hpp:77] Creating layer scale4e_branch2b
02-28 10:09:25.166  6856  6856 I caffe_jni: I0228 10:09:25.166364  6856 net.cpp:152] Setting up scale4e_branch2b
02-28 10:09:25.166  6856  6856 I caffe_jni: I0228 10:09:25.166386  6856 net.cpp:159] Top shape: 1 256 14 14 (50176)
02-28 10:09:25.166  6856  6856 I caffe_jni: I0228 10:09:25.166405  6856 net.cpp:167] Memory required for data: 207527948
02-28 10:09:25.166  6856  6856 I caffe_jni: I0228 10:09:25.166425  6856 layer_factory.hpp:77] Creating layer res4e_branch2b_relu
02-28 10:09:25.166  6856  6856 I caffe_jni: I0228 10:09:25.166447  6856 net.cpp:102] Creating Layer res4e_branch2b_relu
02-28 10:09:25.166  6856  6856 I caffe_jni: I0228 10:09:25.166465  6856 net.cpp:436] res4e_branch2b_relu <- res4e_branch2b
02-28 10:09:25.166  6856  6856 I caffe_jni: I0228 10:09:25.166483  6856 net.cpp:397] res4e_branch2b_relu -> res4e_branch2b (in-place)
02-28 10:09:25.166  6856  6856 I caffe_jni: I0228 10:09:25.166507  6856 net.cpp:152] Setting up res4e_branch2b_relu
02-28 10:09:25.166  6856  6856 I caffe_jni: I0228 10:09:25.166528  6856 net.cpp:159] Top shape: 1 256 14 14 (50176)
02-28 10:09:25.166  6856  6856 I caffe_jni: I0228 10:09:25.166546  6856 net.cpp:167] Memory required for data: 207728652
02-28 10:09:25.166  6856  6856 I caffe_jni: I0228 10:09:25.166561  6856 layer_factory.hpp:77] Creating layer res4e_branch2c
02-28 10:09:25.166  6856  6856 I caffe_jni: I0228 10:09:25.166591  6856 net.cpp:102] Creating Layer res4e_branch2c
02-28 10:09:25.166  6856  6856 I caffe_jni: I0228 10:09:25.166610  6856 net.cpp:436] res4e_branch2c <- res4e_branch2b
02-28 10:09:25.166  6856  6856 I caffe_jni: I0228 10:09:25.166630  6856 net.cpp:410] res4e_branch2c -> res4e_branch2c
02-28 10:09:25.167  6856  6856 I caffe_jni: I0228 10:09:25.167232  6856 net.cpp:152] Setting up res4e_branch2c
02-28 10:09:25.167  6856  6856 I caffe_jni: I0228 10:09:25.167268  6856 net.cpp:159] Top shape: 1 1024 14 14 (200704)
02-28 10:09:25.167  6856  6856 I caffe_jni: I0228 10:09:25.167299  6856 net.cpp:167] Memory required for data: 208531468
02-28 10:09:25.167  6856  6856 I caffe_jni: I0228 10:09:25.167321  6856 layer_factory.hpp:77] Creating layer bn4e_branch2c
02-28 10:09:25.167  6856  6856 I caffe_jni: I0228 10:09:25.167346  6856 net.cpp:102] Creating Layer bn4e_branch2c
02-28 10:09:25.167  6856  6856 I caffe_jni: I0228 10:09:25.167368  6856 net.cpp:436] bn4e_branch2c <- res4e_branch2c
02-28 10:09:25.167  6856  6856 I caffe_jni: I0228 10:09:25.167402  6856 net.cpp:397] bn4e_branch2c -> res4e_branch2c (in-place)
02-28 10:09:25.167  6856  6856 I caffe_jni: I0228 10:09:25.167445  6856 net.cpp:152] Setting up bn4e_branch2c
02-28 10:09:25.167  6856  6856 I caffe_jni: I0228 10:09:25.167462  6856 net.cpp:159] Top shape: 1 1024 14 14 (200704)
02-28 10:09:25.167  6856  6856 I caffe_jni: I0228 10:09:25.167480  6856 net.cpp:167] Memory required for data: 209334284
02-28 10:09:25.167  6856  6856 I caffe_jni: I0228 10:09:25.167506  6856 layer_factory.hpp:77] Creating layer scale4e_branch2c
02-28 10:09:25.167  6856  6856 I caffe_jni: I0228 10:09:25.167533  6856 net.cpp:102] Creating Layer scale4e_branch2c
02-28 10:09:25.167  6856  6856 I caffe_jni: I0228 10:09:25.167551  6856 net.cpp:436] scale4e_branch2c <- res4e_branch2c
02-28 10:09:25.167  6856  6856 I caffe_jni: I0228 10:09:25.167569  6856 net.cpp:397] scale4e_branch2c -> res4e_branch2c (in-place)
02-28 10:09:25.167  6856  6856 I caffe_jni: I0228 10:09:25.167598  6856 layer_factory.hpp:77] Creating layer scale4e_branch2c
02-28 10:09:25.167  6856  6856 I caffe_jni: I0228 10:09:25.167639  6856 net.cpp:152] Setting up scale4e_branch2c
02-28 10:09:25.167  6856  6856 I caffe_jni: I0228 10:09:25.167661  6856 net.cpp:159] Top shape: 1 1024 14 14 (200704)
02-28 10:09:25.167  6856  6856 I caffe_jni: I0228 10:09:25.167680  6856 net.cpp:167] Memory required for data: 210137100
02-28 10:09:25.167  6856  6856 I caffe_jni: I0228 10:09:25.167701  6856 layer_factory.hpp:77] Creating layer res4e
02-28 10:09:25.167  6856  6856 I caffe_jni: I0228 10:09:25.167722  6856 net.cpp:102] Creating Layer res4e
02-28 10:09:25.167  6856  6856 I caffe_jni: I0228 10:09:25.167740  6856 net.cpp:436] res4e <- res4d_res4d_relu_0_split_1
02-28 10:09:25.167  6856  6856 I caffe_jni: I0228 10:09:25.167757  6856 net.cpp:436] res4e <- res4e_branch2c
02-28 10:09:25.167  6856  6856 I caffe_jni: I0228 10:09:25.167778  6856 net.cpp:410] res4e -> res4e
02-28 10:09:25.167  6856  6856 I caffe_jni: I0228 10:09:25.167809  6856 net.cpp:152] Setting up res4e
02-28 10:09:25.167  6856  6856 I caffe_jni: I0228 10:09:25.167825  6856 net.cpp:159] Top shape: 1 1024 14 14 (200704)
02-28 10:09:25.167  6856  6856 I caffe_jni: I0228 10:09:25.167845  6856 net.cpp:167] Memory required for data: 210939916
02-28 10:09:25.167  6856  6856 I caffe_jni: I0228 10:09:25.167861  6856 layer_factory.hpp:77] Creating layer res4e_relu
02-28 10:09:25.167  6856  6856 I caffe_jni: I0228 10:09:25.167879  6856 net.cpp:102] Creating Layer res4e_relu
02-28 10:09:25.167  6856  6856 I caffe_jni: I0228 10:09:25.167898  6856 net.cpp:436] res4e_relu <- res4e
02-28 10:09:25.167  6856  6856 I caffe_jni: I0228 10:09:25.167919  6856 net.cpp:397] res4e_relu -> res4e (in-place)
02-28 10:09:25.167  6856  6856 I caffe_jni: I0228 10:09:25.167939  6856 net.cpp:152] Setting up res4e_relu
02-28 10:09:25.167  6856  6856 I caffe_jni: I0228 10:09:25.167955  6856 net.cpp:159] Top shape: 1 1024 14 14 (200704)
02-28 10:09:25.167  6856  6856 I caffe_jni: I0228 10:09:25.167973  6856 net.cpp:167] Memory required for data: 211742732
02-28 10:09:25.167  6856  6856 I caffe_jni: I0228 10:09:25.167989  6856 layer_factory.hpp:77] Creating layer res4e_res4e_relu_0_split
02-28 10:09:25.168  6856  6856 I caffe_jni: I0228 10:09:25.168006  6856 net.cpp:102] Creating Layer res4e_res4e_relu_0_split
02-28 10:09:25.168  6856  6856 I caffe_jni: I0228 10:09:25.168023  6856 net.cpp:436] res4e_res4e_relu_0_split <- res4e
02-28 10:09:25.168  6856  6856 I caffe_jni: I0228 10:09:25.168043  6856 net.cpp:410] res4e_res4e_relu_0_split -> res4e_res4e_relu_0_split_0
02-28 10:09:25.168  6856  6856 I caffe_jni: I0228 10:09:25.168068  6856 net.cpp:410] res4e_res4e_relu_0_split -> res4e_res4e_relu_0_split_1
02-28 10:09:25.168  6856  6856 I caffe_jni: I0228 10:09:25.168092  6856 net.cpp:152] Setting up res4e_res4e_relu_0_split
02-28 10:09:25.168  6856  6856 I caffe_jni: I0228 10:09:25.168107  6856 net.cpp:159] Top shape: 1 1024 14 14 (200704)
02-28 10:09:25.168  6856  6856 I caffe_jni: I0228 10:09:25.168126  6856 net.cpp:159] Top shape: 1 1024 14 14 (200704)
02-28 10:09:25.168  6856  6856 I caffe_jni: I0228 10:09:25.168143  6856 net.cpp:167] Memory required for data: 213348364
02-28 10:09:25.168  6856  6856 I caffe_jni: I0228 10:09:25.168159  6856 layer_factory.hpp:77] Creating layer res4f_branch2a
02-28 10:09:25.168  6856  6856 I caffe_jni: I0228 10:09:25.168181  6856 net.cpp:102] Creating Layer res4f_branch2a
02-28 10:09:25.168  6856  6856 I caffe_jni: I0228 10:09:25.168202  6856 net.cpp:436] res4f_branch2a <- res4e_res4e_relu_0_split_0
02-28 10:09:25.168  6856  6856 I caffe_jni: I0228 10:09:25.168220  6856 net.cpp:410] res4f_branch2a -> res4f_branch2a
02-28 10:09:25.168  2004  2004 W HwKeyguardBottomArea: KG_FDT mShowIndicationRunner
02-28 10:09:25.168  2004  2004 W LockIcon: hideView: false
02-28 10:09:25.168  6856  6856 I caffe_jni: I0228 10:09:25.168799  6856 net.cpp:152] Setting up res4f_branch2a
02-28 10:09:25.168  6856  6856 I caffe_jni: I0228 10:09:25.168831  6856 net.cpp:159] Top shape: 1 256 14 14 (50176)
02-28 10:09:25.168  2004  2004 D TimeKeeper: getTimeTickInfo:[mMillisUntilFinished:0, mHour:0, mMinute:0, mSecond:0]
02-28 10:09:25.168  6856  6856 I caffe_jni: I0228 10:09:25.168851  6856 net.cpp:167] Memory required for data: 213549068
02-28 10:09:25.168  6856  6856 I caffe_jni: I0228 10:09:25.168872  6856 layer_factory.hpp:77] Creating layer bn4f_branch2a
02-28 10:09:25.168  2004  2004 E KeyguardUpdateMonitor: isSimPinSecure mSimDatas is null or empty 
02-28 10:09:25.168  6856  6856 I caffe_jni: I0228 10:09:25.168895  6856 net.cpp:102] Creating Layer bn4f_branch2a
02-28 10:09:25.168  6856  6856 I caffe_jni: I0228 10:09:25.168913  6856 net.cpp:436] bn4f_branch2a <- res4f_branch2a
02-28 10:09:25.168  6856  6856 I caffe_jni: I0228 10:09:25.168932  6856 net.cpp:397] bn4f_branch2a -> res4f_branch2a (in-place)
02-28 10:09:25.168  2004  2004 D TimeKeeper: getTimeTickInfo:[mMillisUntilFinished:0, mHour:0, mMinute:0, mSecond:0]
02-28 10:09:25.168  6856  6856 I caffe_jni: I0228 10:09:25.168972  6856 net.cpp:152] Setting up bn4f_branch2a
02-28 10:09:25.168  6856  6856 I caffe_jni: I0228 10:09:25.168992  6856 net.cpp:159] Top shape: 1 256 14 14 (50176)
02-28 10:09:25.169  6856  6856 I caffe_jni: I0228 10:09:25.169011  6856 net.cpp:167] Memory required for data: 213749772
02-28 10:09:25.169  6856  6856 I caffe_jni: I0228 10:09:25.169034  6856 layer_factory.hpp:77] Creating layer scale4f_branch2a
02-28 10:09:25.169  6856  6856 I caffe_jni: I0228 10:09:25.169054  6856 net.cpp:102] Creating Layer scale4f_branch2a
02-28 10:09:25.169  6856  6856 I caffe_jni: I0228 10:09:25.169071  6856 net.cpp:436] scale4f_branch2a <- res4f_branch2a
02-28 10:09:25.169  6856  6856 I caffe_jni: I0228 10:09:25.169090  6856 net.cpp:397] scale4f_branch2a -> res4f_branch2a (in-place)
02-28 10:09:25.169  6856  6856 I caffe_jni: I0228 10:09:25.169121  6856 layer_factory.hpp:77] Creating layer scale4f_branch2a
02-28 10:09:25.169  6856  6856 I caffe_jni: I0228 10:09:25.169162  6856 net.cpp:152] Setting up scale4f_branch2a
02-28 10:09:25.169  6856  6856 I caffe_jni: I0228 10:09:25.169179  6856 net.cpp:159] Top shape: 1 256 14 14 (50176)
02-28 10:09:25.169  6856  6856 I caffe_jni: I0228 10:09:25.169198  6856 net.cpp:167] Memory required for data: 213950476
02-28 10:09:25.169  6856  6856 I caffe_jni: I0228 10:09:25.169217  6856 layer_factory.hpp:77] Creating layer res4f_branch2a_relu
02-28 10:09:25.169  6856  6856 I caffe_jni: I0228 10:09:25.169237  6856 net.cpp:102] Creating Layer res4f_branch2a_relu
02-28 10:09:25.169  6856  6856 I caffe_jni: I0228 10:09:25.169252  6856 net.cpp:436] res4f_branch2a_relu <- res4f_branch2a
02-28 10:09:25.169  6856  6856 I caffe_jni: I0228 10:09:25.169272  6856 net.cpp:397] res4f_branch2a_relu -> res4f_branch2a (in-place)
02-28 10:09:25.169  6856  6856 I caffe_jni: I0228 10:09:25.169296  6856 net.cpp:152] Setting up res4f_branch2a_relu
02-28 10:09:25.169  6856  6856 I caffe_jni: I0228 10:09:25.169312  6856 net.cpp:159] Top shape: 1 256 14 14 (50176)
02-28 10:09:25.169  6856  6856 I caffe_jni: I0228 10:09:25.169329  6856 net.cpp:167] Memory required for data: 214151180
02-28 10:09:25.169  6856  6856 I caffe_jni: I0228 10:09:25.169345  6856 layer_factory.hpp:77] Creating layer res4f_branch2b
02-28 10:09:25.169  6856  6856 I caffe_jni: I0228 10:09:25.169368  6856 net.cpp:102] Creating Layer res4f_branch2b
02-28 10:09:25.169  6856  6856 I caffe_jni: I0228 10:09:25.169384  6856 net.cpp:436] res4f_branch2b <- res4f_branch2a
02-28 10:09:25.169  6856  6856 I caffe_jni: I0228 10:09:25.169404  6856 net.cpp:410] res4f_branch2b -> res4f_branch2b
02-28 10:09:25.169  2004  2004 W LockIcon: getState 1 <-> 0; fp running false
02-28 10:09:25.169  2004  2004 W LockIcon: getHintTextRes isMethodSecure: false  isUserTrustIsManaged false
02-28 10:09:25.169  2004  2004 W LockIcon: update state skiped 
02-28 10:09:25.170  6856  6856 I caffe_jni: I0228 10:09:25.170682  6856 net.cpp:152] Setting up res4f_branch2b
02-28 10:09:25.170  6856  6856 I caffe_jni: I0228 10:09:25.170764  6856 net.cpp:159] Top shape: 1 256 14 14 (50176)
02-28 10:09:25.170  6856  6856 I caffe_jni: I0228 10:09:25.170792  6856 net.cpp:167] Memory required for data: 214351884
02-28 10:09:25.170  6856  6856 I caffe_jni: I0228 10:09:25.170817  6856 layer_factory.hpp:77] Creating layer bn4f_branch2b
02-28 10:09:25.170  6856  6856 I caffe_jni: I0228 10:09:25.170846  6856 net.cpp:102] Creating Layer bn4f_branch2b
02-28 10:09:25.170  6856  6856 I caffe_jni: I0228 10:09:25.170873  6856 net.cpp:436] bn4f_branch2b <- res4f_branch2b
02-28 10:09:25.170  6856  6856 I caffe_jni: I0228 10:09:25.170902  6856 net.cpp:397] bn4f_branch2b -> res4f_branch2b (in-place)
02-28 10:09:25.170  6856  6856 I caffe_jni: I0228 10:09:25.170945  6856 net.cpp:152] Setting up bn4f_branch2b
02-28 10:09:25.170  6856  6856 I caffe_jni: I0228 10:09:25.170964  6856 net.cpp:159] Top shape: 1 256 14 14 (50176)
02-28 10:09:25.170  6856  6856 I caffe_jni: I0228 10:09:25.170980  6856 net.cpp:167] Memory required for data: 214552588
02-28 10:09:25.171  6856  6856 I caffe_jni: I0228 10:09:25.171005  6856 layer_factory.hpp:77] Creating layer scale4f_branch2b
02-28 10:09:25.171  6856  6856 I caffe_jni: I0228 10:09:25.171026  6856 net.cpp:102] Creating Layer scale4f_branch2b
02-28 10:09:25.171  6856  6856 I caffe_jni: I0228 10:09:25.171046  6856 net.cpp:436] scale4f_branch2b <- res4f_branch2b
02-28 10:09:25.171  6856  6856 I caffe_jni: I0228 10:09:25.171069  6856 net.cpp:397] scale4f_branch2b -> res4f_branch2b (in-place)
02-28 10:09:25.171  6856  6856 I caffe_jni: I0228 10:09:25.171102  6856 layer_factory.hpp:77] Creating layer scale4f_branch2b
02-28 10:09:25.171  6856  6856 I caffe_jni: I0228 10:09:25.171139  6856 net.cpp:152] Setting up scale4f_branch2b
02-28 10:09:25.171  6856  6856 I caffe_jni: I0228 10:09:25.171156  6856 net.cpp:159] Top shape: 1 256 14 14 (50176)
02-28 10:09:25.171  6856  6856 I caffe_jni: I0228 10:09:25.171175  6856 net.cpp:167] Memory required for data: 214753292
02-28 10:09:25.171  6856  6856 I caffe_jni: I0228 10:09:25.171195  6856 layer_factory.hpp:77] Creating layer res4f_branch2b_relu
02-28 10:09:25.171  6856  6856 I caffe_jni: I0228 10:09:25.171216  6856 net.cpp:102] Creating Layer res4f_branch2b_relu
02-28 10:09:25.171  6856  6856 I caffe_jni: I0228 10:09:25.171242  6856 net.cpp:436] res4f_branch2b_relu <- res4f_branch2b
02-28 10:09:25.171  6856  6856 I caffe_jni: I0228 10:09:25.171263  6856 net.cpp:397] res4f_branch2b_relu -> res4f_branch2b (in-place)
02-28 10:09:25.171  6856  6856 I caffe_jni: I0228 10:09:25.171288  6856 net.cpp:152] Setting up res4f_branch2b_relu
02-28 10:09:25.171  6856  6856 I caffe_jni: I0228 10:09:25.171305  6856 net.cpp:159] Top shape: 1 256 14 14 (50176)
02-28 10:09:25.171  6856  6856 I caffe_jni: I0228 10:09:25.171326  6856 net.cpp:167] Memory required for data: 214953996
02-28 10:09:25.171  6856  6856 I caffe_jni: I0228 10:09:25.171344  6856 layer_factory.hpp:77] Creating layer res4f_branch2c
02-28 10:09:25.171  6856  6856 I caffe_jni: I0228 10:09:25.171368  6856 net.cpp:102] Creating Layer res4f_branch2c
02-28 10:09:25.171  6856  6856 I caffe_jni: I0228 10:09:25.171389  6856 net.cpp:436] res4f_branch2c <- res4f_branch2b
02-28 10:09:25.171  6856  6856 I caffe_jni: I0228 10:09:25.171408  6856 net.cpp:410] res4f_branch2c -> res4f_branch2c
02-28 10:09:25.172  6856  6856 I caffe_jni: I0228 10:09:25.171995  6856 net.cpp:152] Setting up res4f_branch2c
02-28 10:09:25.172  6856  6856 I caffe_jni: I0228 10:09:25.172037  6856 net.cpp:159] Top shape: 1 1024 14 14 (200704)
02-28 10:09:25.172  6856  6856 I caffe_jni: I0228 10:09:25.172061  6856 net.cpp:167] Memory required for data: 215756812
02-28 10:09:25.172  6856  6856 I caffe_jni: I0228 10:09:25.172081  6856 layer_factory.hpp:77] Creating layer bn4f_branch2c
02-28 10:09:25.172  6856  6856 I caffe_jni: I0228 10:09:25.172102  6856 net.cpp:102] Creating Layer bn4f_branch2c
02-28 10:09:25.172  6856  6856 I caffe_jni: I0228 10:09:25.172122  6856 net.cpp:436] bn4f_branch2c <- res4f_branch2c
02-28 10:09:25.172  6856  6856 I caffe_jni: I0228 10:09:25.172139  6856 net.cpp:397] bn4f_branch2c -> res4f_branch2c (in-place)
02-28 10:09:25.172  6856  6856 I caffe_jni: I0228 10:09:25.172185  6856 net.cpp:152] Setting up bn4f_branch2c
02-28 10:09:25.172  6856  6856 I caffe_jni: I0228 10:09:25.172206  6856 net.cpp:159] Top shape: 1 1024 14 14 (200704)
02-28 10:09:25.172  6856  6856 I caffe_jni: I0228 10:09:25.172224  6856 net.cpp:167] Memory required for data: 216559628
02-28 10:09:25.172  6856  6856 I caffe_jni: I0228 10:09:25.172271  6856 layer_factory.hpp:77] Creating layer scale4f_branch2c
02-28 10:09:25.172  6856  6856 I caffe_jni: I0228 10:09:25.172292  6856 net.cpp:102] Creating Layer scale4f_branch2c
02-28 10:09:25.172  6856  6856 I caffe_jni: I0228 10:09:25.172312  6856 net.cpp:436] scale4f_branch2c <- res4f_branch2c
02-28 10:09:25.172  6856  6856 I caffe_jni: I0228 10:09:25.172338  6856 net.cpp:397] scale4f_branch2c -> res4f_branch2c (in-place)
02-28 10:09:25.172  6856  6856 I caffe_jni: I0228 10:09:25.172366  6856 layer_factory.hpp:77] Creating layer scale4f_branch2c
02-28 10:09:25.172  6856  6856 I caffe_jni: I0228 10:09:25.172402  6856 net.cpp:152] Setting up scale4f_branch2c
02-28 10:09:25.172  6856  6856 I caffe_jni: I0228 10:09:25.172418  6856 net.cpp:159] Top shape: 1 1024 14 14 (200704)
02-28 10:09:25.172  6856  6856 I caffe_jni: I0228 10:09:25.172436  6856 net.cpp:167] Memory required for data: 217362444
02-28 10:09:25.172  6856  6856 I caffe_jni: I0228 10:09:25.172458  6856 layer_factory.hpp:77] Creating layer res4f
02-28 10:09:25.172  6856  6856 I caffe_jni: I0228 10:09:25.172482  6856 net.cpp:102] Creating Layer res4f
02-28 10:09:25.172  6856  6856 I caffe_jni: I0228 10:09:25.172500  6856 net.cpp:436] res4f <- res4e_res4e_relu_0_split_1
02-28 10:09:25.172  6856  6856 I caffe_jni: I0228 10:09:25.172518  6856 net.cpp:436] res4f <- res4f_branch2c
02-28 10:09:25.172  6856  6856 I caffe_jni: I0228 10:09:25.172538  6856 net.cpp:410] res4f -> res4f
02-28 10:09:25.172  6856  6856 I caffe_jni: I0228 10:09:25.172561  6856 net.cpp:152] Setting up res4f
02-28 10:09:25.172  6856  6856 I caffe_jni: I0228 10:09:25.172577  6856 net.cpp:159] Top shape: 1 1024 14 14 (200704)
02-28 10:09:25.172  6856  6856 I caffe_jni: I0228 10:09:25.172597  6856 net.cpp:167] Memory required for data: 218165260
02-28 10:09:25.172  6856  6856 I caffe_jni: I0228 10:09:25.172617  6856 layer_factory.hpp:77] Creating layer res4f_relu
02-28 10:09:25.172  6856  6856 I caffe_jni: I0228 10:09:25.172637  6856 net.cpp:102] Creating Layer res4f_relu
02-28 10:09:25.172  6856  6856 I caffe_jni: I0228 10:09:25.172653  6856 net.cpp:436] res4f_relu <- res4f
02-28 10:09:25.172  6856  6856 I caffe_jni: I0228 10:09:25.172672  6856 net.cpp:397] res4f_relu -> res4f (in-place)
02-28 10:09:25.172  6856  6856 I caffe_jni: I0228 10:09:25.172693  6856 net.cpp:152] Setting up res4f_relu
02-28 10:09:25.172  6856  6856 I caffe_jni: I0228 10:09:25.172711  6856 net.cpp:159] Top shape: 1 1024 14 14 (200704)
02-28 10:09:25.172  6856  6856 I caffe_jni: I0228 10:09:25.172731  6856 net.cpp:167] Memory required for data: 218968076
02-28 10:09:25.172  6856  6856 I caffe_jni: I0228 10:09:25.172749  6856 layer_factory.hpp:77] Creating layer res4f_res4f_relu_0_split
02-28 10:09:25.172  6856  6856 I caffe_jni: I0228 10:09:25.172766  6856 net.cpp:102] Creating Layer res4f_res4f_relu_0_split
02-28 10:09:25.172  6856  6856 I caffe_jni: I0228 10:09:25.172785  6856 net.cpp:436] res4f_res4f_relu_0_split <- res4f
02-28 10:09:25.172  6856  6856 I caffe_jni: I0228 10:09:25.172803  6856 net.cpp:410] res4f_res4f_relu_0_split -> res4f_res4f_relu_0_split_0
02-28 10:09:25.172  6856  6856 I caffe_jni: I0228 10:09:25.172823  6856 net.cpp:410] res4f_res4f_relu_0_split -> res4f_res4f_relu_0_split_1
02-28 10:09:25.172  6856  6856 I caffe_jni: I0228 10:09:25.172844  6856 net.cpp:410] res4f_res4f_relu_0_split -> res4f_res4f_relu_0_split_2
02-28 10:09:25.172  6856  6856 I caffe_jni: I0228 10:09:25.172871  6856 net.cpp:152] Setting up res4f_res4f_relu_0_split
02-28 10:09:25.172  6856  6856 I caffe_jni: I0228 10:09:25.172891  6856 net.cpp:159] Top shape: 1 1024 14 14 (200704)
02-28 10:09:25.172  6856  6856 I caffe_jni: I0228 10:09:25.172909  6856 net.cpp:159] Top shape: 1 1024 14 14 (200704)
02-28 10:09:25.172  6856  6856 I caffe_jni: I0228 10:09:25.172927  6856 net.cpp:159] Top shape: 1 1024 14 14 (200704)
02-28 10:09:25.172  6856  6856 I caffe_jni: I0228 10:09:25.172943  6856 net.cpp:167] Memory required for data: 221376524
02-28 10:09:25.172  6856  6856 I caffe_jni: I0228 10:09:25.172960  6856 layer_factory.hpp:77] Creating layer res5a_branch1
02-28 10:09:25.172  6856  6856 I caffe_jni: I0228 10:09:25.172987  6856 net.cpp:102] Creating Layer res5a_branch1
02-28 10:09:25.173  6856  6856 I caffe_jni: I0228 10:09:25.173010  6856 net.cpp:436] res5a_branch1 <- res4f_res4f_relu_0_split_0
02-28 10:09:25.173  6856  6856 I caffe_jni: I0228 10:09:25.173030  6856 net.cpp:410] res5a_branch1 -> res5a_branch1
02-28 10:09:25.174  2004  2004 W HwKeyguardBottomArea: updateBatteryInfo : true  true
02-28 10:09:25.174  2004  2004 W HwKeyguardBottomArea: updateBatteryInfo showBatteryInfo: 
02-28 10:09:25.174  2004  2004 W HwKeyguardBottomArea: KG_FDT ShowIndicationRunner finish
02-28 10:09:25.177  2004  2629 W OpenGLRenderer: Incorrectly called buildLayer on View: RelativeLayout, destroying layer...
02-28 10:09:25.177  6856  6856 I caffe_jni: I0228 10:09:25.177253  6856 net.cpp:152] Setting up res5a_branch1
02-28 10:09:25.177  6856  6856 I caffe_jni: I0228 10:09:25.177325  6856 net.cpp:159] Top shape: 1 2048 14 14 (401408)
02-28 10:09:25.177  6856  6856 I caffe_jni: I0228 10:09:25.177353  6856 net.cpp:167] Memory required for data: 222982156
02-28 10:09:25.177  6856  6856 I caffe_jni: I0228 10:09:25.177386  6856 layer_factory.hpp:77] Creating layer bn5a_branch1
02-28 10:09:25.177  6856  6856 I caffe_jni: I0228 10:09:25.177423  6856 net.cpp:102] Creating Layer bn5a_branch1
02-28 10:09:25.177  6856  6856 I caffe_jni: I0228 10:09:25.177446  6856 net.cpp:436] bn5a_branch1 <- res5a_branch1
02-28 10:09:25.177  6856  6856 I caffe_jni: I0228 10:09:25.177470  6856 net.cpp:397] bn5a_branch1 -> res5a_branch1 (in-place)
02-28 10:09:25.177  6856  6856 I caffe_jni: I0228 10:09:25.177518  6856 net.cpp:152] Setting up bn5a_branch1
02-28 10:09:25.177  6856  6856 I caffe_jni: I0228 10:09:25.177541  6856 net.cpp:159] Top shape: 1 2048 14 14 (401408)
02-28 10:09:25.177  6856  6856 I caffe_jni: I0228 10:09:25.177562  6856 net.cpp:167] Memory required for data: 224587788
02-28 10:09:25.177  6856  6856 I caffe_jni: I0228 10:09:25.177585  6856 layer_factory.hpp:77] Creating layer scale5a_branch1
02-28 10:09:25.177  6856  6856 I caffe_jni: I0228 10:09:25.177609  6856 net.cpp:102] Creating Layer scale5a_branch1
02-28 10:09:25.177  6856  6856 I caffe_jni: I0228 10:09:25.177625  6856 net.cpp:436] scale5a_branch1 <- res5a_branch1
02-28 10:09:25.177  6856  6856 I caffe_jni: I0228 10:09:25.177644  6856 net.cpp:397] scale5a_branch1 -> res5a_branch1 (in-place)
02-28 10:09:25.177  6856  6856 I caffe_jni: I0228 10:09:25.177681  6856 layer_factory.hpp:77] Creating layer scale5a_branch1
02-28 10:09:25.177  6856  6856 I caffe_jni: I0228 10:09:25.177727  6856 net.cpp:152] Setting up scale5a_branch1
02-28 10:09:25.177  6856  6856 I caffe_jni: I0228 10:09:25.177745  6856 net.cpp:159] Top shape: 1 2048 14 14 (401408)
02-28 10:09:25.177  6856  6856 I caffe_jni: I0228 10:09:25.177764  6856 net.cpp:167] Memory required for data: 226193420
02-28 10:09:25.177  6856  6856 I caffe_jni: I0228 10:09:25.177784  6856 layer_factory.hpp:77] Creating layer res5a_branch2a
02-28 10:09:25.177  6856  6856 I caffe_jni: I0228 10:09:25.177808  6856 net.cpp:102] Creating Layer res5a_branch2a
02-28 10:09:25.177  6856  6856 I caffe_jni: I0228 10:09:25.177827  6856 net.cpp:436] res5a_branch2a <- res4f_res4f_relu_0_split_1
02-28 10:09:25.177  6856  6856 I caffe_jni: I0228 10:09:25.177851  6856 net.cpp:410] res5a_branch2a -> res5a_branch2a
02-28 10:09:25.179  6856  6856 I caffe_jni: I0228 10:09:25.179021  6856 net.cpp:152] Setting up res5a_branch2a
02-28 10:09:25.179  6856  6856 I caffe_jni: I0228 10:09:25.179111  6856 net.cpp:159] Top shape: 1 512 14 14 (100352)
02-28 10:09:25.179  6856  6856 I caffe_jni: I0228 10:09:25.179142  6856 net.cpp:167] Memory required for data: 226594828
02-28 10:09:25.179  6856  6856 I caffe_jni: I0228 10:09:25.179167  6856 layer_factory.hpp:77] Creating layer bn5a_branch2a
02-28 10:09:25.179  6856  6856 I caffe_jni: I0228 10:09:25.179194  6856 net.cpp:102] Creating Layer bn5a_branch2a
02-28 10:09:25.179  6856  6856 I caffe_jni: I0228 10:09:25.179219  6856 net.cpp:436] bn5a_branch2a <- res5a_branch2a
02-28 10:09:25.179  6856  6856 I caffe_jni: I0228 10:09:25.179245  6856 net.cpp:397] bn5a_branch2a -> res5a_branch2a (in-place)
02-28 10:09:25.179  6856  6856 I caffe_jni: I0228 10:09:25.179299  6856 net.cpp:152] Setting up bn5a_branch2a
02-28 10:09:25.179  6856  6856 I caffe_jni: I0228 10:09:25.179317  6856 net.cpp:159] Top shape: 1 512 14 14 (100352)
02-28 10:09:25.179  6856  6856 I caffe_jni: I0228 10:09:25.179338  6856 net.cpp:167] Memory required for data: 226996236
02-28 10:09:25.179  6856  6856 I caffe_jni: I0228 10:09:25.179363  6856 layer_factory.hpp:77] Creating layer scale5a_branch2a
02-28 10:09:25.179  6856  6856 I caffe_jni: I0228 10:09:25.179388  6856 net.cpp:102] Creating Layer scale5a_branch2a
02-28 10:09:25.179  6856  6856 I caffe_jni: I0228 10:09:25.179404  6856 net.cpp:436] scale5a_branch2a <- res5a_branch2a
02-28 10:09:25.179  6856  6856 I caffe_jni: I0228 10:09:25.179424  6856 net.cpp:397] scale5a_branch2a -> res5a_branch2a (in-place)
02-28 10:09:25.179  6856  6856 I caffe_jni: I0228 10:09:25.179453  6856 layer_factory.hpp:77] Creating layer scale5a_branch2a
02-28 10:09:25.179  6856  6856 I caffe_jni: I0228 10:09:25.179489  6856 net.cpp:152] Setting up scale5a_branch2a
02-28 10:09:25.179  6856  6856 I caffe_jni: I0228 10:09:25.179507  6856 net.cpp:159] Top shape: 1 512 14 14 (100352)
02-28 10:09:25.179  6856  6856 I caffe_jni: I0228 10:09:25.179529  6856 net.cpp:167] Memory required for data: 227397644
02-28 10:09:25.179  6856  6856 I caffe_jni: I0228 10:09:25.179549  6856 layer_factory.hpp:77] Creating layer res5a_branch2a_relu
02-28 10:09:25.179  6856  6856 I caffe_jni: I0228 10:09:25.179571  6856 net.cpp:102] Creating Layer res5a_branch2a_relu
02-28 10:09:25.179  6856  6856 I caffe_jni: I0228 10:09:25.179600  6856 net.cpp:436] res5a_branch2a_relu <- res5a_branch2a
02-28 10:09:25.179  6856  6856 I caffe_jni: I0228 10:09:25.179637  6856 net.cpp:397] res5a_branch2a_relu -> res5a_branch2a (in-place)
02-28 10:09:25.179  6856  6856 I caffe_jni: I0228 10:09:25.179659  6856 net.cpp:152] Setting up res5a_branch2a_relu
02-28 10:09:25.179  6856  6856 I caffe_jni: I0228 10:09:25.179675  6856 net.cpp:159] Top shape: 1 512 14 14 (100352)
02-28 10:09:25.179  6856  6856 I caffe_jni: I0228 10:09:25.179693  6856 net.cpp:167] Memory required for data: 227799052
02-28 10:09:25.179  6856  6856 I caffe_jni: I0228 10:09:25.179709  6856 layer_factory.hpp:77] Creating layer res5a_branch2b
02-28 10:09:25.179  6856  6856 I caffe_jni: I0228 10:09:25.179731  6856 net.cpp:102] Creating Layer res5a_branch2b
02-28 10:09:25.179  6856  6856 I caffe_jni: I0228 10:09:25.179751  6856 net.cpp:436] res5a_branch2b <- res5a_branch2a
02-28 10:09:25.179  6856  6856 I caffe_jni: I0228 10:09:25.179776  6856 net.cpp:410] res5a_branch2b -> res5a_branch2b
02-28 10:09:25.180   742  1826 D DE N VH : run:148: Stop
02-28 10:09:25.185  6856  6856 I caffe_jni: I0228 10:09:25.185430  6856 net.cpp:152] Setting up res5a_branch2b
02-28 10:09:25.185  6856  6856 I caffe_jni: I0228 10:09:25.185539  6856 net.cpp:159] Top shape: 1 512 14 14 (100352)
02-28 10:09:25.185  6856  6856 I caffe_jni: I0228 10:09:25.185573  6856 net.cpp:167] Memory required for data: 228200460
02-28 10:09:25.185  6856  6856 I caffe_jni: I0228 10:09:25.185600  6856 layer_factory.hpp:77] Creating layer bn5a_branch2b
02-28 10:09:25.185  6856  6856 I caffe_jni: I0228 10:09:25.185636  6856 net.cpp:102] Creating Layer bn5a_branch2b
02-28 10:09:25.185  6856  6856 I caffe_jni: I0228 10:09:25.185658  6856 net.cpp:436] bn5a_branch2b <- res5a_branch2b
02-28 10:09:25.185  6856  6856 I caffe_jni: I0228 10:09:25.185683  6856 net.cpp:397] bn5a_branch2b -> res5a_branch2b (in-place)
02-28 10:09:25.185  6856  6856 I caffe_jni: I0228 10:09:25.185731  6856 net.cpp:152] Setting up bn5a_branch2b
02-28 10:09:25.185  6856  6856 I caffe_jni: I0228 10:09:25.185755  6856 net.cpp:159] Top shape: 1 512 14 14 (100352)
02-28 10:09:25.185  6856  6856 I caffe_jni: I0228 10:09:25.185775  6856 net.cpp:167] Memory required for data: 228601868
02-28 10:09:25.185  6856  6856 I caffe_jni: I0228 10:09:25.185798  6856 layer_factory.hpp:77] Creating layer scale5a_branch2b
02-28 10:09:25.185  6856  6856 I caffe_jni: I0228 10:09:25.185822  6856 net.cpp:102] Creating Layer scale5a_branch2b
02-28 10:09:25.185  6856  6856 I caffe_jni: I0228 10:09:25.185842  6856 net.cpp:436] scale5a_branch2b <- res5a_branch2b
02-28 10:09:25.185  6856  6856 I caffe_jni: I0228 10:09:25.185861  6856 net.cpp:397] scale5a_branch2b -> res5a_branch2b (in-place)
02-28 10:09:25.185  6856  6856 I caffe_jni: I0228 10:09:25.185901  6856 layer_factory.hpp:77] Creating layer scale5a_branch2b
02-28 10:09:25.185  6856  6856 I caffe_jni: I0228 10:09:25.185941  6856 net.cpp:152] Setting up scale5a_branch2b
02-28 10:09:25.185  6856  6856 I caffe_jni: I0228 10:09:25.185959  6856 net.cpp:159] Top shape: 1 512 14 14 (100352)
02-28 10:09:25.185  6856  6856 I caffe_jni: I0228 10:09:25.185977  6856 net.cpp:167] Memory required for data: 229003276
02-28 10:09:25.186  6856  6856 I caffe_jni: I0228 10:09:25.185998  6856 layer_factory.hpp:77] Creating layer res5a_branch2b_relu
02-28 10:09:25.186  6856  6856 I caffe_jni: I0228 10:09:25.186020  6856 net.cpp:102] Creating Layer res5a_branch2b_relu
02-28 10:09:25.186  6856  6856 I caffe_jni: I0228 10:09:25.186038  6856 net.cpp:436] res5a_branch2b_relu <- res5a_branch2b
02-28 10:09:25.186  6856  6856 I caffe_jni: I0228 10:09:25.186058  6856 net.cpp:397] res5a_branch2b_relu -> res5a_branch2b (in-place)
02-28 10:09:25.186  6856  6856 I caffe_jni: I0228 10:09:25.186082  6856 net.cpp:152] Setting up res5a_branch2b_relu
02-28 10:09:25.186  6856  6856 I caffe_jni: I0228 10:09:25.186103  6856 net.cpp:159] Top shape: 1 512 14 14 (100352)
02-28 10:09:25.186  6856  6856 I caffe_jni: I0228 10:09:25.186143  6856 net.cpp:167] Memory required for data: 229404684
02-28 10:09:25.186  6856  6856 I caffe_jni: I0228 10:09:25.186161  6856 layer_factory.hpp:77] Creating layer res5a_branch2c
02-28 10:09:25.186  6856  6856 I caffe_jni: I0228 10:09:25.186187  6856 net.cpp:102] Creating Layer res5a_branch2c
02-28 10:09:25.186  6856  6856 I caffe_jni: I0228 10:09:25.186210  6856 net.cpp:436] res5a_branch2c <- res5a_branch2b
02-28 10:09:25.186  6856  6856 I caffe_jni: I0228 10:09:25.186233  6856 net.cpp:410] res5a_branch2c -> res5a_branch2c
02-28 10:09:25.188  6856  6856 I caffe_jni: I0228 10:09:25.188431  6856 net.cpp:152] Setting up res5a_branch2c
02-28 10:09:25.188  6856  6856 I caffe_jni: I0228 10:09:25.188526  6856 net.cpp:159] Top shape: 1 2048 14 14 (401408)
02-28 10:09:25.188  6856  6856 I caffe_jni: I0228 10:09:25.188565  6856 net.cpp:167] Memory required for data: 231010316
02-28 10:09:25.188  6856  6856 I caffe_jni: I0228 10:09:25.188594  6856 layer_factory.hpp:77] Creating layer bn5a_branch2c
02-28 10:09:25.188  6856  6856 I caffe_jni: I0228 10:09:25.188624  6856 net.cpp:102] Creating Layer bn5a_branch2c
02-28 10:09:25.188  6856  6856 I caffe_jni: I0228 10:09:25.188647  6856 net.cpp:436] bn5a_branch2c <- res5a_branch2c
02-28 10:09:25.188  6856  6856 I caffe_jni: I0228 10:09:25.188671  6856 net.cpp:397] bn5a_branch2c -> res5a_branch2c (in-place)
02-28 10:09:25.188  6856  6856 I caffe_jni: I0228 10:09:25.188729  6856 net.cpp:152] Setting up bn5a_branch2c
02-28 10:09:25.188  6856  6856 I caffe_jni: I0228 10:09:25.188766  6856 net.cpp:159] Top shape: 1 2048 14 14 (401408)
02-28 10:09:25.188  6856  6856 I caffe_jni: I0228 10:09:25.188786  6856 net.cpp:167] Memory required for data: 232615948
02-28 10:09:25.188  6856  6856 I caffe_jni: I0228 10:09:25.188808  6856 layer_factory.hpp:77] Creating layer scale5a_branch2c
02-28 10:09:25.188  6856  6856 I caffe_jni: I0228 10:09:25.188830  6856 net.cpp:102] Creating Layer scale5a_branch2c
02-28 10:09:25.188  6856  6856 I caffe_jni: I0228 10:09:25.188848  6856 net.cpp:436] scale5a_branch2c <- res5a_branch2c
02-28 10:09:25.188  6856  6856 I caffe_jni: I0228 10:09:25.188871  6856 net.cpp:397] scale5a_branch2c -> res5a_branch2c (in-place)
02-28 10:09:25.188  6856  6856 I caffe_jni: I0228 10:09:25.188915  6856 layer_factory.hpp:77] Creating layer scale5a_branch2c
02-28 10:09:25.188  6856  6856 I caffe_jni: I0228 10:09:25.188961  6856 net.cpp:152] Setting up scale5a_branch2c
02-28 10:09:25.188  6856  6856 I caffe_jni: I0228 10:09:25.188979  6856 net.cpp:159] Top shape: 1 2048 14 14 (401408)
02-28 10:09:25.189  6856  6856 I caffe_jni: I0228 10:09:25.189000  6856 net.cpp:167] Memory required for data: 234221580
02-28 10:09:25.189  6856  6856 I caffe_jni: I0228 10:09:25.189021  6856 layer_factory.hpp:77] Creating layer res5a
02-28 10:09:25.189  6856  6856 I caffe_jni: I0228 10:09:25.189043  6856 net.cpp:102] Creating Layer res5a
02-28 10:09:25.189  6856  6856 I caffe_jni: I0228 10:09:25.189060  6856 net.cpp:436] res5a <- res5a_branch1
02-28 10:09:25.189  6856  6856 I caffe_jni: I0228 10:09:25.189076  6856 net.cpp:436] res5a <- res5a_branch2c
02-28 10:09:25.189  6856  6856 I caffe_jni: I0228 10:09:25.189095  6856 net.cpp:410] res5a -> res5a
02-28 10:09:25.189  6856  6856 I caffe_jni: I0228 10:09:25.189121  6856 net.cpp:152] Setting up res5a
02-28 10:09:25.189  6856  6856 I caffe_jni: I0228 10:09:25.189136  6856 net.cpp:159] Top shape: 1 2048 14 14 (401408)
02-28 10:09:25.189  6856  6856 I caffe_jni: I0228 10:09:25.189154  6856 net.cpp:167] Memory required for data: 235827212
02-28 10:09:25.189  6856  6856 I caffe_jni: I0228 10:09:25.189172  6856 layer_factory.hpp:77] Creating layer res5a_relu
02-28 10:09:25.189  6856  6856 I caffe_jni: I0228 10:09:25.189190  6856 net.cpp:102] Creating Layer res5a_relu
02-28 10:09:25.189  6856  6856 I caffe_jni: I0228 10:09:25.189208  6856 net.cpp:436] res5a_relu <- res5a
02-28 10:09:25.189  6856  6856 I caffe_jni: I0228 10:09:25.189225  6856 net.cpp:397] res5a_relu -> res5a (in-place)
02-28 10:09:25.189  6856  6856 I caffe_jni: I0228 10:09:25.189246  6856 net.cpp:152] Setting up res5a_relu
02-28 10:09:25.189  6856  6856 I caffe_jni: I0228 10:09:25.189261  6856 net.cpp:159] Top shape: 1 2048 14 14 (401408)
02-28 10:09:25.189  6856  6856 I caffe_jni: I0228 10:09:25.189285  6856 net.cpp:167] Memory required for data: 237432844
02-28 10:09:25.189  6856  6856 I caffe_jni: I0228 10:09:25.189306  6856 layer_factory.hpp:77] Creating layer res5a_res5a_relu_0_split
02-28 10:09:25.189  6856  6856 I caffe_jni: I0228 10:09:25.189324  6856 net.cpp:102] Creating Layer res5a_res5a_relu_0_split
02-28 10:09:25.189  6856  6856 I caffe_jni: I0228 10:09:25.189340  6856 net.cpp:436] res5a_res5a_relu_0_split <- res5a
02-28 10:09:25.189  6856  6856 I caffe_jni: I0228 10:09:25.189359  6856 net.cpp:410] res5a_res5a_relu_0_split -> res5a_res5a_relu_0_split_0
02-28 10:09:25.189  6856  6856 I caffe_jni: I0228 10:09:25.189378  6856 net.cpp:410] res5a_res5a_relu_0_split -> res5a_res5a_relu_0_split_1
02-28 10:09:25.189  6856  6856 I caffe_jni: I0228 10:09:25.189402  6856 net.cpp:152] Setting up res5a_res5a_relu_0_split
02-28 10:09:25.189  6856  6856 I caffe_jni: I0228 10:09:25.189420  6856 net.cpp:159] Top shape: 1 2048 14 14 (401408)
02-28 10:09:25.189  6856  6856 I caffe_jni: I0228 10:09:25.189442  6856 net.cpp:159] Top shape: 1 2048 14 14 (401408)
02-28 10:09:25.189  6856  6856 I caffe_jni: I0228 10:09:25.189460  6856 net.cpp:167] Memory required for data: 240644108
02-28 10:09:25.189  6856  6856 I caffe_jni: I0228 10:09:25.189476  6856 layer_factory.hpp:77] Creating layer res5b_branch2a
02-28 10:09:25.189  6856  6856 I caffe_jni: I0228 10:09:25.189499  6856 net.cpp:102] Creating Layer res5b_branch2a
02-28 10:09:25.189  6856  6856 I caffe_jni: I0228 10:09:25.189517  6856 net.cpp:436] res5b_branch2a <- res5a_res5a_relu_0_split_0
02-28 10:09:25.189  6856  6856 I caffe_jni: I0228 10:09:25.189537  6856 net.cpp:410] res5b_branch2a -> res5b_branch2a
02-28 10:09:25.191  6856  6856 I caffe_jni: I0228 10:09:25.191752  6856 net.cpp:152] Setting up res5b_branch2a
02-28 10:09:25.191  6856  6856 I caffe_jni: I0228 10:09:25.191854  6856 net.cpp:159] Top shape: 1 512 14 14 (100352)
02-28 10:09:25.191  6856  6856 I caffe_jni: I0228 10:09:25.191890  6856 net.cpp:167] Memory required for data: 241045516
02-28 10:09:25.191  6856  6856 I caffe_jni: I0228 10:09:25.191916  6856 layer_factory.hpp:77] Creating layer bn5b_branch2a
02-28 10:09:25.191  6856  6856 I caffe_jni: I0228 10:09:25.191947  6856 net.cpp:102] Creating Layer bn5b_branch2a
02-28 10:09:25.191  6856  6856 I caffe_jni: I0228 10:09:25.191968  6856 net.cpp:436] bn5b_branch2a <- res5b_branch2a
02-28 10:09:25.191  6856  6856 I caffe_jni: I0228 10:09:25.191992  6856 net.cpp:397] bn5b_branch2a -> res5b_branch2a (in-place)
02-28 10:09:25.192  6856  6856 I caffe_jni: I0228 10:09:25.192044  6856 net.cpp:152] Setting up bn5b_branch2a
02-28 10:09:25.192  6856  6856 I caffe_jni: I0228 10:09:25.192067  6856 net.cpp:159] Top shape: 1 512 14 14 (100352)
02-28 10:09:25.192  6856  6856 I caffe_jni: I0228 10:09:25.192086  6856 net.cpp:167] Memory required for data: 241446924
02-28 10:09:25.192  6856  6856 I caffe_jni: I0228 10:09:25.192108  6856 layer_factory.hpp:77] Creating layer scale5b_branch2a
02-28 10:09:25.192  6856  6856 I caffe_jni: I0228 10:09:25.192131  6856 net.cpp:102] Creating Layer scale5b_branch2a
02-28 10:09:25.192  6856  6856 I caffe_jni: I0228 10:09:25.192147  6856 net.cpp:436] scale5b_branch2a <- res5b_branch2a
02-28 10:09:25.192  6856  6856 I caffe_jni: I0228 10:09:25.192167  6856 net.cpp:397] scale5b_branch2a -> res5b_branch2a (in-place)
02-28 10:09:25.192  6856  6856 I caffe_jni: I0228 10:09:25.192196  6856 layer_factory.hpp:77] Creating layer scale5b_branch2a
02-28 10:09:25.192  6856  6856 I caffe_jni: I0228 10:09:25.192241  6856 net.cpp:152] Setting up scale5b_branch2a
02-28 10:09:25.192  6856  6856 I caffe_jni: I0228 10:09:25.192262  6856 net.cpp:159] Top shape: 1 512 14 14 (100352)
02-28 10:09:25.192  6856  6856 I caffe_jni: I0228 10:09:25.192281  6856 net.cpp:167] Memory required for data: 241848332
02-28 10:09:25.192  6856  6856 I caffe_jni: I0228 10:09:25.192301  6856 layer_factory.hpp:77] Creating layer res5b_branch2a_relu
02-28 10:09:25.192  6856  6856 I caffe_jni: I0228 10:09:25.192323  6856 net.cpp:102] Creating Layer res5b_branch2a_relu
02-28 10:09:25.192  6856  6856 I caffe_jni: I0228 10:09:25.192342  6856 net.cpp:436] res5b_branch2a_relu <- res5b_branch2a
02-28 10:09:25.192  6856  6856 I caffe_jni: I0228 10:09:25.192363  6856 net.cpp:397] res5b_branch2a_relu -> res5b_branch2a (in-place)
02-28 10:09:25.192  6856  6856 I caffe_jni: I0228 10:09:25.192382  6856 net.cpp:152] Setting up res5b_branch2a_relu
02-28 10:09:25.192  6856  6856 I caffe_jni: I0228 10:09:25.192399  6856 net.cpp:159] Top shape: 1 512 14 14 (100352)
02-28 10:09:25.192  6856  6856 I caffe_jni: I0228 10:09:25.192415  6856 net.cpp:167] Memory required for data: 242249740
02-28 10:09:25.192  6856  6856 I caffe_jni: I0228 10:09:25.192431  6856 layer_factory.hpp:77] Creating layer res5b_branch2b
02-28 10:09:25.192  6856  6856 I caffe_jni: I0228 10:09:25.192456  6856 net.cpp:102] Creating Layer res5b_branch2b
02-28 10:09:25.192  6856  6856 I caffe_jni: I0228 10:09:25.192474  6856 net.cpp:436] res5b_branch2b <- res5b_branch2a
02-28 10:09:25.192  6856  6856 I caffe_jni: I0228 10:09:25.192497  6856 net.cpp:410] res5b_branch2b -> res5b_branch2b
02-28 10:09:25.197  6856  6856 I caffe_jni: I0228 10:09:25.197206  6856 net.cpp:152] Setting up res5b_branch2b
02-28 10:09:25.197  6856  6856 I caffe_jni: I0228 10:09:25.197309  6856 net.cpp:159] Top shape: 1 512 14 14 (100352)
02-28 10:09:25.197  6856  6856 I caffe_jni: I0228 10:09:25.197341  6856 net.cpp:167] Memory required for data: 242651148
02-28 10:09:25.197  6856  6856 I caffe_jni: I0228 10:09:25.197366  6856 layer_factory.hpp:77] Creating layer bn5b_branch2b
02-28 10:09:25.197  6856  6856 I caffe_jni: I0228 10:09:25.197396  6856 net.cpp:102] Creating Layer bn5b_branch2b
02-28 10:09:25.197  6856  6856 I caffe_jni: I0228 10:09:25.197424  6856 net.cpp:436] bn5b_branch2b <- res5b_branch2b
02-28 10:09:25.197  6856  6856 I caffe_jni: I0228 10:09:25.197449  6856 net.cpp:397] bn5b_branch2b -> res5b_branch2b (in-place)
02-28 10:09:25.197  6856  6856 I caffe_jni: I0228 10:09:25.197494  6856 net.cpp:152] Setting up bn5b_branch2b
02-28 10:09:25.197  6856  6856 I caffe_jni: I0228 10:09:25.197515  6856 net.cpp:159] Top shape: 1 512 14 14 (100352)
02-28 10:09:25.197  6856  6856 I caffe_jni: I0228 10:09:25.197540  6856 net.cpp:167] Memory required for data: 243052556
02-28 10:09:25.197  6856  6856 I caffe_jni: I0228 10:09:25.197563  6856 layer_factory.hpp:77] Creating layer scale5b_branch2b
02-28 10:09:25.197  6856  6856 I caffe_jni: I0228 10:09:25.197588  6856 net.cpp:102] Creating Layer scale5b_branch2b
02-28 10:09:25.197  6856  6856 I caffe_jni: I0228 10:09:25.197607  6856 net.cpp:436] scale5b_branch2b <- res5b_branch2b
02-28 10:09:25.197  6856  6856 I caffe_jni: I0228 10:09:25.197630  6856 net.cpp:397] scale5b_branch2b -> res5b_branch2b (in-place)
02-28 10:09:25.197  6856  6856 I caffe_jni: I0228 10:09:25.197666  6856 layer_factory.hpp:77] Creating layer scale5b_branch2b
02-28 10:09:25.197  6856  6856 I caffe_jni: I0228 10:09:25.197708  6856 net.cpp:152] Setting up scale5b_branch2b
02-28 10:09:25.197  6856  6856 I caffe_jni: I0228 10:09:25.197731  6856 net.cpp:159] Top shape: 1 512 14 14 (100352)
02-28 10:09:25.197  6856  6856 I caffe_jni: I0228 10:09:25.197751  6856 net.cpp:167] Memory required for data: 243453964
02-28 10:09:25.197  6856  6856 I caffe_jni: I0228 10:09:25.197775  6856 layer_factory.hpp:77] Creating layer res5b_branch2b_relu
02-28 10:09:25.197  6856  6856 I caffe_jni: I0228 10:09:25.197801  6856 net.cpp:102] Creating Layer res5b_branch2b_relu
02-28 10:09:25.197  6856  6856 I caffe_jni: I0228 10:09:25.197818  6856 net.cpp:436] res5b_branch2b_relu <- res5b_branch2b
02-28 10:09:25.197  6856  6856 I caffe_jni: I0228 10:09:25.197839  6856 net.cpp:397] res5b_branch2b_relu -> res5b_branch2b (in-place)
02-28 10:09:25.197  6856  6856 I caffe_jni: I0228 10:09:25.197859  6856 net.cpp:152] Setting up res5b_branch2b_relu
02-28 10:09:25.197  6856  6856 I caffe_jni: I0228 10:09:25.197875  6856 net.cpp:159] Top shape: 1 512 14 14 (100352)
02-28 10:09:25.197  6856  6856 I caffe_jni: I0228 10:09:25.197891  6856 net.cpp:167] Memory required for data: 243855372
02-28 10:09:25.197  6856  6856 I caffe_jni: I0228 10:09:25.197907  6856 layer_factory.hpp:77] Creating layer res5b_branch2c
02-28 10:09:25.197  6856  6856 I caffe_jni: I0228 10:09:25.197929  6856 net.cpp:102] Creating Layer res5b_branch2c
02-28 10:09:25.197  6856  6856 I caffe_jni: I0228 10:09:25.197947  6856 net.cpp:436] res5b_branch2c <- res5b_branch2b
02-28 10:09:25.197  6856  6856 I caffe_jni: I0228 10:09:25.197964  6856 net.cpp:410] res5b_branch2c -> res5b_branch2c
02-28 10:09:25.200  6856  6856 I caffe_jni: I0228 10:09:25.200487  6856 net.cpp:152] Setting up res5b_branch2c
02-28 10:09:25.200  6856  6856 I caffe_jni: I0228 10:09:25.200598  6856 net.cpp:159] Top shape: 1 2048 14 14 (401408)
02-28 10:09:25.200  6856  6856 I caffe_jni: I0228 10:09:25.200635  6856 net.cpp:167] Memory required for data: 245461004
02-28 10:09:25.200  6856  6856 I caffe_jni: I0228 10:09:25.200664  6856 layer_factory.hpp:77] Creating layer bn5b_branch2c
02-28 10:09:25.200  6856  6856 I caffe_jni: I0228 10:09:25.200697  6856 net.cpp:102] Creating Layer bn5b_branch2c
02-28 10:09:25.200  6856  6856 I caffe_jni: I0228 10:09:25.200731  6856 net.cpp:436] bn5b_branch2c <- res5b_branch2c
02-28 10:09:25.200  6856  6856 I caffe_jni: I0228 10:09:25.200757  6856 net.cpp:397] bn5b_branch2c -> res5b_branch2c (in-place)
02-28 10:09:25.200  6856  6856 I caffe_jni: I0228 10:09:25.200814  6856 net.cpp:152] Setting up bn5b_branch2c
02-28 10:09:25.200  6856  6856 I caffe_jni: I0228 10:09:25.200844  6856 net.cpp:159] Top shape: 1 2048 14 14 (401408)
02-28 10:09:25.200  6856  6856 I caffe_jni: I0228 10:09:25.200875  6856 net.cpp:167] Memory required for data: 247066636
02-28 10:09:25.200  6856  6856 I caffe_jni: I0228 10:09:25.200897  6856 layer_factory.hpp:77] Creating layer scale5b_branch2c
02-28 10:09:25.200  6856  6856 I caffe_jni: I0228 10:09:25.200922  6856 net.cpp:102] Creating Layer scale5b_branch2c
02-28 10:09:25.200  6856  6856 I caffe_jni: I0228 10:09:25.200939  6856 net.cpp:436] scale5b_branch2c <- res5b_branch2c
02-28 10:09:25.200  6856  6856 I caffe_jni: I0228 10:09:25.200960  6856 net.cpp:397] scale5b_branch2c -> res5b_branch2c (in-place)
02-28 10:09:25.201  6856  6856 I caffe_jni: I0228 10:09:25.201004  6856 layer_factory.hpp:77] Creating layer scale5b_branch2c
02-28 10:09:25.201  6856  6856 I caffe_jni: I0228 10:09:25.201051  6856 net.cpp:152] Setting up scale5b_branch2c
02-28 10:09:25.201  6856  6856 I caffe_jni: I0228 10:09:25.201073  6856 net.cpp:159] Top shape: 1 2048 14 14 (401408)
02-28 10:09:25.201  6856  6856 I caffe_jni: I0228 10:09:25.201097  6856 net.cpp:167] Memory required for data: 248672268
02-28 10:09:25.201  6856  6856 I caffe_jni: I0228 10:09:25.201122  6856 layer_factory.hpp:77] Creating layer res5b
02-28 10:09:25.201  6856  6856 I caffe_jni: I0228 10:09:25.201148  6856 net.cpp:102] Creating Layer res5b
02-28 10:09:25.201  6856  6856 I caffe_jni: I0228 10:09:25.201165  6856 net.cpp:436] res5b <- res5a_res5a_relu_0_split_1
02-28 10:09:25.201  6856  6856 I caffe_jni: I0228 10:09:25.201184  6856 net.cpp:436] res5b <- res5b_branch2c
02-28 10:09:25.201  6856  6856 I caffe_jni: I0228 10:09:25.201202  6856 net.cpp:410] res5b -> res5b
02-28 10:09:25.201  6856  6856 I caffe_jni: I0228 10:09:25.201226  6856 net.cpp:152] Setting up res5b
02-28 10:09:25.201  6856  6856 I caffe_jni: I0228 10:09:25.201242  6856 net.cpp:159] Top shape: 1 2048 14 14 (401408)
02-28 10:09:25.201  6856  6856 I caffe_jni: I0228 10:09:25.201262  6856 net.cpp:167] Memory required for data: 250277900
02-28 10:09:25.201  6856  6856 I caffe_jni: I0228 10:09:25.201283  6856 layer_factory.hpp:77] Creating layer res5b_relu
02-28 10:09:25.201  6856  6856 I caffe_jni: I0228 10:09:25.201305  6856 net.cpp:102] Creating Layer res5b_relu
02-28 10:09:25.201  6856  6856 I caffe_jni: I0228 10:09:25.201323  6856 net.cpp:436] res5b_relu <- res5b
02-28 10:09:25.201  6856  6856 I caffe_jni: I0228 10:09:25.201341  6856 net.cpp:397] res5b_relu -> res5b (in-place)
02-28 10:09:25.201  6856  6856 I caffe_jni: I0228 10:09:25.201362  6856 net.cpp:152] Setting up res5b_relu
02-28 10:09:25.201  6856  6856 I caffe_jni: I0228 10:09:25.201380  6856 net.cpp:159] Top shape: 1 2048 14 14 (401408)
02-28 10:09:25.201  6856  6856 I caffe_jni: I0228 10:09:25.201402  6856 net.cpp:167] Memory required for data: 251883532
02-28 10:09:25.201  6856  6856 I caffe_jni: I0228 10:09:25.201419  6856 layer_factory.hpp:77] Creating layer res5b_res5b_relu_0_split
02-28 10:09:25.201  6856  6856 I caffe_jni: I0228 10:09:25.201441  6856 net.cpp:102] Creating Layer res5b_res5b_relu_0_split
02-28 10:09:25.201  6856  6856 I caffe_jni: I0228 10:09:25.201457  6856 net.cpp:436] res5b_res5b_relu_0_split <- res5b
02-28 10:09:25.201  6856  6856 I caffe_jni: I0228 10:09:25.201476  6856 net.cpp:410] res5b_res5b_relu_0_split -> res5b_res5b_relu_0_split_0
02-28 10:09:25.201  6856  6856 I caffe_jni: I0228 10:09:25.201499  6856 net.cpp:410] res5b_res5b_relu_0_split -> res5b_res5b_relu_0_split_1
02-28 10:09:25.201  6856  6856 I caffe_jni: I0228 10:09:25.201527  6856 net.cpp:152] Setting up res5b_res5b_relu_0_split
02-28 10:09:25.201  6856  6856 I caffe_jni: I0228 10:09:25.201544  6856 net.cpp:159] Top shape: 1 2048 14 14 (401408)
02-28 10:09:25.201  6856  6856 I caffe_jni: I0228 10:09:25.201561  6856 net.cpp:159] Top shape: 1 2048 14 14 (401408)
02-28 10:09:25.201  6856  6856 I caffe_jni: I0228 10:09:25.201580  6856 net.cpp:167] Memory required for data: 255094796
02-28 10:09:25.201  6856  6856 I caffe_jni: I0228 10:09:25.201596  6856 layer_factory.hpp:77] Creating layer res5c_branch2a
02-28 10:09:25.201  6856  6856 I caffe_jni: I0228 10:09:25.201618  6856 net.cpp:102] Creating Layer res5c_branch2a
02-28 10:09:25.201  6856  6856 I caffe_jni: I0228 10:09:25.201638  6856 net.cpp:436] res5c_branch2a <- res5b_res5b_relu_0_split_0
02-28 10:09:25.201  6856  6856 I caffe_jni: I0228 10:09:25.201661  6856 net.cpp:410] res5c_branch2a -> res5c_branch2a
02-28 10:09:25.203  6856  6856 I caffe_jni: I0228 10:09:25.203855  6856 net.cpp:152] Setting up res5c_branch2a
02-28 10:09:25.203  6856  6856 I caffe_jni: I0228 10:09:25.203949  6856 net.cpp:159] Top shape: 1 512 14 14 (100352)
02-28 10:09:25.203  6856  6856 I caffe_jni: I0228 10:09:25.203986  6856 net.cpp:167] Memory required for data: 255496204
02-28 10:09:25.204  6856  6856 I caffe_jni: I0228 10:09:25.204013  6856 layer_factory.hpp:77] Creating layer bn5c_branch2a
02-28 10:09:25.204  6856  6856 I caffe_jni: I0228 10:09:25.204041  6856 net.cpp:102] Creating Layer bn5c_branch2a
02-28 10:09:25.204  6856  6856 I caffe_jni: I0228 10:09:25.204064  6856 net.cpp:436] bn5c_branch2a <- res5c_branch2a
02-28 10:09:25.204  6856  6856 I caffe_jni: I0228 10:09:25.204088  6856 net.cpp:397] bn5c_branch2a -> res5c_branch2a (in-place)
02-28 10:09:25.204  6856  6856 I caffe_jni: I0228 10:09:25.204141  6856 net.cpp:152] Setting up bn5c_branch2a
02-28 10:09:25.204  6856  6856 I caffe_jni: I0228 10:09:25.204164  6856 net.cpp:159] Top shape: 1 512 14 14 (100352)
02-28 10:09:25.204  6856  6856 I caffe_jni: I0228 10:09:25.204193  6856 net.cpp:167] Memory required for data: 255897612
02-28 10:09:25.204  6856  6856 I caffe_jni: I0228 10:09:25.204218  6856 layer_factory.hpp:77] Creating layer scale5c_branch2a
02-28 10:09:25.204  6856  6856 I caffe_jni: I0228 10:09:25.204241  6856 net.cpp:102] Creating Layer scale5c_branch2a
02-28 10:09:25.204  6856  6856 I caffe_jni: I0228 10:09:25.204257  6856 net.cpp:436] scale5c_branch2a <- res5c_branch2a
02-28 10:09:25.204  6856  6856 I caffe_jni: I0228 10:09:25.204278  6856 net.cpp:397] scale5c_branch2a -> res5c_branch2a (in-place)
02-28 10:09:25.204  6856  6856 I caffe_jni: I0228 10:09:25.204318  6856 layer_factory.hpp:77] Creating layer scale5c_branch2a
02-28 10:09:25.204  6856  6856 I caffe_jni: I0228 10:09:25.204372  6856 net.cpp:152] Setting up scale5c_branch2a
02-28 10:09:25.204  6856  6856 I caffe_jni: I0228 10:09:25.204393  6856 net.cpp:159] Top shape: 1 512 14 14 (100352)
02-28 10:09:25.204  6856  6856 I caffe_jni: I0228 10:09:25.204413  6856 net.cpp:167] Memory required for data: 256299020
02-28 10:09:25.204  6856  6856 I caffe_jni: I0228 10:09:25.204437  6856 layer_factory.hpp:77] Creating layer res5c_branch2a_relu
02-28 10:09:25.204  6856  6856 I caffe_jni: I0228 10:09:25.204458  6856 net.cpp:102] Creating Layer res5c_branch2a_relu
02-28 10:09:25.204  6856  6856 I caffe_jni: I0228 10:09:25.204475  6856 net.cpp:436] res5c_branch2a_relu <- res5c_branch2a
02-28 10:09:25.204  6856  6856 I caffe_jni: I0228 10:09:25.204496  6856 net.cpp:397] res5c_branch2a_relu -> res5c_branch2a (in-place)
02-28 10:09:25.204  6856  6856 I caffe_jni: I0228 10:09:25.204521  6856 net.cpp:152] Setting up res5c_branch2a_relu
02-28 10:09:25.204  6856  6856 I caffe_jni: I0228 10:09:25.204538  6856 net.cpp:159] Top shape: 1 512 14 14 (100352)
02-28 10:09:25.204  6856  6856 I caffe_jni: I0228 10:09:25.204556  6856 net.cpp:167] Memory required for data: 256700428
02-28 10:09:25.204  6856  6856 I caffe_jni: I0228 10:09:25.204572  6856 layer_factory.hpp:77] Creating layer res5c_branch2b
02-28 10:09:25.204  6856  6856 I caffe_jni: I0228 10:09:25.204596  6856 net.cpp:102] Creating Layer res5c_branch2b
02-28 10:09:25.204  6856  6856 I caffe_jni: I0228 10:09:25.204612  6856 net.cpp:436] res5c_branch2b <- res5c_branch2a
02-28 10:09:25.204  6856  6856 I caffe_jni: I0228 10:09:25.204633  6856 net.cpp:410] res5c_branch2b -> res5c_branch2b
02-28 10:09:25.209  6856  6856 I caffe_jni: I0228 10:09:25.209465  6856 net.cpp:152] Setting up res5c_branch2b
02-28 10:09:25.209  6856  6856 I caffe_jni: I0228 10:09:25.209561  6856 net.cpp:159] Top shape: 1 512 14 14 (100352)
02-28 10:09:25.209  6856  6856 I caffe_jni: I0228 10:09:25.209602  6856 net.cpp:167] Memory required for data: 257101836
02-28 10:09:25.209  6856  6856 I caffe_jni: I0228 10:09:25.209630  6856 layer_factory.hpp:77] Creating layer bn5c_branch2b
02-28 10:09:25.209  6856  6856 I caffe_jni: I0228 10:09:25.209659  6856 net.cpp:102] Creating Layer bn5c_branch2b
02-28 10:09:25.209  6856  6856 I caffe_jni: I0228 10:09:25.209692  6856 net.cpp:436] bn5c_branch2b <- res5c_branch2b
02-28 10:09:25.209  6856  6856 I caffe_jni: I0228 10:09:25.209719  6856 net.cpp:397] bn5c_branch2b -> res5c_branch2b (in-place)
02-28 10:09:25.209  6856  6856 I caffe_jni: I0228 10:09:25.209764  6856 net.cpp:152] Setting up bn5c_branch2b
02-28 10:09:25.209  6856  6856 I caffe_jni: I0228 10:09:25.209785  6856 net.cpp:159] Top shape: 1 512 14 14 (100352)
02-28 10:09:25.209  6856  6856 I caffe_jni: I0228 10:09:25.209810  6856 net.cpp:167] Memory required for data: 257503244
02-28 10:09:25.209  6856  6856 I caffe_jni: I0228 10:09:25.209836  6856 layer_factory.hpp:77] Creating layer scale5c_branch2b
02-28 10:09:25.209  6856  6856 I caffe_jni: I0228 10:09:25.209863  6856 net.cpp:102] Creating Layer scale5c_branch2b
02-28 10:09:25.209  6856  6856 I caffe_jni: I0228 10:09:25.209880  6856 net.cpp:436] scale5c_branch2b <- res5c_branch2b
02-28 10:09:25.209  6856  6856 I caffe_jni: I0228 10:09:25.209903  6856 net.cpp:397] scale5c_branch2b -> res5c_branch2b (in-place)
02-28 10:09:25.209  6856  6856 I caffe_jni: I0228 10:09:25.209939  6856 layer_factory.hpp:77] Creating layer scale5c_branch2b
02-28 10:09:25.209  6856  6856 I caffe_jni: I0228 10:09:25.209977  6856 net.cpp:152] Setting up scale5c_branch2b
02-28 10:09:25.210  6856  6856 I caffe_jni: I0228 10:09:25.209995  6856 net.cpp:159] Top shape: 1 512 14 14 (100352)
02-28 10:09:25.210  6856  6856 I caffe_jni: I0228 10:09:25.210013  6856 net.cpp:167] Memory required for data: 257904652
02-28 10:09:25.210  6856  6856 I caffe_jni: I0228 10:09:25.210033  6856 layer_factory.hpp:77] Creating layer res5c_branch2b_relu
02-28 10:09:25.210  6856  6856 I caffe_jni: I0228 10:09:25.210053  6856 net.cpp:102] Creating Layer res5c_branch2b_relu
02-28 10:09:25.210  6856  6856 I caffe_jni: I0228 10:09:25.210073  6856 net.cpp:436] res5c_branch2b_relu <- res5c_branch2b
02-28 10:09:25.210  6856  6856 I caffe_jni: I0228 10:09:25.210096  6856 net.cpp:397] res5c_branch2b_relu -> res5c_branch2b (in-place)
02-28 10:09:25.210  6856  6856 I caffe_jni: I0228 10:09:25.210140  6856 net.cpp:152] Setting up res5c_branch2b_relu
02-28 10:09:25.210  6856  6856 I caffe_jni: I0228 10:09:25.210160  6856 net.cpp:159] Top shape: 1 512 14 14 (100352)
02-28 10:09:25.210  6856  6856 I caffe_jni: I0228 10:09:25.210178  6856 net.cpp:167] Memory required for data: 258306060
02-28 10:09:25.210  6856  6856 I caffe_jni: I0228 10:09:25.210194  6856 layer_factory.hpp:77] Creating layer res5c_branch2c
02-28 10:09:25.210  6856  6856 I caffe_jni: I0228 10:09:25.210216  6856 net.cpp:102] Creating Layer res5c_branch2c
02-28 10:09:25.210  6856  6856 I caffe_jni: I0228 10:09:25.210234  6856 net.cpp:436] res5c_branch2c <- res5c_branch2b
02-28 10:09:25.210  6856  6856 I caffe_jni: I0228 10:09:25.210259  6856 net.cpp:410] res5c_branch2c -> res5c_branch2c
02-28 10:09:25.212  6856  6856 I caffe_jni: I0228 10:09:25.212395  6856 net.cpp:152] Setting up res5c_branch2c
02-28 10:09:25.212  6856  6856 I caffe_jni: I0228 10:09:25.212486  6856 net.cpp:159] Top shape: 1 2048 14 14 (401408)
02-28 10:09:25.212  6856  6856 I caffe_jni: I0228 10:09:25.212522  6856 net.cpp:167] Memory required for data: 259911692
02-28 10:09:25.212  6856  6856 I caffe_jni: I0228 10:09:25.212548  6856 layer_factory.hpp:77] Creating layer bn5c_branch2c
02-28 10:09:25.212  6856  6856 I caffe_jni: I0228 10:09:25.212577  6856 net.cpp:102] Creating Layer bn5c_branch2c
02-28 10:09:25.212  6856  6856 I caffe_jni: I0228 10:09:25.212599  6856 net.cpp:436] bn5c_branch2c <- res5c_branch2c
02-28 10:09:25.212  6856  6856 I caffe_jni: I0228 10:09:25.212623  6856 net.cpp:397] bn5c_branch2c -> res5c_branch2c (in-place)
02-28 10:09:25.212  6856  6856 I caffe_jni: I0228 10:09:25.212678  6856 net.cpp:152] Setting up bn5c_branch2c
02-28 10:09:25.212  6856  6856 I caffe_jni: I0228 10:09:25.212707  6856 net.cpp:159] Top shape: 1 2048 14 14 (401408)
02-28 10:09:25.212  6856  6856 I caffe_jni: I0228 10:09:25.212725  6856 net.cpp:167] Memory required for data: 261517324
02-28 10:09:25.212  6856  6856 I caffe_jni: I0228 10:09:25.212749  6856 layer_factory.hpp:77] Creating layer scale5c_branch2c
02-28 10:09:25.212  6856  6856 I caffe_jni: I0228 10:09:25.212771  6856 net.cpp:102] Creating Layer scale5c_branch2c
02-28 10:09:25.212  6856  6856 I caffe_jni: I0228 10:09:25.212787  6856 net.cpp:436] scale5c_branch2c <- res5c_branch2c
02-28 10:09:25.212  6856  6856 I caffe_jni: I0228 10:09:25.212810  6856 net.cpp:397] scale5c_branch2c -> res5c_branch2c (in-place)
02-28 10:09:25.212  6856  6856 I caffe_jni: I0228 10:09:25.212851  6856 layer_factory.hpp:77] Creating layer scale5c_branch2c
02-28 10:09:25.212  6856  6856 I caffe_jni: I0228 10:09:25.212895  6856 net.cpp:152] Setting up scale5c_branch2c
02-28 10:09:25.212  6856  6856 I caffe_jni: I0228 10:09:25.212913  6856 net.cpp:159] Top shape: 1 2048 14 14 (401408)
02-28 10:09:25.212  6856  6856 I caffe_jni: I0228 10:09:25.212931  6856 net.cpp:167] Memory required for data: 263122956
02-28 10:09:25.212  6856  6856 I caffe_jni: I0228 10:09:25.212955  6856 layer_factory.hpp:77] Creating layer res5c
02-28 10:09:25.212  6856  6856 I caffe_jni: I0228 10:09:25.212980  6856 net.cpp:102] Creating Layer res5c
02-28 10:09:25.213  6856  6856 I caffe_jni: I0228 10:09:25.212998  6856 net.cpp:436] res5c <- res5b_res5b_relu_0_split_1
02-28 10:09:25.213  6856  6856 I caffe_jni: I0228 10:09:25.213016  6856 net.cpp:436] res5c <- res5c_branch2c
02-28 10:09:25.213  6856  6856 I caffe_jni: I0228 10:09:25.213035  6856 net.cpp:410] res5c -> res5c
02-28 10:09:25.213  6856  6856 I caffe_jni: I0228 10:09:25.213060  6856 net.cpp:152] Setting up res5c
02-28 10:09:25.213  6856  6856 I caffe_jni: I0228 10:09:25.213078  6856 net.cpp:159] Top shape: 1 2048 14 14 (401408)
02-28 10:09:25.213  6856  6856 I caffe_jni: I0228 10:09:25.213100  6856 net.cpp:167] Memory required for data: 264728588
02-28 10:09:25.213  6856  6856 I caffe_jni: I0228 10:09:25.213116  6856 layer_factory.hpp:77] Creating layer res5c_relu
02-28 10:09:25.213  6856  6856 I caffe_jni: I0228 10:09:25.213136  6856 net.cpp:102] Creating Layer res5c_relu
02-28 10:09:25.213  6856  6856 I caffe_jni: I0228 10:09:25.213151  6856 net.cpp:436] res5c_relu <- res5c
02-28 10:09:25.213  6856  6856 I caffe_jni: I0228 10:09:25.213168  6856 net.cpp:397] res5c_relu -> res5c (in-place)
02-28 10:09:25.213  6856  6856 I caffe_jni: I0228 10:09:25.213189  6856 net.cpp:152] Setting up res5c_relu
02-28 10:09:25.213  6856  6856 I caffe_jni: I0228 10:09:25.213204  6856 net.cpp:159] Top shape: 1 2048 14 14 (401408)
02-28 10:09:25.213  6856  6856 I caffe_jni: I0228 10:09:25.213224  6856 net.cpp:167] Memory required for data: 266334220
02-28 10:09:25.213  6856  6856 I caffe_jni: I0228 10:09:25.213243  6856 layer_factory.hpp:77] Creating layer rpn_conv/3x3
02-28 10:09:25.213  6856  6856 I caffe_jni: I0228 10:09:25.213270  6856 net.cpp:102] Creating Layer rpn_conv/3x3
02-28 10:09:25.213  6856  6856 I caffe_jni: I0228 10:09:25.213287  6856 net.cpp:436] rpn_conv/3x3 <- res4f_res4f_relu_0_split_2
…
02-28 10:09:25.472  3560  7076 I DecodeUtils: decodeThumbnail filePath not exist : /storage/emulated/0/Download/demo_android/tensorflow/dataset/imagenet/crop299/0000089.png
02-28 10:09:25.477  2004  2004 W HwKeyguardBottomArea: ShowIndicationRunner End
02-28 10:09:25.483   742  1826 D DE N VH : run:148: Stop
02-28 10:09:25.633  3560  7076 I DecodeUtils: decodeThumbnail filePath not exist : /storage/emulated/0/Download/demo_android/tensorflow/dataset/imagenet/crop299/0000041.png
02-28 10:09:25.698  6856  6856 I caffe_jni: I0228 10:09:25.698660  6856 net.cpp:152] Setting up rpn_conv/3x3
02-28 10:09:25.698  6856  6856 I caffe_jni: I0228 10:09:25.698947  6856 net.cpp:159] Top shape: 1 512 14 14 (100352)
02-28 10:09:25.698  6856  6856 I caffe_jni: I0228 10:09:25.698985  6856 net.cpp:167] Memory required for data: 266735628
02-28 10:09:25.699  6856  6856 I caffe_jni: I0228 10:09:25.699023  6856 layer_factory.hpp:77] Creating layer rpn_relu/3x3
02-28 10:09:25.699  6856  6856 I caffe_jni: I0228 10:09:25.699055  6856 net.cpp:102] Creating Layer rpn_relu/3x3
02-28 10:09:25.699  6856  6856 I caffe_jni: I0228 10:09:25.699080  6856 net.cpp:436] rpn_relu/3x3 <- rpn/output
02-28 10:09:25.699  6856  6856 I caffe_jni: I0228 10:09:25.699105  6856 net.cpp:397] rpn_relu/3x3 -> rpn/output (in-place)
02-28 10:09:25.699  6856  6856 I caffe_jni: I0228 10:09:25.699136  6856 net.cpp:152] Setting up rpn_relu/3x3
02-28 10:09:25.699  6856  6856 I caffe_jni: I0228 10:09:25.699156  6856 net.cpp:159] Top shape: 1 512 14 14 (100352)
02-28 10:09:25.699  6856  6856 I caffe_jni: I0228 10:09:25.699177  6856 net.cpp:167] Memory required for data: 267137036
02-28 10:09:25.699  6856  6856 I caffe_jni: I0228 10:09:25.699199  6856 layer_factory.hpp:77] Creating layer rpn/output_rpn_relu/3x3_0_split
02-28 10:09:25.699  6856  6856 I caffe_jni: I0228 10:09:25.699228  6856 net.cpp:102] Creating Layer rpn/output_rpn_relu/3x3_0_split
02-28 10:09:25.699  6856  6856 I caffe_jni: I0228 10:09:25.699247  6856 net.cpp:436] rpn/output_rpn_relu/3x3_0_split <- rpn/output
02-28 10:09:25.699  6856  6856 I caffe_jni: I0228 10:09:25.699268  6856 net.cpp:410] rpn/output_rpn_relu/3x3_0_split -> rpn/output_rpn_relu/3x3_0_split_0
02-28 10:09:25.699  6856  6856 I caffe_jni: I0228 10:09:25.699293  6856 net.cpp:410] rpn/output_rpn_relu/3x3_0_split -> rpn/output_rpn_relu/3x3_0_split_1
02-28 10:09:25.699  6856  6856 I caffe_jni: I0228 10:09:25.699321  6856 net.cpp:152] Setting up rpn/output_rpn_relu/3x3_0_split
02-28 10:09:25.699  6856  6856 I caffe_jni: I0228 10:09:25.699340  6856 net.cpp:159] Top shape: 1 512 14 14 (100352)
02-28 10:09:25.699  6856  6856 I caffe_jni: I0228 10:09:25.699365  6856 net.cpp:159] Top shape: 1 512 14 14 (100352)
02-28 10:09:25.699  6856  6856 I caffe_jni: I0228 10:09:25.699393  6856 net.cpp:167] Memory required for data: 267939852
02-28 10:09:25.699  6856  6856 I caffe_jni: I0228 10:09:25.699414  6856 layer_factory.hpp:77] Creating layer rpn_cls_score
02-28 10:09:25.699  6856  6856 I caffe_jni: I0228 10:09:25.699442  6856 net.cpp:102] Creating Layer rpn_cls_score
02-28 10:09:25.699  6856  6856 I caffe_jni: I0228 10:09:25.699465  6856 net.cpp:436] rpn_cls_score <- rpn/output_rpn_relu/3x3_0_split_0
02-28 10:09:25.699  6856  6856 I caffe_jni: I0228 10:09:25.699486  6856 net.cpp:410] rpn_cls_score -> rpn_cls_score
02-28 10:09:25.700  6856  6856 I caffe_jni: I0228 10:09:25.700492  6856 net.cpp:152] Setting up rpn_cls_score
02-28 10:09:25.700  6856  6856 I caffe_jni: I0228 10:09:25.700523  6856 net.cpp:159] Top shape: 1 18 14 14 (3528)
02-28 10:09:25.700  6856  6856 I caffe_jni: I0228 10:09:25.700546  6856 net.cpp:167] Memory required for data: 267953964
02-28 10:09:25.700  6856  6856 I caffe_jni: I0228 10:09:25.700570  6856 layer_factory.hpp:77] Creating layer rpn_bbox_pred
02-28 10:09:25.700  6856  6856 I caffe_jni: I0228 10:09:25.700595  6856 net.cpp:102] Creating Layer rpn_bbox_pred
02-28 10:09:25.700  6856  6856 I caffe_jni: I0228 10:09:25.700614  6856 net.cpp:436] rpn_bbox_pred <- rpn/output_rpn_relu/3x3_0_split_1
02-28 10:09:25.700  6856  6856 I caffe_jni: I0228 10:09:25.700639  6856 net.cpp:410] rpn_bbox_pred -> rpn_bbox_pred
02-28 10:09:25.702  6856  6856 I caffe_jni: I0228 10:09:25.702602  6856 net.cpp:152] Setting up rpn_bbox_pred
02-28 10:09:25.702  6856  6856 I caffe_jni: I0228 10:09:25.702633  6856 net.cpp:159] Top shape: 1 36 14 14 (7056)
02-28 10:09:25.702  6856  6856 I caffe_jni: I0228 10:09:25.702661  6856 net.cpp:167] Memory required for data: 267982188
02-28 10:09:25.702  6856  6856 I caffe_jni: I0228 10:09:25.702690  6856 layer_factory.hpp:77] Creating layer rpn_cls_score_reshape
02-28 10:09:25.702  6856  6856 I caffe_jni: I0228 10:09:25.702725  6856 net.cpp:102] Creating Layer rpn_cls_score_reshape
02-28 10:09:25.702  6856  6856 I caffe_jni: I0228 10:09:25.702747  6856 net.cpp:436] rpn_cls_score_reshape <- rpn_cls_score
02-28 10:09:25.702  6856  6856 I caffe_jni: I0228 10:09:25.702770  6856 net.cpp:410] rpn_cls_score_reshape -> rpn_cls_score_reshape
02-28 10:09:25.702  6856  6856 I caffe_jni: I0228 10:09:25.702800  6856 net.cpp:152] Setting up rpn_cls_score_reshape
02-28 10:09:25.702  6856  6856 I caffe_jni: I0228 10:09:25.702819  6856 net.cpp:159] Top shape: 1 2 126 14 (3528)
02-28 10:09:25.702  6856  6856 I caffe_jni: I0228 10:09:25.702843  6856 net.cpp:167] Memory required for data: 267996300
02-28 10:09:25.702  6856  6856 I caffe_jni: I0228 10:09:25.702869  6856 layer_factory.hpp:77] Creating layer rpn_cls_prob
02-28 10:09:25.702  6856  6856 I caffe_jni: I0228 10:09:25.702890  6856 net.cpp:102] Creating Layer rpn_cls_prob
02-28 10:09:25.702  6856  6856 I caffe_jni: I0228 10:09:25.702910  6856 net.cpp:436] rpn_cls_prob <- rpn_cls_score_reshape
02-28 10:09:25.702  6856  6856 I caffe_jni: I0228 10:09:25.702930  6856 net.cpp:410] rpn_cls_prob -> rpn_cls_prob
02-28 10:09:25.702  6856  6856 I caffe_jni: I0228 10:09:25.702960  6856 net.cpp:152] Setting up rpn_cls_prob
02-28 10:09:25.702  6856  6856 I caffe_jni: I0228 10:09:25.702986  6856 net.cpp:159] Top shape: 1 2 126 14 (3528)
02-28 10:09:25.703  6856  6856 I caffe_jni: I0228 10:09:25.703008  6856 net.cpp:167] Memory required for data: 268010412
02-28 10:09:25.703  6856  6856 I caffe_jni: I0228 10:09:25.703032  6856 layer_factory.hpp:77] Creating layer rpn_cls_prob_reshape
02-28 10:09:25.703  6856  6856 I caffe_jni: I0228 10:09:25.703058  6856 net.cpp:102] Creating Layer rpn_cls_prob_reshape
02-28 10:09:25.703  6856  6856 I caffe_jni: I0228 10:09:25.703078  6856 net.cpp:436] rpn_cls_prob_reshape <- rpn_cls_prob
02-28 10:09:25.703  6856  6856 I caffe_jni: I0228 10:09:25.703099  6856 net.cpp:410] rpn_cls_prob_reshape -> rpn_cls_prob_reshape
02-28 10:09:25.703  6856  6856 I caffe_jni: I0228 10:09:25.703125  6856 net.cpp:152] Setting up rpn_cls_prob_reshape
02-28 10:09:25.703  6856  6856 I caffe_jni: I0228 10:09:25.703143  6856 net.cpp:159] Top shape: 1 18 14 14 (3528)
02-28 10:09:25.703  6856  6856 I caffe_jni: I0228 10:09:25.703163  6856 net.cpp:167] Memory required for data: 268024524
02-28 10:09:25.703  6856  6856 I caffe_jni: I0228 10:09:25.703186  6856 layer_factory.hpp:77] Creating layer proposal
02-28 10:09:25.703  6856  6856 I caffe_jni: I0228 10:09:25.703215  6856 net.cpp:102] Creating Layer proposal
02-28 10:09:25.703  6856  6856 I caffe_jni: I0228 10:09:25.703234  6856 net.cpp:436] proposal <- rpn_cls_prob_reshape
02-28 10:09:25.703  6856  6856 I caffe_jni: I0228 10:09:25.703254  6856 net.cpp:436] proposal <- rpn_bbox_pred
02-28 10:09:25.703  6856  6856 I caffe_jni: I0228 10:09:25.703721  6856 net.cpp:436] proposal <- im_info
02-28 10:09:25.703  6856  6856 I caffe_jni: I0228 10:09:25.703817  6856 net.cpp:410] proposal -> rois
02-28 10:09:25.703  6856  6856 I caffe_jni: I0228 10:09:25.703858  6856 net.cpp:152] Setting up proposal
02-28 10:09:25.703  6856  6856 I caffe_jni: I0228 10:09:25.703881  6856 net.cpp:159] Top shape: 300 5 1 1 (1500)
02-28 10:09:25.703  6856  6856 I caffe_jni: I0228 10:09:25.703907  6856 net.cpp:167] Memory required for data: 268030524
02-28 10:09:25.703  6856  6856 I caffe_jni: I0228 10:09:25.703927  6856 layer_factory.hpp:77] Creating layer rois_proposal_0_split
02-28 10:09:25.703  6856  6856 I caffe_jni: I0228 10:09:25.703958  6856 net.cpp:102] Creating Layer rois_proposal_0_split
02-28 10:09:25.703  6856  6856 I caffe_jni: I0228 10:09:25.703984  6856 net.cpp:436] rois_proposal_0_split <- rois
02-28 10:09:25.704  6856  6856 I caffe_jni: I0228 10:09:25.704005  6856 net.cpp:410] rois_proposal_0_split -> rois_proposal_0_split_0
02-28 10:09:25.704  6856  6856 I caffe_jni: I0228 10:09:25.704030  6856 net.cpp:410] rois_proposal_0_split -> rois_proposal_0_split_1
02-28 10:09:25.704  6856  6856 I caffe_jni: I0228 10:09:25.704056  6856 net.cpp:152] Setting up rois_proposal_0_split
02-28 10:09:25.704  6856  6856 I caffe_jni: I0228 10:09:25.704077  6856 net.cpp:159] Top shape: 300 5 1 1 (1500)
02-28 10:09:25.704  6856  6856 I caffe_jni: I0228 10:09:25.704097  6856 net.cpp:159] Top shape: 300 5 1 1 (1500)
02-28 10:09:25.704  6856  6856 I caffe_jni: I0228 10:09:25.704119  6856 net.cpp:167] Memory required for data: 268042524
02-28 10:09:25.704  6856  6856 I caffe_jni: I0228 10:09:25.704145  6856 layer_factory.hpp:77] Creating layer conv_new_1
02-28 10:09:25.704  6856  6856 I caffe_jni: I0228 10:09:25.704174  6856 net.cpp:102] Creating Layer conv_new_1
02-28 10:09:25.704  6856  6856 I caffe_jni: I0228 10:09:25.704195  6856 net.cpp:436] conv_new_1 <- res5c
…
02-28 10:09:25.766   742  1828 D DE N HWC: apply:55: FEATURE_DDIC_RGBW: mEnable=0 enable=0
02-28 10:09:25.766   742  1828 D DE N HWC: apply:55: FEATURE_DDIC_CABC: mEnable=0 enable=0
02-28 10:09:25.782   742  1826 D DE N VH : run:148: Stop
02-28 10:09:25.794  3560  7076 I DecodeUtils: decodeThumbnail filePath not exist : /storage/emulated/0/Download/demo_android/tensorflow/dataset/imagenet/crop299/0000024.png
02-28 10:09:25.919  6856  6856 I caffe_jni: I0228 10:09:25.919332  6856 net.cpp:152] Setting up conv_new_1
02-28 10:09:25.919  6856  6856 I caffe_jni: I0228 10:09:25.919442  6856 net.cpp:159] Top shape: 1 1024 14 14 (200704)
02-28 10:09:25.919  6856  6856 I caffe_jni: I0228 10:09:25.919481  6856 net.cpp:167] Memory required for data: 268845340
02-28 10:09:25.919  6856  6856 I caffe_jni: I0228 10:09:25.919520  6856 layer_factory.hpp:77] Creating layer conv_new_1_relu
02-28 10:09:25.919  6856  6856 I caffe_jni: I0228 10:09:25.919553  6856 net.cpp:102] Creating Layer conv_new_1_relu
02-28 10:09:25.919  6856  6856 I caffe_jni: I0228 10:09:25.919575  6856 net.cpp:436] conv_new_1_relu <- conv_new_1
02-28 10:09:25.919  6856  6856 I caffe_jni: I0228 10:09:25.919600  6856 net.cpp:397] conv_new_1_relu -> conv_new_1 (in-place)
02-28 10:09:25.919  6856  6856 I caffe_jni: I0228 10:09:25.919628  6856 net.cpp:152] Setting up conv_new_1_relu
02-28 10:09:25.919  6856  6856 I caffe_jni: I0228 10:09:25.919647  6856 net.cpp:159] Top shape: 1 1024 14 14 (200704)
02-28 10:09:25.919  6856  6856 I caffe_jni: I0228 10:09:25.919672  6856 net.cpp:167] Memory required for data: 269648156
02-28 10:09:25.919  6856  6856 I caffe_jni: I0228 10:09:25.919695  6856 layer_factory.hpp:77] Creating layer conv_new_1_conv_new_1_relu_0_split
02-28 10:09:25.919  6856  6856 I caffe_jni: I0228 10:09:25.919718  6856 net.cpp:102] Creating Layer conv_new_1_conv_new_1_relu_0_split
02-28 10:09:25.919  6856  6856 I caffe_jni: I0228 10:09:25.919739  6856 net.cpp:436] conv_new_1_conv_new_1_relu_0_split <- conv_new_1
02-28 10:09:25.919  6856  6856 I caffe_jni: I0228 10:09:25.919761  6856 net.cpp:410] conv_new_1_conv_new_1_relu_0_split -> conv_new_1_conv_new_1_relu_0_split_0
02-28 10:09:25.919  6856  6856 I caffe_jni: I0228 10:09:25.919787  6856 net.cpp:410] conv_new_1_conv_new_1_relu_0_split -> conv_new_1_conv_new_1_relu_0_split_1
02-28 10:09:25.919  6856  6856 I caffe_jni: I0228 10:09:25.919816  6856 net.cpp:152] Setting up conv_new_1_conv_new_1_relu_0_split
02-28 10:09:25.919  6856  6856 I caffe_jni: I0228 10:09:25.919839  6856 net.cpp:159] Top shape: 1 1024 14 14 (200704)
02-28 10:09:25.919  6856  6856 I caffe_jni: I0228 10:09:25.919865  6856 net.cpp:159] Top shape: 1 1024 14 14 (200704)
02-28 10:09:25.919  6856  6856 I caffe_jni: I0228 10:09:25.919888  6856 net.cpp:167] Memory required for data: 271253788
02-28 10:09:25.919  6856  6856 I caffe_jni: I0228 10:09:25.919905  6856 layer_factory.hpp:77] Creating layer rfcn_cls
02-28 10:09:25.919  6856  6856 I caffe_jni: I0228 10:09:25.919934  6856 net.cpp:102] Creating Layer rfcn_cls
02-28 10:09:25.919  6856  6856 I caffe_jni: I0228 10:09:25.919955  6856 net.cpp:436] rfcn_cls <- conv_new_1_conv_new_1_relu_0_split_0
02-28 10:09:25.919  6856  6856 I caffe_jni: I0228 10:09:25.919983  6856 net.cpp:410] rfcn_cls -> rfcn_cls
02-28 10:09:25.954  3560  7076 I DecodeUtils: decodeThumbnail filePath not exist : /storage/emulated/0/Download/demo_android/tensorflow/dataset/imagenet/crop299/0000006.png
02-28 10:09:26.028  6856  6856 I caffe_jni: I0228 10:09:26.028230  6856 net.cpp:152] Setting up rfcn_cls
02-28 10:09:26.028  6856  6856 I caffe_jni: I0228 10:09:26.028342  6856 net.cpp:159] Top shape: 1 1029 14 14 (201684)
02-28 10:09:26.028  6856  6856 I caffe_jni: I0228 10:09:26.028374  6856 net.cpp:167] Memory required for data: 272060524
02-28 10:09:26.028  6856  6856 I caffe_jni: I0228 10:09:26.028404  6856 layer_factory.hpp:77] Creating layer rfcn_bbox
02-28 10:09:26.028  6856  6856 I caffe_jni: I0228 10:09:26.028456  6856 net.cpp:102] Creating Layer rfcn_bbox
02-28 10:09:26.028  6856  6856 I caffe_jni: I0228 10:09:26.028488  6856 net.cpp:436] rfcn_bbox <- conv_new_1_conv_new_1_relu_0_split_1
02-28 10:09:26.028  6856  6856 I caffe_jni: I0228 10:09:26.028520  6856 net.cpp:410] rfcn_bbox -> rfcn_bbox
02-28 10:09:26.069  6856  6856 I caffe_jni: I0228 10:09:26.069831  6856 net.cpp:152] Setting up rfcn_bbox
02-28 10:09:26.069  6856  6856 I caffe_jni: I0228 10:09:26.069921  6856 net.cpp:159] Top shape: 1 392 14 14 (76832)
02-28 10:09:26.069  6856  6856 I caffe_jni: I0228 10:09:26.069954  6856 net.cpp:167] Memory required for data: 272367852
02-28 10:09:26.069  6856  6856 I caffe_jni: I0228 10:09:26.069986  6856 layer_factory.hpp:77] Creating layer psroipooled_cls_rois
02-28 10:09:26.070  6856  6856 I caffe_jni: I0228 10:09:26.070026  6856 net.cpp:102] Creating Layer psroipooled_cls_rois
02-28 10:09:26.070  6856  6856 I caffe_jni: I0228 10:09:26.070051  6856 net.cpp:436] psroipooled_cls_rois <- rfcn_cls
02-28 10:09:26.070  6856  6856 I caffe_jni: I0228 10:09:26.070073  6856 net.cpp:436] psroipooled_cls_rois <- rois_proposal_0_split_0
02-28 10:09:26.070  6856  6856 I caffe_jni: I0228 10:09:26.070098  6856 net.cpp:410] psroipooled_cls_rois -> psroipooled_cls_rois
02-28 10:09:26.070  6856  6856 I caffe_jni: I0228 10:09:26.070175  6856 psroi_pooling_layer.cpp:28] Spatial scale: 0.0625
02-28 10:09:26.070  6856  6856 I caffe_jni: I0228 10:09:26.070231  6856 psroi_pooling_layer.cpp:44] psroipooling reshape
02-28 10:09:26.070  6856  6856 I caffe_jni: I0228 10:09:26.070256  6856 net.cpp:152] Setting up psroipooled_cls_rois
02-28 10:09:26.070  6856  6856 I caffe_jni: I0228 10:09:26.070276  6856 net.cpp:159] Top shape: 300 21 7 7 (308700)
02-28 10:09:26.070  6856  6856 I caffe_jni: I0228 10:09:26.070298  6856 net.cpp:167] Memory required for data: 273602652
02-28 10:09:26.070  6856  6856 I caffe_jni: I0228 10:09:26.070318  6856 layer_factory.hpp:77] Creating layer ave_cls_score_rois
02-28 10:09:26.070  6856  6856 I caffe_jni: I0228 10:09:26.070343  6856 net.cpp:102] Creating Layer ave_cls_score_rois
02-28 10:09:26.070  6856  6856 I caffe_jni: I0228 10:09:26.070369  6856 net.cpp:436] ave_cls_score_rois <- psroipooled_cls_rois
02-28 10:09:26.070  6856  6856 I caffe_jni: I0228 10:09:26.070399  6856 net.cpp:410] ave_cls_score_rois -> cls_score
02-28 10:09:26.070  6856  6856 I caffe_jni: I0228 10:09:26.070426  6856 net.cpp:152] Setting up ave_cls_score_rois
02-28 10:09:26.070  6856  6856 I caffe_jni: I0228 10:09:26.070446  6856 net.cpp:159] Top shape: 300 21 1 1 (6300)
02-28 10:09:26.070  6856  6856 I caffe_jni: I0228 10:09:26.070469  6856 net.cpp:167] Memory required for data: 273627852
02-28 10:09:26.070  6856  6856 I caffe_jni: I0228 10:09:26.070489  6856 layer_factory.hpp:77] Creating layer psroipooled_loc_rois
02-28 10:09:26.070  6856  6856 I caffe_jni: I0228 10:09:26.070511  6856 net.cpp:102] Creating Layer psroipooled_loc_rois
02-28 10:09:26.070  6856  6856 I caffe_jni: I0228 10:09:26.070535  6856 net.cpp:436] psroipooled_loc_rois <- rfcn_bbox
02-28 10:09:26.070  6856  6856 I caffe_jni: I0228 10:09:26.070562  6856 net.cpp:436] psroipooled_loc_rois <- rois_proposal_0_split_1
02-28 10:09:26.070  6856  6856 I caffe_jni: I0228 10:09:26.070585  6856 net.cpp:410] psroipooled_loc_rois -> psroipooled_loc_rois
02-28 10:09:26.070  6856  6856 I caffe_jni: I0228 10:09:26.070610  6856 psroi_pooling_layer.cpp:28] Spatial scale: 0.0625
02-28 10:09:26.070  6856  6856 I caffe_jni: I0228 10:09:26.070631  6856 psroi_pooling_layer.cpp:44] psroipooling reshape
02-28 10:09:26.070  6856  6856 I caffe_jni: I0228 10:09:26.070657  6856 net.cpp:152] Setting up psroipooled_loc_rois
02-28 10:09:26.070  6856  6856 I caffe_jni: I0228 10:09:26.070677  6856 net.cpp:159] Top shape: 300 8 7 7 (117600)
02-28 10:09:26.070  6856  6856 I caffe_jni: I0228 10:09:26.070701  6856 net.cpp:167] Memory required for data: 274098252
02-28 10:09:26.070  6856  6856 I caffe_jni: I0228 10:09:26.070726  6856 layer_factory.hpp:77] Creating layer ave_bbox_pred_rois
02-28 10:09:26.070  6856  6856 I caffe_jni: I0228 10:09:26.070749  6856 net.cpp:102] Creating Layer ave_bbox_pred_rois
02-28 10:09:26.070  6856  6856 I caffe_jni: I0228 10:09:26.070768  6856 net.cpp:436] ave_bbox_pred_rois <- psroipooled_loc_rois
02-28 10:09:26.070  6856  6856 I caffe_jni: I0228 10:09:26.070791  6856 net.cpp:410] ave_bbox_pred_rois -> bbox_pred_pre
02-28 10:09:26.070  6856  6856 I caffe_jni: I0228 10:09:26.070816  6856 net.cpp:152] Setting up ave_bbox_pred_rois
02-28 10:09:26.070  6856  6856 I caffe_jni: I0228 10:09:26.070837  6856 net.cpp:159] Top shape: 300 8 1 1 (2400)
02-28 10:09:26.070  6856  6856 I caffe_jni: I0228 10:09:26.070861  6856 net.cpp:167] Memory required for data: 274107852
02-28 10:09:26.070  6856  6856 I caffe_jni: I0228 10:09:26.070888  6856 layer_factory.hpp:77] Creating layer cls_prob
02-28 10:09:26.070  6856  6856 I caffe_jni: I0228 10:09:26.070909  6856 net.cpp:102] Creating Layer cls_prob
02-28 10:09:26.070  6856  6856 I caffe_jni: I0228 10:09:26.070930  6856 net.cpp:436] cls_prob <- cls_score
02-28 10:09:26.070  6856  6856 I caffe_jni: I0228 10:09:26.070950  6856 net.cpp:410] cls_prob -> cls_prob_pre
02-28 10:09:26.070  6856  6856 I caffe_jni: I0228 10:09:26.070981  6856 net.cpp:152] Setting up cls_prob
02-28 10:09:26.071  6856  6856 I caffe_jni: I0228 10:09:26.071002  6856 net.cpp:159] Top shape: 300 21 1 1 (6300)
02-28 10:09:26.071  6856  6856 I caffe_jni: I0228 10:09:26.071027  6856 net.cpp:167] Memory required for data: 274133052
02-28 10:09:26.071  6856  6856 I caffe_jni: I0228 10:09:26.071053  6856 layer_factory.hpp:77] Creating layer cls_prob_reshape
02-28 10:09:26.071  6856  6856 I caffe_jni: I0228 10:09:26.071081  6856 net.cpp:102] Creating Layer cls_prob_reshape
02-28 10:09:26.071  6856  6856 I caffe_jni: I0228 10:09:26.071105  6856 net.cpp:436] cls_prob_reshape <- cls_prob_pre
02-28 10:09:26.071  6856  6856 I caffe_jni: I0228 10:09:26.071127  6856 net.cpp:410] cls_prob_reshape -> cls_prob
02-28 10:09:26.071  6856  6856 I caffe_jni: I0228 10:09:26.071157  6856 net.cpp:152] Setting up cls_prob_reshape
02-28 10:09:26.071  6856  6856 I caffe_jni: I0228 10:09:26.071177  6856 net.cpp:159] Top shape: 300 21 (6300)
02-28 10:09:26.071  6856  6856 I caffe_jni: I0228 10:09:26.071202  6856 net.cpp:167] Memory required for data: 274158252
02-28 10:09:26.071  6856  6856 I caffe_jni: I0228 10:09:26.071228  6856 layer_factory.hpp:77] Creating layer bbox_pred_reshape
02-28 10:09:26.071  6856  6856 I caffe_jni: I0228 10:09:26.071252  6856 net.cpp:102] Creating Layer bbox_pred_reshape
02-28 10:09:26.071  6856  6856 I caffe_jni: I0228 10:09:26.071272  6856 net.cpp:436] bbox_pred_reshape <- bbox_pred_pre
02-28 10:09:26.071  6856  6856 I caffe_jni: I0228 10:09:26.071293  6856 net.cpp:410] bbox_pred_reshape -> bbox_pred
02-28 10:09:26.071  6856  6856 I caffe_jni: I0228 10:09:26.071318  6856 net.cpp:152] Setting up bbox_pred_reshape
02-28 10:09:26.071  6856  6856 I caffe_jni: I0228 10:09:26.071339  6856 net.cpp:159] Top shape: 300 8 (2400)
02-28 10:09:26.071  6856  6856 I caffe_jni: I0228 10:09:26.071363  6856 net.cpp:167] Memory required for data: 274167852
02-28 10:09:26.071  6856  6856 I caffe_jni: I0228 10:09:26.071389  6856 net.cpp:230] bbox_pred_reshape does not need backward computation.
02-28 10:09:26.071  6856  6856 I caffe_jni: I0228 10:09:26.071409  6856 net.cpp:230] cls_prob_reshape does not need backward computation.
…
02-28 10:10:32.048  7153  7153 I caffe_jni: I0228 10:10:32.048852  7153 layer_factory.hpp:77] Creating layer input
02-28 10:10:32.048  7153  7153 I caffe_jni: I0228 10:10:32.048905  7153 net.cpp:102] Creating Layer input
02-28 10:10:32.048  7153  7153 I caffe_jni: I0228 10:10:32.048938  7153 net.cpp:410] input -> data
02-28 10:10:32.048  7153  7153 I caffe_jni: I0228 10:10:32.048971  7153 net.cpp:410] input -> im_info
02-28 10:10:32.049  7153  7153 I caffe_jni: I0228 10:10:32.049008  7153 net.cpp:152] Setting up input
02-28 10:10:32.049  7153  7153 I caffe_jni: I0228 10:10:32.049028  7153 net.cpp:159] Top shape: 1 3 224 224 (150528)
02-28 10:10:32.049  7153  7153 I caffe_jni: I0228 10:10:32.049051  7153 net.cpp:159] Top shape: 1 3 (3)
02-28 10:10:32.049  7153  7153 I caffe_jni: I0228 10:10:32.049072  7153 net.cpp:167] Memory required for data: 602124
02-28 10:10:32.049  7153  7153 I caffe_jni: I0228 10:10:32.049093  7153 layer_factory.hpp:77] Creating layer conv1
02-28 10:10:32.049  7153  7153 I caffe_jni: I0228 10:10:32.049124  7153 net.cpp:102] Creating Layer conv1
02-28 10:10:32.049  7153  7153 I caffe_jni: I0228 10:10:32.049142  7153 net.cpp:436] conv1 <- data
02-28 10:10:32.049  7153  7153 I caffe_jni: I0228 10:10:32.049165  7153 net.cpp:410] conv1 -> conv1
02-28 10:10:32.049  7153  7153 I caffe_jni: I0228 10:10:32.049283  7153 net.cpp:152] Setting up conv1
02-28 10:10:32.049  7153  7153 I caffe_jni: I0228 10:10:32.049312  7153 net.cpp:159] Top shape: 1 64 112 112 (802816)
02-28 10:10:32.049  7153  7153 I caffe_jni: I0228 10:10:32.049335  7153 net.cpp:167] Memory required for data: 3813388
02-28 10:10:32.049  7153  7153 I caffe_jni: I0228 10:10:32.049365  7153 layer_factory.hpp:77] Creating layer bn_conv1
02-28 10:10:32.049  7153  7153 I caffe_jni: I0228 10:10:32.049391  7153 net.cpp:102] Creating Layer bn_conv1
02-28 10:10:32.049  7153  7153 I caffe_jni: I0228 10:10:32.049410  7153 net.cpp:436] bn_conv1 <- conv1
02-28 10:10:32.049  7153  7153 I caffe_jni: I0228 10:10:32.049430  7153 net.cpp:397] bn_conv1 -> conv1 (in-place)
02-28 10:10:32.049  7153  7153 I caffe_jni: I0228 10:10:32.049504  7153 net.cpp:152] Setting up bn_conv1
02-28 10:10:32.049  7153  7153 I caffe_jni: I0228 10:10:32.049531  7153 net.cpp:159] Top shape: 1 64 112 112 (802816)
02-28 10:10:32.049  7153  7153 I caffe_jni: I0228 10:10:32.049556  7153 net.cpp:167] Memory required for data: 7024652
02-28 10:10:32.049  7153  7153 I caffe_jni: I0228 10:10:32.049584  7153 layer_factory.hpp:77] Creating layer scale_conv1
02-28 10:10:32.049  7153  7153 I caffe_jni: I0228 10:10:32.049607  7153 net.cpp:102] Creating Layer scale_conv1
02-28 10:10:32.049  7153  7153 I caffe_jni: I0228 10:10:32.049625  7153 net.cpp:436] scale_conv1 <- conv1
02-28 10:10:32.049  7153  7153 I caffe_jni: I0228 10:10:32.049645  7153 net.cpp:397] scale_conv1 -> conv1 (in-place)
02-28 10:10:32.049  7153  7153 I caffe_jni: I0228 10:10:32.049679  7153 layer_factory.hpp:77] Creating layer scale_conv1
02-28 10:10:32.049  7153  7153 I caffe_jni: I0228 10:10:32.049784  7153 net.cpp:152] Setting up scale_conv1
02-28 10:10:32.049  7153  7153 I caffe_jni: I0228 10:10:32.049805  7153 net.cpp:159] Top shape: 1 64 112 112 (802816)
02-28 10:10:32.049  7153  7153 I caffe_jni: I0228 10:10:32.049834  7153 net.cpp:167] Memory required for data: 10235916
02-28 10:10:32.049  7153  7153 I caffe_jni: I0228 10:10:32.049861  7153 layer_factory.hpp:77] Creating layer conv1_relu
02-28 10:10:32.049  7153  7153 I caffe_jni: I0228 10:10:32.049886  7153 net.cpp:102] Creating Layer conv1_relu
02-28 10:10:32.049  7153  7153 I caffe_jni: I0228 10:10:32.049904  7153 net.cpp:436] conv1_relu <- conv1
02-28 10:10:32.049  7153  7153 I caffe_jni: I0228 10:10:32.049923  7153 net.cpp:397] conv1_relu -> conv1 (in-place)
02-28 10:10:32.049  7153  7153 I caffe_jni: I0228 10:10:32.049945  7153 net.cpp:152] Setting up conv1_relu
02-28 10:10:32.049  7153  7153 I caffe_jni: I0228 10:10:32.049963  7153 net.cpp:159] Top shape: 1 64 112 112 (802816)
02-28 10:10:32.049  7153  7153 I caffe_jni: I0228 10:10:32.049984  7153 net.cpp:167] Memory required for data: 13447180
02-28 10:10:32.050  7153  7153 I caffe_jni: I0228 10:10:32.050007  7153 layer_factory.hpp:77] Creating layer pool1
02-28 10:10:32.050  7153  7153 I caffe_jni: I0228 10:10:32.050029  7153 net.cpp:102] Creating Layer pool1
02-28 10:10:32.050  7153  7153 I caffe_jni: I0228 10:10:32.050047  7153 net.cpp:436] pool1 <- conv1
02-28 10:10:32.050  7153  7153 I caffe_jni: I0228 10:10:32.050067  7153 net.cpp:410] pool1 -> pool1
02-28 10:10:32.050  7153  7153 I caffe_jni: I0228 10:10:32.050099  7153 net.cpp:152] Setting up pool1
02-28 10:10:32.050  7153  7153 I caffe_jni: I0228 10:10:32.050132  7153 net.cpp:159] Top shape: 1 64 56 56 (200704)
02-28 10:10:32.050  7153  7153 I caffe_jni: I0228 10:10:32.050158  7153 net.cpp:167] Memory required for data: 14249996
02-28 10:10:32.050  7153  7153 I caffe_jni: I0228 10:10:32.050179  7153 layer_factory.hpp:77] Creating layer pool1_pool1_0_split
02-28 10:10:32.050  7153  7153 I caffe_jni: I0228 10:10:32.050204  7153 net.cpp:102] Creating Layer pool1_pool1_0_split
02-28 10:10:32.050  7153  7153 I caffe_jni: I0228 10:10:32.050221  7153 net.cpp:436] pool1_pool1_0_split <- pool1
02-28 10:10:32.050  7153  7153 I caffe_jni: I0228 10:10:32.050241  7153 net.cpp:410] pool1_pool1_0_split -> pool1_pool1_0_split_0
02-28 10:10:32.050  7153  7153 I caffe_jni: I0228 10:10:32.050264  7153 net.cpp:410] pool1_pool1_0_split -> pool1_pool1_0_split_1
02-28 10:10:32.050  7153  7153 I caffe_jni: I0228 10:10:32.050293  7153 net.cpp:152] Setting up pool1_pool1_0_split
02-28 10:10:32.050  7153  7153 I caffe_jni: I0228 10:10:32.050312  7153 net.cpp:159] Top shape: 1 64 56 56 (200704)
02-28 10:10:32.050  7153  7153 I caffe_jni: I0228 10:10:32.050334  7153 net.cpp:159] Top shape: 1 64 56 56 (200704)
02-28 10:10:32.050  7153  7153 I caffe_jni: I0228 10:10:32.050364  7153 net.cpp:167] Memory required for data: 15855628
02-28 10:10:32.050  7153  7153 I caffe_jni: I0228 10:10:32.050381  7153 layer_factory.hpp:77] Creating layer res2a_branch1
02-28 10:10:32.050  7153  7153 I caffe_jni: I0228 10:10:32.050405  7153 net.cpp:102] Creating Layer res2a_branch1
02-28 10:10:32.050  7153  7153 I caffe_jni: I0228 10:10:32.050422  7153 net.cpp:436] res2a_branch1 <- pool1_pool1_0_split_0
02-28 10:10:32.050  7153  7153 I caffe_jni: I0228 10:10:32.050443  7153 net.cpp:410] res2a_branch1 -> res2a_branch1
02-28 10:10:32.050  7153  7153 I caffe_jni: I0228 10:10:32.050519  7153 net.cpp:152] Setting up res2a_branch1
02-28 10:10:32.050  7153  7153 I caffe_jni: I0228 10:10:32.050539  7153 net.cpp:159] Top shape: 1 256 56 56 (802816)
02-28 10:10:32.050  7153  7153 I caffe_jni: I0228 10:10:32.050559  7153 net.cpp:167] Memory required for data: 19066892
02-28 10:10:32.050  7153  7153 I caffe_jni: I0228 10:10:32.050580  7153 layer_factory.hpp:77] Creating layer bn2a_branch1
02-28 10:10:32.050  7153  7153 I caffe_jni: I0228 10:10:32.050602  7153 net.cpp:102] Creating Layer bn2a_branch1
02-28 10:10:32.050  7153  7153 I caffe_jni: I0228 10:10:32.050621  7153 net.cpp:436] bn2a_branch1 <- res2a_branch1
02-28 10:10:32.050  7153  7153 I caffe_jni: I0228 10:10:32.050640  7153 net.cpp:397] bn2a_branch1 -> res2a_branch1 (in-place)
02-28 10:10:32.050  7153  7153 I caffe_jni: I0228 10:10:32.050694  7153 net.cpp:152] Setting up bn2a_branch1
02-28 10:10:32.050  7153  7153 I caffe_jni: I0228 10:10:32.050719  7153 net.cpp:159] Top shape: 1 256 56 56 (802816)
02-28 10:10:32.050  7153  7153 I caffe_jni: I0228 10:10:32.050740  7153 net.cpp:167] Memory required for data: 22278156
02-28 10:10:32.050  7153  7153 I caffe_jni: I0228 10:10:32.050765  7153 layer_factory.hpp:77] Creating layer scale2a_branch1
02-28 10:10:32.050  7153  7153 I caffe_jni: I0228 10:10:32.050788  7153 net.cpp:102] Creating Layer scale2a_branch1
02-28 10:10:32.050  7153  7153 I caffe_jni: I0228 10:10:32.050806  7153 net.cpp:436] scale2a_branch1 <- res2a_branch1
02-28 10:10:32.050  7153  7153 I caffe_jni: I0228 10:10:32.050829  7153 net.cpp:397] scale2a_branch1 -> res2a_branch1 (in-place)
02-28 10:10:32.050  7153  7153 I caffe_jni: I0228 10:10:32.050863  7153 layer_factory.hpp:77] Creating layer scale2a_branch1
02-28 10:10:32.050  7153  7153 I caffe_jni: I0228 10:10:32.050914  7153 net.cpp:152] Setting up scale2a_branch1
02-28 10:10:32.050  7153  7153 I caffe_jni: I0228 10:10:32.050933  7153 net.cpp:159] Top shape: 1 256 56 56 (802816)
02-28 10:10:32.050  7153  7153 I caffe_jni: I0228 10:10:32.050956  7153 net.cpp:167] Memory required for data: 25489420
02-28 10:10:32.050  7153  7153 I caffe_jni: I0228 10:10:32.050983  7153 layer_factory.hpp:77] Creating layer res2a_branch2a
02-28 10:10:32.051  7153  7153 I caffe_jni: I0228 10:10:32.051007  7153 net.cpp:102] Creating Layer res2a_branch2a
02-28 10:10:32.051  7153  7153 I caffe_jni: I0228 10:10:32.051024  7153 net.cpp:436] res2a_branch2a <- pool1_pool1_0_split_1
02-28 10:10:32.051  7153  7153 I caffe_jni: I0228 10:10:32.051044  7153 net.cpp:410] res2a_branch2a -> res2a_branch2a
02-28 10:10:32.051  7153  7153 I caffe_jni: I0228 10:10:32.051097  7153 net.cpp:152] Setting up res2a_branch2a
02-28 10:10:32.051  7153  7153 I caffe_jni: I0228 10:10:32.051123  7153 net.cpp:159] Top shape: 1 64 56 56 (200704)
02-28 10:10:32.051  7153  7153 I caffe_jni: I0228 10:10:32.051143  7153 net.cpp:167] Memory required for data: 26292236
02-28 10:10:32.051  7153  7153 I caffe_jni: I0228 10:10:32.051164  7153 layer_factory.hpp:77] Creating layer bn2a_branch2a
02-28 10:10:32.051  7153  7153 I caffe_jni: I0228 10:10:32.051187  7153 net.cpp:102] Creating Layer bn2a_branch2a
02-28 10:10:32.051  7153  7153 I caffe_jni: I0228 10:10:32.051209  7153 net.cpp:436] bn2a_branch2a <- res2a_branch2a
02-28 10:10:32.051  7153  7153 I caffe_jni: I0228 10:10:32.051230  7153 net.cpp:397] bn2a_branch2a -> res2a_branch2a (in-place)
02-28 10:10:32.051  7153  7153 I caffe_jni: I0228 10:10:32.051275  7153 net.cpp:152] Setting up bn2a_branch2a
02-28 10:10:32.051  7153  7153 I caffe_jni: I0228 10:10:32.051298  7153 net.cpp:159] Top shape: 1 64 56 56 (200704)
02-28 10:10:32.051  7153  7153 I caffe_jni: I0228 10:10:32.051318  7153 net.cpp:167] Memory required for data: 27095052
02-28 10:10:32.051  7153  7153 I caffe_jni: I0228 10:10:32.051347  7153 layer_factory.hpp:77] Creating layer scale2a_branch2a
02-28 10:10:32.051  7153  7153 I caffe_jni: I0228 10:10:32.051368  7153 net.cpp:102] Creating Layer scale2a_branch2a
02-28 10:10:32.051  7153  7153 I caffe_jni: I0228 10:10:32.051388  7153 net.cpp:436] scale2a_branch2a <- res2a_branch2a
02-28 10:10:32.051  7153  7153 I caffe_jni: I0228 10:10:32.051414  7153 net.cpp:397] scale2a_branch2a -> res2a_branch2a (in-place)
02-28 10:10:32.051  7153  7153 I caffe_jni: I0228 10:10:32.051442  7153 layer_factory.hpp:77] Creating layer scale2a_branch2a
02-28 10:10:32.051  7153  7153 I caffe_jni: I0228 10:10:32.051494  7153 net.cpp:152] Setting up scale2a_branch2a
02-28 10:10:32.051  7153  7153 I caffe_jni: I0228 10:10:32.051517  7153 net.cpp:159] Top shape: 1 64 56 56 (200704)
02-28 10:10:32.051  7153  7153 I caffe_jni: I0228 10:10:32.051542  7153 net.cpp:167] Memory required for data: 27897868
02-28 10:10:32.051  7153  7153 I caffe_jni: I0228 10:10:32.051565  7153 layer_factory.hpp:77] Creating layer res2a_branch2a_relu
02-28 10:10:32.051  7153  7153 I caffe_jni: I0228 10:10:32.051586  7153 net.cpp:102] Creating Layer res2a_branch2a_relu
02-28 10:10:32.051  7153  7153 I caffe_jni: I0228 10:10:32.051604  7153 net.cpp:436] res2a_branch2a_relu <- res2a_branch2a
02-28 10:10:32.051  7153  7153 I caffe_jni: I0228 10:10:32.051625  7153 net.cpp:397] res2a_branch2a_relu -> res2a_branch2a (in-place)
02-28 10:10:32.051  7153  7153 I caffe_jni: I0228 10:10:32.051650  7153 net.cpp:152] Setting up res2a_branch2a_relu
02-28 10:10:32.051  7153  7153 I caffe_jni: I0228 10:10:32.051671  7153 net.cpp:159] Top shape: 1 64 56 56 (200704)
02-28 10:10:32.051  7153  7153 I caffe_jni: I0228 10:10:32.051692  7153 net.cpp:167] Memory required for data: 28700684
02-28 10:10:32.051  7153  7153 I caffe_jni: I0228 10:10:32.051709  7153 layer_factory.hpp:77] Creating layer res2a_branch2b
02-28 10:10:32.051  7153  7153 I caffe_jni: I0228 10:10:32.051731  7153 net.cpp:102] Creating Layer res2a_branch2b
02-28 10:10:32.051  7153  7153 I caffe_jni: I0228 10:10:32.051749  7153 net.cpp:436] res2a_branch2b <- res2a_branch2a
02-28 10:10:32.051  7153  7153 I caffe_jni: I0228 10:10:32.051771  7153 net.cpp:410] res2a_branch2b -> res2a_branch2b
02-28 10:10:32.051  7153  7153 I caffe_jni: I0228 10:10:32.051888  7153 net.cpp:152] Setting up res2a_branch2b
02-28 10:10:32.051  7153  7153 I caffe_jni: I0228 10:10:32.051910  7153 net.cpp:159] Top shape: 1 64 56 56 (200704)
02-28 10:10:32.051  7153  7153 I caffe_jni: I0228 10:10:32.051931  7153 net.cpp:167] Memory required for data: 29503500
02-28 10:10:32.051  7153  7153 I caffe_jni: I0228 10:10:32.051952  7153 layer_factory.hpp:77] Creating layer bn2a_branch2b
02-28 10:10:32.051  7153  7153 I caffe_jni: I0228 10:10:32.051975  7153 net.cpp:102] Creating Layer bn2a_branch2b
02-28 10:10:32.051  7153  7153 I caffe_jni: I0228 10:10:32.051992  7153 net.cpp:436] bn2a_branch2b <- res2a_branch2b
02-28 10:10:32.052  7153  7153 I caffe_jni: I0228 10:10:32.052012  7153 net.cpp:397] bn2a_branch2b -> res2a_branch2b (in-place)
02-28 10:10:32.052  7153  7153 I caffe_jni: I0228 10:10:32.052055  7153 net.cpp:152] Setting up bn2a_branch2b
02-28 10:10:32.052  7153  7153 I caffe_jni: I0228 10:10:32.052076  7153 net.cpp:159] Top shape: 1 64 56 56 (200704)
02-28 10:10:32.052  7153  7153 I caffe_jni: I0228 10:10:32.052096  7153 net.cpp:167] Memory required for data: 30306316
02-28 10:10:32.052  7153  7153 I caffe_jni: I0228 10:10:32.052121  7153 layer_factory.hpp:77] Creating layer scale2a_branch2b
02-28 10:10:32.052  7153  7153 I caffe_jni: I0228 10:10:32.052148  7153 net.cpp:102] Creating Layer scale2a_branch2b
02-28 10:10:32.052  7153  7153 I caffe_jni: I0228 10:10:32.052173  7153 net.cpp:436] scale2a_branch2b <- res2a_branch2b
02-28 10:10:32.052  7153  7153 I caffe_jni: I0228 10:10:32.052193  7153 net.cpp:397] scale2a_branch2b -> res2a_branch2b (in-place)
02-28 10:10:32.052  7153  7153 I caffe_jni: I0228 10:10:32.052223  7153 layer_factory.hpp:77] Creating layer scale2a_branch2b
02-28 10:10:32.052  7153  7153 I caffe_jni: I0228 10:10:32.052278  7153 net.cpp:152] Setting up scale2a_branch2b
02-28 10:10:32.052  7153  7153 I caffe_jni: I0228 10:10:32.052301  7153 net.cpp:159] Top shape: 1 64 56 56 (200704)
02-28 10:10:32.052  7153  7153 I caffe_jni: I0228 10:10:32.052325  7153 net.cpp:167] Memory required for data: 31109132
02-28 10:10:32.052  7153  7153 I caffe_jni: I0228 10:10:32.052347  7153 layer_factory.hpp:77] Creating layer res2a_branch2b_relu
02-28 10:10:32.052  7153  7153 I caffe_jni: I0228 10:10:32.052371  7153 net.cpp:102] Creating Layer res2a_branch2b_relu
02-28 10:10:32.052  7153  7153 I caffe_jni: I0228 10:10:32.052389  7153 net.cpp:436] res2a_branch2b_relu <- res2a_branch2b
02-28 10:10:32.052  7153  7153 I caffe_jni: I0228 10:10:32.052412  7153 net.cpp:397] res2a_branch2b_relu -> res2a_branch2b (in-place)
02-28 10:10:32.052  7153  7153 I caffe_jni: I0228 10:10:32.052438  7153 net.cpp:152] Setting up res2a_branch2b_relu
02-28 10:10:32.052  7153  7153 I caffe_jni: I0228 10:10:32.052455  7153 net.cpp:159] Top shape: 1 64 56 56 (200704)
02-28 10:10:32.052  7153  7153 I caffe_jni: I0228 10:10:32.052475  7153 net.cpp:167] Memory required for data: 31911948
02-28 10:10:32.052  7153  7153 I caffe_jni: I0228 10:10:32.052492  7153 layer_factory.hpp:77] Creating layer res2a_branch2c
02-28 10:10:32.052  7153  7153 I caffe_jni: I0228 10:10:32.052515  7153 net.cpp:102] Creating Layer res2a_branch2c
02-28 10:10:32.052  7153  7153 I caffe_jni: I0228 10:10:32.052531  7153 net.cpp:436] res2a_branch2c <- res2a_branch2b
02-28 10:10:32.052  7153  7153 I caffe_jni: I0228 10:10:32.052554  7153 net.cpp:410] res2a_branch2c -> res2a_branch2c
02-28 10:10:32.052  7153  7153 I caffe_jni: I0228 10:10:32.052631  7153 net.cpp:152] Setting up res2a_branch2c
02-28 10:10:32.052  7153  7153 I caffe_jni: I0228 10:10:32.052651  7153 net.cpp:159] Top shape: 1 256 56 56 (802816)
02-28 10:10:32.052  7153  7153 I caffe_jni: I0228 10:10:32.052671  7153 net.cpp:167] Memory required for data: 35123212
02-28 10:10:32.052  7153  7153 I caffe_jni: I0228 10:10:32.052692  7153 layer_factory.hpp:77] Creating layer bn2a_branch2c
02-28 10:10:32.052  7153  7153 I caffe_jni: I0228 10:10:32.052716  7153 net.cpp:102] Creating Layer bn2a_branch2c
02-28 10:10:32.052  7153  7153 I caffe_jni: I0228 10:10:32.052733  7153 net.cpp:436] bn2a_branch2c <- res2a_branch2c
02-28 10:10:32.052  7153  7153 I caffe_jni: I0228 10:10:32.052752  7153 net.cpp:397] bn2a_branch2c -> res2a_branch2c (in-place)
02-28 10:10:32.052  7153  7153 I caffe_jni: I0228 10:10:32.052795  7153 net.cpp:152] Setting up bn2a_branch2c
02-28 10:10:32.052  7153  7153 I caffe_jni: I0228 10:10:32.052814  7153 net.cpp:159] Top shape: 1 256 56 56 (802816)
02-28 10:10:32.052  7153  7153 I caffe_jni: I0228 10:10:32.052834  7153 net.cpp:167] Memory required for data: 38334476
02-28 10:10:32.052  7153  7153 I caffe_jni: I0228 10:10:32.052862  7153 layer_factory.hpp:77] Creating layer scale2a_branch2c
02-28 10:10:32.052  7153  7153 I caffe_jni: I0228 10:10:32.052891  7153 net.cpp:102] Creating Layer scale2a_branch2c
02-28 10:10:32.052  7153  7153 I caffe_jni: I0228 10:10:32.052909  7153 net.cpp:436] scale2a_branch2c <- res2a_branch2c
02-28 10:10:32.052  7153  7153 I caffe_jni: I0228 10:10:32.052928  7153 net.cpp:397] scale2a_branch2c -> res2a_branch2c (in-place)
02-28 10:10:32.052  7153  7153 I caffe_jni: I0228 10:10:32.052958  7153 layer_factory.hpp:77] Creating layer scale2a_branch2c
02-28 10:10:32.053  7153  7153 I caffe_jni: I0228 10:10:32.053012  7153 net.cpp:152] Setting up scale2a_branch2c
02-28 10:10:32.053  7153  7153 I caffe_jni: I0228 10:10:32.053037  7153 net.cpp:159] Top shape: 1 256 56 56 (802816)
02-28 10:10:32.053  7153  7153 I caffe_jni: I0228 10:10:32.053058  7153 net.cpp:167] Memory required for data: 41545740
02-28 10:10:32.053  7153  7153 I caffe_jni: I0228 10:10:32.053081  7153 layer_factory.hpp:77] Creating layer res2a
02-28 10:10:32.053  7153  7153 I caffe_jni: I0228 10:10:32.053107  7153 net.cpp:102] Creating Layer res2a
02-28 10:10:32.053  7153  7153 I caffe_jni: I0228 10:10:32.053128  7153 net.cpp:436] res2a <- res2a_branch1
02-28 10:10:32.053  7153  7153 I caffe_jni: I0228 10:10:32.053151  7153 net.cpp:436] res2a <- res2a_branch2c
02-28 10:10:32.053  7153  7153 I caffe_jni: I0228 10:10:32.053174  7153 net.cpp:410] res2a -> res2a
02-28 10:10:32.053  7153  7153 I caffe_jni: I0228 10:10:32.053198  7153 net.cpp:152] Setting up res2a
02-28 10:10:32.053  7153  7153 I caffe_jni: I0228 10:10:32.053216  7153 net.cpp:159] Top shape: 1 256 56 56 (802816)
02-28 10:10:32.053  7153  7153 I caffe_jni: I0228 10:10:32.053236  7153 net.cpp:167] Memory required for data: 44757004
02-28 10:10:32.053  7153  7153 I caffe_jni: I0228 10:10:32.053253  7153 layer_factory.hpp:77] Creating layer res2a_relu
02-28 10:10:32.053  7153  7153 I caffe_jni: I0228 10:10:32.053273  7153 net.cpp:102] Creating Layer res2a_relu
02-28 10:10:32.053  7153  7153 I caffe_jni: I0228 10:10:32.053292  7153 net.cpp:436] res2a_relu <- res2a
02-28 10:10:32.053  7153  7153 I caffe_jni: I0228 10:10:32.053315  7153 net.cpp:397] res2a_relu -> res2a (in-place)
02-28 10:10:32.053  7153  7153 I caffe_jni: I0228 10:10:32.053336  7153 net.cpp:152] Setting up res2a_relu
02-28 10:10:32.053  7153  7153 I caffe_jni: I0228 10:10:32.053354  7153 net.cpp:159] Top shape: 1 256 56 56 (802816)
02-28 10:10:32.053  7153  7153 I caffe_jni: I0228 10:10:32.053375  7153 net.cpp:167] Memory required for data: 47968268
02-28 10:10:32.053  7153  7153 I caffe_jni: I0228 10:10:32.053390  7153 layer_factory.hpp:77] Creating layer res2a_res2a_relu_0_split
02-28 10:10:32.053  7153  7153 I caffe_jni: I0228 10:10:32.053416  7153 net.cpp:102] Creating Layer res2a_res2a_relu_0_split
02-28 10:10:32.053  7153  7153 I caffe_jni: I0228 10:10:32.053436  7153 net.cpp:436] res2a_res2a_relu_0_split <- res2a
02-28 10:10:32.053  7153  7153 I caffe_jni: I0228 10:10:32.053455  7153 net.cpp:410] res2a_res2a_relu_0_split -> res2a_res2a_relu_0_split_0
02-28 10:10:32.053  7153  7153 I caffe_jni: I0228 10:10:32.053478  7153 net.cpp:410] res2a_res2a_relu_0_split -> res2a_res2a_relu_0_split_1
02-28 10:10:32.053  7153  7153 I caffe_jni: I0228 10:10:32.053503  7153 net.cpp:152] Setting up res2a_res2a_relu_0_split
02-28 10:10:32.053  7153  7153 I caffe_jni: I0228 10:10:32.053519  7153 net.cpp:159] Top shape: 1 256 56 56 (802816)
02-28 10:10:32.053  7153  7153 I caffe_jni: I0228 10:10:32.053539  7153 net.cpp:159] Top shape: 1 256 56 56 (802816)
02-28 10:10:32.053  7153  7153 I caffe_jni: I0228 10:10:32.053560  7153 net.cpp:167] Memory required for data: 54390796
02-28 10:10:32.053  7153  7153 I caffe_jni: I0228 10:10:32.053578  7153 layer_factory.hpp:77] Creating layer res2b_branch2a
02-28 10:10:32.053  7153  7153 I caffe_jni: I0228 10:10:32.053604  7153 net.cpp:102] Creating Layer res2b_branch2a
02-28 10:10:32.053  7153  7153 I caffe_jni: I0228 10:10:32.053622  7153 net.cpp:436] res2b_branch2a <- res2a_res2a_relu_0_split_0
02-28 10:10:32.053  7153  7153 I caffe_jni: I0228 10:10:32.053642  7153 net.cpp:410] res2b_branch2a -> res2b_branch2a
02-28 10:10:32.053  7153  7153 I caffe_jni: I0228 10:10:32.053716  7153 net.cpp:152] Setting up res2b_branch2a
02-28 10:10:32.053  7153  7153 I caffe_jni: I0228 10:10:32.053735  7153 net.cpp:159] Top shape: 1 64 56 56 (200704)
02-28 10:10:32.053  7153  7153 I caffe_jni: I0228 10:10:32.053755  7153 net.cpp:167] Memory required for data: 55193612
02-28 10:10:32.053  7153  7153 I caffe_jni: I0228 10:10:32.053774  7153 layer_factory.hpp:77] Creating layer bn2b_branch2a
02-28 10:10:32.053  7153  7153 I caffe_jni: I0228 10:10:32.053798  7153 net.cpp:102] Creating Layer bn2b_branch2a
02-28 10:10:32.053  7153  7153 I caffe_jni: I0228 10:10:32.053817  7153 net.cpp:436] bn2b_branch2a <- res2b_branch2a
02-28 10:10:32.053  7153  7153 I caffe_jni: I0228 10:10:32.053838  7153 net.cpp:397] bn2b_branch2a -> res2b_branch2a (in-place)
02-28 10:10:32.053  7153  7153 I caffe_jni: I0228 10:10:32.053912  7153 net.cpp:152] Setting up bn2b_branch2a
02-28 10:10:32.053  7153  7153 I caffe_jni: I0228 10:10:32.053937  7153 net.cpp:159] Top shape: 1 64 56 56 (200704)
02-28 10:10:32.053  7153  7153 I caffe_jni: I0228 10:10:32.053964  7153 net.cpp:167] Memory required for data: 55996428
02-28 10:10:32.054  7153  7153 I caffe_jni: I0228 10:10:32.053997  7153 layer_factory.hpp:77] Creating layer scale2b_branch2a
02-28 10:10:32.054  7153  7153 I caffe_jni: I0228 10:10:32.054019  7153 net.cpp:102] Creating Layer scale2b_branch2a
02-28 10:10:32.054  7153  7153 I caffe_jni: I0228 10:10:32.054039  7153 net.cpp:436] scale2b_branch2a <- res2b_branch2a
02-28 10:10:32.054  7153  7153 I caffe_jni: I0228 10:10:32.054059  7153 net.cpp:397] scale2b_branch2a -> res2b_branch2a (in-place)
02-28 10:10:32.054  7153  7153 I caffe_jni: I0228 10:10:32.054087  7153 layer_factory.hpp:77] Creating layer scale2b_branch2a
02-28 10:10:32.054  7153  7153 I caffe_jni: I0228 10:10:32.054172  7153 net.cpp:152] Setting up scale2b_branch2a
02-28 10:10:32.054  7153  7153 I caffe_jni: I0228 10:10:32.054198  7153 net.cpp:159] Top shape: 1 64 56 56 (200704)
02-28 10:10:32.054  7153  7153 I caffe_jni: I0228 10:10:32.054219  7153 net.cpp:167] Memory required for data: 56799244
02-28 10:10:32.054  7153  7153 I caffe_jni: I0228 10:10:32.054242  7153 layer_factory.hpp:77] Creating layer res2b_branch2a_relu
02-28 10:10:32.054  7153  7153 I caffe_jni: I0228 10:10:32.054266  7153 net.cpp:102] Creating Layer res2b_branch2a_relu
02-28 10:10:32.054  7153  7153 I caffe_jni: I0228 10:10:32.054288  7153 net.cpp:436] res2b_branch2a_relu <- res2b_branch2a
02-28 10:10:32.054  7153  7153 I caffe_jni: I0228 10:10:32.054308  7153 net.cpp:397] res2b_branch2a_relu -> res2b_branch2a (in-place)
02-28 10:10:32.054  7153  7153 I caffe_jni: I0228 10:10:32.054329  7153 net.cpp:152] Setting up res2b_branch2a_relu
02-28 10:10:32.054  7153  7153 I caffe_jni: I0228 10:10:32.054347  7153 net.cpp:159] Top shape: 1 64 56 56 (200704)
02-28 10:10:32.054  7153  7153 I caffe_jni: I0228 10:10:32.054363  7153 net.cpp:167] Memory required for data: 57602060
02-28 10:10:32.054  7153  7153 I caffe_jni: I0228 10:10:32.054379  7153 layer_factory.hpp:77] Creating layer res2b_branch2b
02-28 10:10:32.054  7153  7153 I caffe_jni: I0228 10:10:32.054401  7153 net.cpp:102] Creating Layer res2b_branch2b
02-28 10:10:32.054  7153  7153 I caffe_jni: I0228 10:10:32.054421  7153 net.cpp:436] res2b_branch2b <- res2b_branch2a
02-28 10:10:32.054  7153  7153 I caffe_jni: I0228 10:10:32.054440  7153 net.cpp:410] res2b_branch2b -> res2b_branch2b
02-28 10:10:32.054  7153  7153 I caffe_jni: I0228 10:10:32.054543  7153 net.cpp:152] Setting up res2b_branch2b
02-28 10:10:32.054  7153  7153 I caffe_jni: I0228 10:10:32.054564  7153 net.cpp:159] Top shape: 1 64 56 56 (200704)
02-28 10:10:32.054  7153  7153 I caffe_jni: I0228 10:10:32.054589  7153 net.cpp:167] Memory required for data: 58404876
02-28 10:10:32.054  7153  7153 I caffe_jni: I0228 10:10:32.054606  7153 layer_factory.hpp:77] Creating layer bn2b_branch2b
02-28 10:10:32.054  7153  7153 I caffe_jni: I0228 10:10:32.054627  7153 net.cpp:102] Creating Layer bn2b_branch2b
02-28 10:10:32.054  7153  7153 I caffe_jni: I0228 10:10:32.054643  7153 net.cpp:436] bn2b_branch2b <- res2b_branch2b
02-28 10:10:32.054  7153  7153 I caffe_jni: I0228 10:10:32.054661  7153 net.cpp:397] bn2b_branch2b -> res2b_branch2b (in-place)
02-28 10:10:32.054  7153  7153 I caffe_jni: I0228 10:10:32.054704  7153 net.cpp:152] Setting up bn2b_branch2b
02-28 10:10:32.054  7153  7153 I caffe_jni: I0228 10:10:32.054725  7153 net.cpp:159] Top shape: 1 64 56 56 (200704)
02-28 10:10:32.054  7153  7153 I caffe_jni: I0228 10:10:32.054744  7153 net.cpp:167] Memory required for data: 59207692
02-28 10:10:32.054  7153  7153 I caffe_jni: I0228 10:10:32.054769  7153 layer_factory.hpp:77] Creating layer scale2b_branch2b
02-28 10:10:32.054  7153  7153 I caffe_jni: I0228 10:10:32.054788  7153 net.cpp:102] Creating Layer scale2b_branch2b
02-28 10:10:32.054  7153  7153 I caffe_jni: I0228 10:10:32.054805  7153 net.cpp:436] scale2b_branch2b <- res2b_branch2b
02-28 10:10:32.054  7153  7153 I caffe_jni: I0228 10:10:32.054824  7153 net.cpp:397] scale2b_branch2b -> res2b_branch2b (in-place)
02-28 10:10:32.054  7153  7153 I caffe_jni: I0228 10:10:32.054854  7153 layer_factory.hpp:77] Creating layer scale2b_branch2b
02-28 10:10:32.054  7153  7153 I caffe_jni: I0228 10:10:32.054900  7153 net.cpp:152] Setting up scale2b_branch2b
02-28 10:10:32.054  7153  7153 I caffe_jni: I0228 10:10:32.054919  7153 net.cpp:159] Top shape: 1 64 56 56 (200704)
02-28 10:10:32.054  7153  7153 I caffe_jni: I0228 10:10:32.054939  7153 net.cpp:167] Memory required for data: 60010508
02-28 10:10:32.054  7153  7153 I caffe_jni: I0228 10:10:32.054960  7153 layer_factory.hpp:77] Creating layer res2b_branch2b_relu
02-28 10:10:32.054  7153  7153 I caffe_jni: I0228 10:10:32.054978  7153 net.cpp:102] Creating Layer res2b_branch2b_relu
02-28 10:10:32.054  7153  7153 I caffe_jni: I0228 10:10:32.054993  7153 net.cpp:436] res2b_branch2b_relu <- res2b_branch2b
02-28 10:10:32.055  7153  7153 I caffe_jni: I0228 10:10:32.055011  7153 net.cpp:397] res2b_branch2b_relu -> res2b_branch2b (in-place)
02-28 10:10:32.055  7153  7153 I caffe_jni: I0228 10:10:32.055029  7153 net.cpp:152] Setting up res2b_branch2b_relu
02-28 10:10:32.055  7153  7153 I caffe_jni: I0228 10:10:32.055045  7153 net.cpp:159] Top shape: 1 64 56 56 (200704)
02-28 10:10:32.055  7153  7153 I caffe_jni: I0228 10:10:32.055063  7153 net.cpp:167] Memory required for data: 60813324
02-28 10:10:32.055  7153  7153 I caffe_jni: I0228 10:10:32.055078  7153 layer_factory.hpp:77] Creating layer res2b_branch2c
02-28 10:10:32.055  7153  7153 I caffe_jni: I0228 10:10:32.055101  7153 net.cpp:102] Creating Layer res2b_branch2c
02-28 10:10:32.055  7153  7153 I caffe_jni: I0228 10:10:32.055116  7153 net.cpp:436] res2b_branch2c <- res2b_branch2b
02-28 10:10:32.055  7153  7153 I caffe_jni: I0228 10:10:32.055135  7153 net.cpp:410] res2b_branch2c -> res2b_branch2c
02-28 10:10:32.055  7153  7153 I caffe_jni: I0228 10:10:32.055202  7153 net.cpp:152] Setting up res2b_branch2c
02-28 10:10:32.055  7153  7153 I caffe_jni: I0228 10:10:32.055227  7153 net.cpp:159] Top shape: 1 256 56 56 (802816)
02-28 10:10:32.055  7153  7153 I caffe_jni: I0228 10:10:32.055248  7153 net.cpp:167] Memory required for data: 64024588
02-28 10:10:32.055  7153  7153 I caffe_jni: I0228 10:10:32.055268  7153 layer_factory.hpp:77] Creating layer bn2b_branch2c
02-28 10:10:32.055  7153  7153 I caffe_jni: I0228 10:10:32.055289  7153 net.cpp:102] Creating Layer bn2b_branch2c
02-28 10:10:32.055  7153  7153 I caffe_jni: I0228 10:10:32.055305  7153 net.cpp:436] bn2b_branch2c <- res2b_branch2c
02-28 10:10:32.055  7153  7153 I caffe_jni: I0228 10:10:32.055322  7153 net.cpp:397] bn2b_branch2c -> res2b_branch2c (in-place)
02-28 10:10:32.055  7153  7153 I caffe_jni: I0228 10:10:32.055364  7153 net.cpp:152] Setting up bn2b_branch2c
02-28 10:10:32.055  7153  7153 I caffe_jni: I0228 10:10:32.055385  7153 net.cpp:159] Top shape: 1 256 56 56 (802816)
02-28 10:10:32.055  7153  7153 I caffe_jni: I0228 10:10:32.055402  7153 net.cpp:167] Memory required for data: 67235852
02-28 10:10:32.055  7153  7153 I caffe_jni: I0228 10:10:32.055424  7153 layer_factory.hpp:77] Creating layer scale2b_branch2c
02-28 10:10:32.055  7153  7153 I caffe_jni: I0228 10:10:32.055445  7153 net.cpp:102] Creating Layer scale2b_branch2c
02-28 10:10:32.055  7153  7153 I caffe_jni: I0228 10:10:32.055462  7153 net.cpp:436] scale2b_branch2c <- res2b_branch2c
02-28 10:10:32.055  7153  7153 I caffe_jni: I0228 10:10:32.055485  7153 net.cpp:397] scale2b_branch2c -> res2b_branch2c (in-place)
02-28 10:10:32.055  7153  7153 I caffe_jni: I0228 10:10:32.055516  7153 layer_factory.hpp:77] Creating layer scale2b_branch2c
02-28 10:10:32.055  7153  7153 I caffe_jni: I0228 10:10:32.055564  7153 net.cpp:152] Setting up scale2b_branch2c
02-28 10:10:32.056  7153  7153 I caffe_jni: I0228 10:10:32.056187  7153 net.cpp:159] Top shape: 1 256 56 56 (802816)
02-28 10:10:32.056  7153  7153 I caffe_jni: I0228 10:10:32.056226  7153 net.cpp:167] Memory required for data: 70447116
02-28 10:10:32.056  7153  7153 I caffe_jni: I0228 10:10:32.056252  7153 layer_factory.hpp:77] Creating layer res2b
02-28 10:10:32.056  7153  7153 I caffe_jni: I0228 10:10:32.056275  7153 net.cpp:102] Creating Layer res2b
02-28 10:10:32.056  7153  7153 I caffe_jni: I0228 10:10:32.056293  7153 net.cpp:436] res2b <- res2a_res2a_relu_0_split_1
02-28 10:10:32.056  7153  7153 I caffe_jni: I0228 10:10:32.056313  7153 net.cpp:436] res2b <- res2b_branch2c
02-28 10:10:32.056  7153  7153 I caffe_jni: I0228 10:10:32.056331  7153 net.cpp:410] res2b -> res2b
02-28 10:10:32.056  7153  7153 I caffe_jni: I0228 10:10:32.056357  7153 net.cpp:152] Setting up res2b
02-28 10:10:32.056  7153  7153 I caffe_jni: I0228 10:10:32.056375  7153 net.cpp:159] Top shape: 1 256 56 56 (802816)
02-28 10:10:32.056  7153  7153 I caffe_jni: I0228 10:10:32.056392  7153 net.cpp:167] Memory required for data: 73658380
02-28 10:10:32.056  7153  7153 I caffe_jni: I0228 10:10:32.056409  7153 layer_factory.hpp:77] Creating layer res2b_relu
02-28 10:10:32.056  7153  7153 I caffe_jni: I0228 10:10:32.056428  7153 net.cpp:102] Creating Layer res2b_relu
02-28 10:10:32.056  7153  7153 I caffe_jni: I0228 10:10:32.056443  7153 net.cpp:436] res2b_relu <- res2b
02-28 10:10:32.056  7153  7153 I caffe_jni: I0228 10:10:32.056460  7153 net.cpp:397] res2b_relu -> res2b (in-place)
02-28 10:10:32.056  7153  7153 I caffe_jni: I0228 10:10:32.056479  7153 net.cpp:152] Setting up res2b_relu
02-28 10:10:32.056  7153  7153 I caffe_jni: I0228 10:10:32.056496  7153 net.cpp:159] Top shape: 1 256 56 56 (802816)
02-28 10:10:32.056  7153  7153 I caffe_jni: I0228 10:10:32.056517  7153 net.cpp:167] Memory required for data: 76869644
02-28 10:10:32.056  7153  7153 I caffe_jni: I0228 10:10:32.056540  7153 layer_factory.hpp:77] Creating layer res2b_res2b_relu_0_split
02-28 10:10:32.056  7153  7153 I caffe_jni: I0228 10:10:32.056560  7153 net.cpp:102] Creating Layer res2b_res2b_relu_0_split
02-28 10:10:32.056  7153  7153 I caffe_jni: I0228 10:10:32.056577  7153 net.cpp:436] res2b_res2b_relu_0_split <- res2b
02-28 10:10:32.056  7153  7153 I caffe_jni: I0228 10:10:32.056594  7153 net.cpp:410] res2b_res2b_relu_0_split -> res2b_res2b_relu_0_split_0
02-28 10:10:32.056  7153  7153 I caffe_jni: I0228 10:10:32.056615  7153 net.cpp:410] res2b_res2b_relu_0_split -> res2b_res2b_relu_0_split_1
02-28 10:10:32.056  7153  7153 I caffe_jni: I0228 10:10:32.056639  7153 net.cpp:152] Setting up res2b_res2b_relu_0_split
02-28 10:10:32.056  7153  7153 I caffe_jni: I0228 10:10:32.056655  7153 net.cpp:159] Top shape: 1 256 56 56 (802816)
02-28 10:10:32.056  7153  7153 I caffe_jni: I0228 10:10:32.056676  7153 net.cpp:159] Top shape: 1 256 56 56 (802816)
02-28 10:10:32.056  7153  7153 I caffe_jni: I0228 10:10:32.056697  7153 net.cpp:167] Memory required for data: 83292172
02-28 10:10:32.056  7153  7153 I caffe_jni: I0228 10:10:32.056713  7153 layer_factory.hpp:77] Creating layer res2c_branch2a
02-28 10:10:32.056  7153  7153 I caffe_jni: I0228 10:10:32.056736  7153 net.cpp:102] Creating Layer res2c_branch2a
02-28 10:10:32.056  7153  7153 I caffe_jni: I0228 10:10:32.056752  7153 net.cpp:436] res2c_branch2a <- res2b_res2b_relu_0_split_0
02-28 10:10:32.056  7153  7153 I caffe_jni: I0228 10:10:32.056773  7153 net.cpp:410] res2c_branch2a -> res2c_branch2a
02-28 10:10:32.057  7153  7153 I caffe_jni: I0228 10:10:32.057823  7153 net.cpp:152] Setting up res2c_branch2a
02-28 10:10:32.057  7153  7153 I caffe_jni: I0228 10:10:32.057854  7153 net.cpp:159] Top shape: 1 64 56 56 (200704)
02-28 10:10:32.057  7153  7153 I caffe_jni: I0228 10:10:32.057876  7153 net.cpp:167] Memory required for data: 84094988
02-28 10:10:32.057  7153  7153 I caffe_jni: I0228 10:10:32.057900  7153 layer_factory.hpp:77] Creating layer bn2c_branch2a
02-28 10:10:32.057  7153  7153 I caffe_jni: I0228 10:10:32.057922  7153 net.cpp:102] Creating Layer bn2c_branch2a
02-28 10:10:32.057  7153  7153 I caffe_jni: I0228 10:10:32.057940  7153 net.cpp:436] bn2c_branch2a <- res2c_branch2a
02-28 10:10:32.057  7153  7153 I caffe_jni: I0228 10:10:32.057960  7153 net.cpp:397] bn2c_branch2a -> res2c_branch2a (in-place)
02-28 10:10:32.058  7153  7153 I caffe_jni: I0228 10:10:32.058002  7153 net.cpp:152] Setting up bn2c_branch2a
02-28 10:10:32.058  7153  7153 I caffe_jni: I0228 10:10:32.058033  7153 net.cpp:159] Top shape: 1 64 56 56 (200704)
02-28 10:10:32.058  7153  7153 I caffe_jni: I0228 10:10:32.058053  7153 net.cpp:167] Memory required for data: 84897804
02-28 10:10:32.058  7153  7153 I caffe_jni: I0228 10:10:32.058075  7153 layer_factory.hpp:77] Creating layer scale2c_branch2a
02-28 10:10:32.058  7153  7153 I caffe_jni: I0228 10:10:32.058096  7153 net.cpp:102] Creating Layer scale2c_branch2a
02-28 10:10:32.058  7153  7153 I caffe_jni: I0228 10:10:32.058130  7153 net.cpp:436] scale2c_branch2a <- res2c_branch2a
02-28 10:10:32.058  7153  7153 I caffe_jni: I0228 10:10:32.058156  7153 net.cpp:397] scale2c_branch2a -> res2c_branch2a (in-place)
02-28 10:10:32.058  7153  7153 I caffe_jni: I0228 10:10:32.058189  7153 layer_factory.hpp:77] Creating layer scale2c_branch2a
02-28 10:10:32.058  7153  7153 I caffe_jni: I0228 10:10:32.058241  7153 net.cpp:152] Setting up scale2c_branch2a
02-28 10:10:32.058  7153  7153 I caffe_jni: I0228 10:10:32.058261  7153 net.cpp:159] Top shape: 1 64 56 56 (200704)
02-28 10:10:32.058  7153  7153 I caffe_jni: I0228 10:10:32.058280  7153 net.cpp:167] Memory required for data: 85700620
02-28 10:10:32.058  7153  7153 I caffe_jni: I0228 10:10:32.058300  7153 layer_factory.hpp:77] Creating layer res2c_branch2a_relu
02-28 10:10:32.058  7153  7153 I caffe_jni: I0228 10:10:32.058320  7153 net.cpp:102] Creating Layer res2c_branch2a_relu
02-28 10:10:32.058  7153  7153 I caffe_jni: I0228 10:10:32.058336  7153 net.cpp:436] res2c_branch2a_relu <- res2c_branch2a
02-28 10:10:32.058  7153  7153 I caffe_jni: I0228 10:10:32.058352  7153 net.cpp:397] res2c_branch2a_relu -> res2c_branch2a (in-place)
02-28 10:10:32.058  7153  7153 I caffe_jni: I0228 10:10:32.058372  7153 net.cpp:152] Setting up res2c_branch2a_relu
02-28 10:10:32.058  7153  7153 I caffe_jni: I0228 10:10:32.058387  7153 net.cpp:159] Top shape: 1 64 56 56 (200704)
02-28 10:10:32.058  7153  7153 I caffe_jni: I0228 10:10:32.058405  7153 net.cpp:167] Memory required for data: 86503436
02-28 10:10:32.058  7153  7153 I caffe_jni: I0228 10:10:32.058432  7153 layer_factory.hpp:77] Creating layer res2c_branch2b
02-28 10:10:32.058  2004  2783 D HwRecentsLockUtils: Search
02-28 10:10:32.058  7153  7153 I caffe_jni: I0228 10:10:32.058454  7153 net.cpp:102] Creating Layer res2c_branch2b
02-28 10:10:32.058  7153  7153 I caffe_jni: I0228 10:10:32.058471  7153 net.cpp:436] res2c_branch2b <- res2c_branch2a
02-28 10:10:32.058  7153  7153 I caffe_jni: I0228 10:10:32.058490  7153 net.cpp:410] res2c_branch2b -> res2c_branch2b
02-28 10:10:32.058  7153  7153 I caffe_jni: I0228 10:10:32.058605  7153 net.cpp:152] Setting up res2c_branch2b
02-28 10:10:32.058  7153  7153 I caffe_jni: I0228 10:10:32.058630  7153 net.cpp:159] Top shape: 1 64 56 56 (200704)
02-28 10:10:32.058  7153  7153 I caffe_jni: I0228 10:10:32.058650  7153 net.cpp:167] Memory required for data: 87306252
02-28 10:10:32.058  7153  7153 I caffe_jni: I0228 10:10:32.058668  7153 layer_factory.hpp:77] Creating layer bn2c_branch2b
02-28 10:10:32.058  7153  7153 I caffe_jni: I0228 10:10:32.058689  7153 net.cpp:102] Creating Layer bn2c_branch2b
02-28 10:10:32.058  7153  7153 I caffe_jni: I0228 10:10:32.058709  7153 net.cpp:436] bn2c_branch2b <- res2c_branch2b
02-28 10:10:32.058  7153  7153 I caffe_jni: I0228 10:10:32.058733  7153 net.cpp:397] bn2c_branch2b -> res2c_branch2b (in-place)
02-28 10:10:32.058  7153  7153 I caffe_jni: I0228 10:10:32.058774  7153 net.cpp:152] Setting up bn2c_branch2b
02-28 10:10:32.058  7153  7153 I caffe_jni: I0228 10:10:32.058792  7153 net.cpp:159] Top shape: 1 64 56 56 (200704)
02-28 10:10:32.058  7153  7153 I caffe_jni: I0228 10:10:32.058814  7153 net.cpp:167] Memory required for data: 88109068
02-28 10:10:32.058  7153  7153 I caffe_jni: I0228 10:10:32.058835  7153 layer_factory.hpp:77] Creating layer scale2c_branch2b
02-28 10:10:32.058  7153  7153 I caffe_jni: I0228 10:10:32.058862  7153 net.cpp:102] Creating Layer scale2c_branch2b
02-28 10:10:32.058  1890  3916 E HsmCoreServiceImpl: onTransact in code is: 103
02-28 10:10:32.058  7153  7153 I caffe_jni: I0228 10:10:32.058885  7153 net.cpp:436] scale2c_branch2b <- res2c_branch2b
02-28 10:10:32.058  7153  7153 I caffe_jni: I0228 10:10:32.058905  7153 net.cpp:397] scale2c_branch2b -> res2c_branch2b (in-place)
02-28 10:10:32.058  1890  3916 I MediaProcessHandler: playingUids: 
02-28 10:10:32.058  7153  7153 I caffe_jni: I0228 10:10:32.058930  7153 layer_factory.hpp:77] Creating layer scale2c_branch2b
02-28 10:10:32.058  7153  7153 I caffe_jni: I0228 10:10:32.058981  7153 net.cpp:152] Setting up scale2c_branch2b
02-28 10:10:32.059  7153  7153 I caffe_jni: I0228 10:10:32.059006  7153 net.cpp:159] Top shape: 1 64 56 56 (200704)
02-28 10:10:32.059  7153  7153 I caffe_jni: I0228 10:10:32.059026  7153 net.cpp:167] Memory required for data: 88911884
02-28 10:10:32.059  7153  7153 I caffe_jni: I0228 10:10:32.059047  7153 layer_factory.hpp:77] Creating layer res2c_branch2b_relu
02-28 10:10:32.059  7153  7153 I caffe_jni: I0228 10:10:32.059068  7153 net.cpp:102] Creating Layer res2c_branch2b_relu
02-28 10:10:32.059  7153  7153 I caffe_jni: I0228 10:10:32.059089  7153 net.cpp:436] res2c_branch2b_relu <- res2c_branch2b
02-28 10:10:32.059  7153  7153 I caffe_jni: I0228 10:10:32.059106  7153 net.cpp:397] res2c_branch2b_relu -> res2c_branch2b (in-place)
02-28 10:10:32.059  7153  7153 I caffe_jni: I0228 10:10:32.059126  7153 net.cpp:152] Setting up res2c_branch2b_relu
02-28 10:10:32.059  7153  7153 I caffe_jni: I0228 10:10:32.059142  7153 net.cpp:159] Top shape: 1 64 56 56 (200704)
02-28 10:10:32.059  7153  7153 I caffe_jni: I0228 10:10:32.059161  7153 net.cpp:167] Memory required for data: 89714700
02-28 10:10:32.059  7153  7153 I caffe_jni: I0228 10:10:32.059177  7153 layer_factory.hpp:77] Creating layer res2c_branch2c
02-28 10:10:32.059  7153  7153 I caffe_jni: I0228 10:10:32.059201  7153 net.cpp:102] Creating Layer res2c_branch2c
02-28 10:10:32.059  7153  7153 I caffe_jni: I0228 10:10:32.059222  7153 net.cpp:436] res2c_branch2c <- res2c_branch2b
02-28 10:10:32.059  7153  7153 I caffe_jni: I0228 10:10:32.059242  7153 net.cpp:410] res2c_branch2c -> res2c_branch2c
02-28 10:10:32.059  7153  7153 I caffe_jni: I0228 10:10:32.059309  7153 net.cpp:152] Setting up res2c_branch2c
02-28 10:10:32.059  7153  7153 I caffe_jni: I0228 10:10:32.059326  7153 net.cpp:159] Top shape: 1 256 56 56 (802816)
02-28 10:10:32.059  7153  7153 I caffe_jni: I0228 10:10:32.059346  7153 net.cpp:167] Memory required for data: 92925964
02-28 10:10:32.059  7153  7153 I caffe_jni: I0228 10:10:32.059365  7153 layer_factory.hpp:77] Creating layer bn2c_branch2c
02-28 10:10:32.059  1256  3140 D ActivityManager: Skipping, home or recents stack task: TaskRecord{8916cf2 #4 A=com.huawei.android.launcher U=0 StackId=0 sz=1}
02-28 10:10:32.059  7153  7153 I caffe_jni: I0228 10:10:32.059384  7153 net.cpp:102] Creating Layer bn2c_branch2c
02-28 10:10:32.059  7153  7153 I caffe_jni: I0228 10:10:32.059401  7153 net.cpp:436] bn2c_branch2c <- res2c_branch2c
02-28 10:10:32.059  7153  7153 I caffe_jni: I0228 10:10:32.059418  7153 net.cpp:397] bn2c_branch2c -> res2c_branch2c (in-place)
02-28 10:10:32.059  1256  3140 D ActivityManager: Skipping intent:flg=0x10800000 cmp=com.android.systemui/.usb.HwUsbDebuggingActivity
02-28 10:10:32.059  1256  3140 D ActivityManager: Skipping intent:act=android.intent.action.MAIN cat=[android.intent.category.LAUNCHER] flg=0x10a00000 cmp=eu.chainfire.supersu/.MainActivity
02-28 10:10:32.059  1256  3140 D ActivityManager: Skipping intent:act=android.intent.action.MAIN flg=0x50840000 cmp=eu.chainfire.supersu/.PromptActivity
02-28 10:10:32.059  7153  7153 I caffe_jni: I0228 10:10:32.059458  7153 net.cpp:152] Setting up bn2c_branch2c
02-28 10:10:32.059  7153  7153 I caffe_jni: I0228 10:10:32.059475  7153 net.cpp:159] Top shape: 1 256 56 56 (802816)
02-28 10:10:32.059  7153  7153 I caffe_jni: I0228 10:10:32.059497  7153 net.cpp:167] Memory required for data: 96137228
02-28 10:10:32.059  7153  7153 I caffe_jni: I0228 10:10:32.059533  7153 layer_factory.hpp:77] Creating layer scale2c_branch2c
02-28 10:10:32.059  7153  7153 I caffe_jni: I0228 10:10:32.059553  7153 net.cpp:102] Creating Layer scale2c_branch2c
02-28 10:10:32.059  7153  7153 I caffe_jni: I0228 10:10:32.059571  7153 net.cpp:436] scale2c_branch2c <- res2c_branch2c
02-28 10:10:32.059  7153  7153 I caffe_jni: I0228 10:10:32.059587  7153 net.cpp:397] scale2c_branch2c -> res2c_branch2c (in-place)
02-28 10:10:32.059  7153  7153 I caffe_jni: I0228 10:10:32.059613  7153 layer_factory.hpp:77] Creating layer scale2c_branch2c
02-28 10:10:32.059  7153  7153 I caffe_jni: I0228 10:10:32.059662  7153 net.cpp:152] Setting up scale2c_branch2c
02-28 10:10:32.059  7153  7153 I caffe_jni: I0228 10:10:32.059686  7153 net.cpp:159] Top shape: 1 256 56 56 (802816)
02-28 10:10:32.059  7153  7153 I caffe_jni: I0228 10:10:32.059705  7153 net.cpp:167] Memory required for data: 99348492
02-28 10:10:32.059  7153  7153 I caffe_jni: I0228 10:10:32.059726  7153 layer_factory.hpp:77] Creating layer res2c
02-28 10:10:32.059  7153  7153 I caffe_jni: I0228 10:10:32.059749  7153 net.cpp:102] Creating Layer res2c
02-28 10:10:32.059  7153  7153 I caffe_jni: I0228 10:10:32.059768  7153 net.cpp:436] res2c <- res2b_res2b_relu_0_split_1
02-28 10:10:32.059  7153  7153 I caffe_jni: I0228 10:10:32.059787  7153 net.cpp:436] res2c <- res2c_branch2c
02-28 10:10:32.059  7153  7153 I caffe_jni: I0228 10:10:32.059804  7153 net.cpp:410] res2c -> res2c
02-28 10:10:32.059  7153  7153 I caffe_jni: I0228 10:10:32.059828  7153 net.cpp:152] Setting up res2c
02-28 10:10:32.059  7153  7153 I caffe_jni: I0228 10:10:32.059846  7153 net.cpp:159] Top shape: 1 256 56 56 (802816)
02-28 10:10:32.059  7153  7153 I caffe_jni: I0228 10:10:32.059864  7153 net.cpp:167] Memory required for data: 102559756
02-28 10:10:32.059  7153  7153 I caffe_jni: I0228 10:10:32.059882  7153 layer_factory.hpp:77] Creating layer res2c_relu
02-28 10:10:32.059  7153  7153 I caffe_jni: I0228 10:10:32.059904  7153 net.cpp:102] Creating Layer res2c_relu
02-28 10:10:32.059  7153  7153 I caffe_jni: I0228 10:10:32.059922  7153 net.cpp:436] res2c_relu <- res2c
02-28 10:10:32.059  7153  7153 I caffe_jni: I0228 10:10:32.059939  7153 net.cpp:397] res2c_relu -> res2c (in-place)
02-28 10:10:32.059  7153  7153 I caffe_jni: I0228 10:10:32.059959  7153 net.cpp:152] Setting up res2c_relu
02-28 10:10:32.059  7153  7153 I caffe_jni: I0228 10:10:32.059974  7153 net.cpp:159] Top shape: 1 256 56 56 (802816)
02-28 10:10:32.059  7153  7153 I caffe_jni: I0228 10:10:32.059993  7153 net.cpp:167] Memory required for data: 105771020
02-28 10:10:32.060  7153  7153 I caffe_jni: I0228 10:10:32.060011  7153 layer_factory.hpp:77] Creating layer res2c_res2c_relu_0_split
02-28 10:10:32.060  7153  7153 I caffe_jni: I0228 10:10:32.060034  7153 net.cpp:102] Creating Layer res2c_res2c_relu_0_split
02-28 10:10:32.060  7153  7153 I caffe_jni: I0228 10:10:32.060050  7153 net.cpp:436] res2c_res2c_relu_0_split <- res2c
02-28 10:10:32.060  7153  7153 I caffe_jni: I0228 10:10:32.060068  7153 net.cpp:410] res2c_res2c_relu_0_split -> res2c_res2c_relu_0_split_0
02-28 10:10:32.060  7153  7153 I caffe_jni: I0228 10:10:32.060088  7153 net.cpp:410] res2c_res2c_relu_0_split -> res2c_res2c_relu_0_split_1
02-28 10:10:32.060  7153  7153 I caffe_jni: I0228 10:10:32.060112  7153 net.cpp:152] Setting up res2c_res2c_relu_0_split
02-28 10:10:32.060  7153  7153 I caffe_jni: I0228 10:10:32.060129  7153 net.cpp:159] Top shape: 1 256 56 56 (802816)
02-28 10:10:32.060  7153  7153 I caffe_jni: I0228 10:10:32.060150  7153 net.cpp:159] Top shape: 1 256 56 56 (802816)
02-28 10:10:32.060  7153  7153 I caffe_jni: I0228 10:10:32.060173  7153 net.cpp:167] Memory required for data: 112193548
02-28 10:10:32.060  7153  7153 I caffe_jni: I0228 10:10:32.060189  7153 layer_factory.hpp:77] Creating layer res3a_branch1
02-28 10:10:32.060  7153  7153 I caffe_jni: I0228 10:10:32.060209  7153 net.cpp:102] Creating Layer res3a_branch1
02-28 10:10:32.060  7153  7153 I caffe_jni: I0228 10:10:32.060225  7153 net.cpp:436] res3a_branch1 <- res2c_res2c_relu_0_split_0
02-28 10:10:32.060  7153  7153 I caffe_jni: I0228 10:10:32.060243  7153 net.cpp:410] res3a_branch1 -> res3a_branch1
02-28 10:10:32.060  7153  7153 I caffe_jni: I0228 10:10:32.060571  7153 net.cpp:152] Setting up res3a_branch1
02-28 10:10:32.060  7153  7153 I caffe_jni: I0228 10:10:32.060607  7153 net.cpp:159] Top shape: 1 512 28 28 (401408)
02-28 10:10:32.060  7153  7153 I caffe_jni: I0228 10:10:32.060629  7153 net.cpp:167] Memory required for data: 113799180
02-28 10:10:32.060  7153  7153 I caffe_jni: I0228 10:10:32.060650  7153 layer_factory.hpp:77] Creating layer bn3a_branch1
02-28 10:10:32.060  7153  7153 I caffe_jni: I0228 10:10:32.060672  7153 net.cpp:102] Creating Layer bn3a_branch1
02-28 10:10:32.060  7153  7153 I caffe_jni: I0228 10:10:32.060689  7153 net.cpp:436] bn3a_branch1 <- res3a_branch1
02-28 10:10:32.060  7153  7153 I caffe_jni: I0228 10:10:32.060709  7153 net.cpp:397] bn3a_branch1 -> res3a_branch1 (in-place)
02-28 10:10:32.060  7153  7153 I caffe_jni: I0228 10:10:32.060751  7153 net.cpp:152] Setting up bn3a_branch1
02-28 10:10:32.060  7153  7153 I caffe_jni: I0228 10:10:32.060773  7153 net.cpp:159] Top shape: 1 512 28 28 (401408)
02-28 10:10:32.060  7153  7153 I caffe_jni: I0228 10:10:32.060791  7153 net.cpp:167] Memory required for data: 115404812
02-28 10:10:32.060  7153  7153 I caffe_jni: I0228 10:10:32.060814  7153 layer_factory.hpp:77] Creating layer scale3a_branch1
02-28 10:10:32.060  7153  7153 I caffe_jni: I0228 10:10:32.060835  7153 net.cpp:102] Creating Layer scale3a_branch1
02-28 10:10:32.060  7153  7153 I caffe_jni: I0228 10:10:32.060850  7153 net.cpp:436] scale3a_branch1 <- res3a_branch1
02-28 10:10:32.060  7153  7153 I caffe_jni: I0228 10:10:32.060868  7153 net.cpp:397] scale3a_branch1 -> res3a_branch1 (in-place)
02-28 10:10:32.060  7153  7153 I caffe_jni: I0228 10:10:32.060900  7153 layer_factory.hpp:77] Creating layer scale3a_branch1
02-28 10:10:32.060  7153  7153 I caffe_jni: I0228 10:10:32.060946  7153 net.cpp:152] Setting up scale3a_branch1
02-28 10:10:32.060  7153  7153 I caffe_jni: I0228 10:10:32.060963  7153 net.cpp:159] Top shape: 1 512 28 28 (401408)
02-28 10:10:32.060  7153  7153 I caffe_jni: I0228 10:10:32.060981  7153 net.cpp:167] Memory required for data: 117010444
02-28 10:10:32.061  7153  7153 I caffe_jni: I0228 10:10:32.061002  7153 layer_factory.hpp:77] Creating layer res3a_branch2a
02-28 10:10:32.061  7153  7153 I caffe_jni: I0228 10:10:32.061024  7153 net.cpp:102] Creating Layer res3a_branch2a
02-28 10:10:32.061  7153  7153 I caffe_jni: I0228 10:10:32.061043  7153 net.cpp:436] res3a_branch2a <- res2c_res2c_relu_0_split_1
02-28 10:10:32.061  7153  7153 I caffe_jni: I0228 10:10:32.061065  7153 net.cpp:410] res3a_branch2a -> res3a_branch2a
02-28 10:10:32.061  7153  7153 I caffe_jni: I0228 10:10:32.061187  7153 net.cpp:152] Setting up res3a_branch2a
02-28 10:10:32.061  7153  7153 I caffe_jni: I0228 10:10:32.061208  7153 net.cpp:159] Top shape: 1 128 28 28 (100352)
02-28 10:10:32.061  7153  7153 I caffe_jni: I0228 10:10:32.061226  7153 net.cpp:167] Memory required for data: 117411852
02-28 10:10:32.061  7153  7153 I caffe_jni: I0228 10:10:32.061256  7153 layer_factory.hpp:77] Creating layer bn3a_branch2a
02-28 10:10:32.061  7153  7153 I caffe_jni: I0228 10:10:32.061278  7153 net.cpp:102] Creating Layer bn3a_branch2a
02-28 10:10:32.061  7153  7153 I caffe_jni: I0228 10:10:32.061296  7153 net.cpp:436] bn3a_branch2a <- res3a_branch2a
02-28 10:10:32.061  7153  7153 I caffe_jni: I0228 10:10:32.061314  7153 net.cpp:397] bn3a_branch2a -> res3a_branch2a (in-place)
02-28 10:10:32.061  7153  7153 I caffe_jni: I0228 10:10:32.061349  7153 net.cpp:152] Setting up bn3a_branch2a
02-28 10:10:32.061  7153  7153 I caffe_jni: I0228 10:10:32.061365  7153 net.cpp:159] Top shape: 1 128 28 28 (100352)
02-28 10:10:32.061  7153  7153 I caffe_jni: I0228 10:10:32.061384  7153 net.cpp:167] Memory required for data: 117813260
02-28 10:10:32.061  7153  7153 I caffe_jni: I0228 10:10:32.061406  7153 layer_factory.hpp:77] Creating layer scale3a_branch2a
02-28 10:10:32.061  7153  7153 I caffe_jni: I0228 10:10:32.061427  7153 net.cpp:102] Creating Layer scale3a_branch2a
02-28 10:10:32.061  7153  7153 I caffe_jni: I0228 10:10:32.061444  7153 net.cpp:436] scale3a_branch2a <- res3a_branch2a
02-28 10:10:32.061  7153  7153 I caffe_jni: I0228 10:10:32.061462  7153 net.cpp:397] scale3a_branch2a -> res3a_branch2a (in-place)
02-28 10:10:32.061  7153  7153 I caffe_jni: I0228 10:10:32.061488  7153 layer_factory.hpp:77] Creating layer scale3a_branch2a
02-28 10:10:32.061  7153  7153 I caffe_jni: I0228 10:10:32.061527  7153 net.cpp:152] Setting up scale3a_branch2a
02-28 10:10:32.061  7153  7153 I caffe_jni: I0228 10:10:32.061550  7153 net.cpp:159] Top shape: 1 128 28 28 (100352)
02-28 10:10:32.061  7153  7153 I caffe_jni: I0228 10:10:32.061574  7153 net.cpp:167] Memory required for data: 118214668
02-28 10:10:32.061  7153  7153 I caffe_jni: I0228 10:10:32.061595  7153 layer_factory.hpp:77] Creating layer res3a_branch2a_relu
02-28 10:10:32.061  7153  7153 I caffe_jni: I0228 10:10:32.061616  7153 net.cpp:102] Creating Layer res3a_branch2a_relu
02-28 10:10:32.061  7153  7153 I caffe_jni: I0228 10:10:32.061633  7153 net.cpp:436] res3a_branch2a_relu <- res3a_branch2a
02-28 10:10:32.061  7153  7153 I caffe_jni: I0228 10:10:32.061650  7153 net.cpp:397] res3a_branch2a_relu -> res3a_branch2a (in-place)
02-28 10:10:32.061  7153  7153 I caffe_jni: I0228 10:10:32.061671  7153 net.cpp:152] Setting up res3a_branch2a_relu
02-28 10:10:32.061  7153  7153 I caffe_jni: I0228 10:10:32.061691  7153 net.cpp:159] Top shape: 1 128 28 28 (100352)
02-28 10:10:32.061  7153  7153 I caffe_jni: I0228 10:10:32.061713  7153 net.cpp:167] Memory required for data: 118616076
02-28 10:10:32.061  7153  7153 I caffe_jni: I0228 10:10:32.061729  7153 layer_factory.hpp:77] Creating layer res3a_branch2b
02-28 10:10:32.061  7153  7153 I caffe_jni: I0228 10:10:32.061751  7153 net.cpp:102] Creating Layer res3a_branch2b
02-28 10:10:32.061  7153  7153 I caffe_jni: I0228 10:10:32.061769  7153 net.cpp:436] res3a_branch2b <- res3a_branch2a
02-28 10:10:32.061  7153  7153 I caffe_jni: I0228 10:10:32.061787  7153 net.cpp:410] res3a_branch2b -> res3a_branch2b
02-28 10:10:32.062  7153  7153 I caffe_jni: I0228 10:10:32.062150  7153 net.cpp:152] Setting up res3a_branch2b
02-28 10:10:32.062  7153  7153 I caffe_jni: I0228 10:10:32.062185  7153 net.cpp:159] Top shape: 1 128 28 28 (100352)
02-28 10:10:32.062  7153  7153 I caffe_jni: I0228 10:10:32.062209  7153 net.cpp:167] Memory required for data: 119017484
02-28 10:10:32.062  7153  7153 I caffe_jni: I0228 10:10:32.062229  7153 layer_factory.hpp:77] Creating layer bn3a_branch2b
02-28 10:10:32.062  7153  7153 I caffe_jni: I0228 10:10:32.062253  7153 net.cpp:102] Creating Layer bn3a_branch2b
02-28 10:10:32.062  7153  7153 I caffe_jni: I0228 10:10:32.062270  7153 net.cpp:436] bn3a_branch2b <- res3a_branch2b
02-28 10:10:32.062  7153  7153 I caffe_jni: I0228 10:10:32.062294  7153 net.cpp:397] bn3a_branch2b -> res3a_branch2b (in-place)
02-28 10:10:32.062  7153  7153 I caffe_jni: I0228 10:10:32.062335  7153 net.cpp:152] Setting up bn3a_branch2b
02-28 10:10:32.062  7153  7153 I caffe_jni: I0228 10:10:32.062356  7153 net.cpp:159] Top shape: 1 128 28 28 (100352)
02-28 10:10:32.062  7153  7153 I caffe_jni: I0228 10:10:32.062376  7153 net.cpp:167] Memory required for data: 119418892
02-28 10:10:32.062  7153  7153 I caffe_jni: I0228 10:10:32.062398  7153 layer_factory.hpp:77] Creating layer scale3a_branch2b
02-28 10:10:32.062  7153  7153 I caffe_jni: I0228 10:10:32.062422  7153 net.cpp:102] Creating Layer scale3a_branch2b
02-28 10:10:32.062  7153  7153 I caffe_jni: I0228 10:10:32.062438  7153 net.cpp:436] scale3a_branch2b <- res3a_branch2b
02-28 10:10:32.062  7153  7153 I caffe_jni: I0228 10:10:32.062461  7153 net.cpp:397] scale3a_branch2b -> res3a_branch2b (in-place)
02-28 10:10:32.062  7153  7153 I caffe_jni: I0228 10:10:32.062491  7153 layer_factory.hpp:77] Creating layer scale3a_branch2b
02-28 10:10:32.062  7153  7153 I caffe_jni: I0228 10:10:32.062530  7153 net.cpp:152] Setting up scale3a_branch2b
02-28 10:10:32.062  7153  7153 I caffe_jni: I0228 10:10:32.062547  7153 net.cpp:159] Top shape: 1 128 28 28 (100352)
02-28 10:10:32.062  7153  7153 I caffe_jni: I0228 10:10:32.062566  7153 net.cpp:167] Memory required for data: 119820300
02-28 10:10:32.062  7153  7153 I caffe_jni: I0228 10:10:32.062587  7153 layer_factory.hpp:77] Creating layer res3a_branch2b_relu
02-28 10:10:32.062  7153  7153 I caffe_jni: I0228 10:10:32.062611  7153 net.cpp:102] Creating Layer res3a_branch2b_relu
02-28 10:10:32.062  7153  7153 I caffe_jni: I0228 10:10:32.062628  7153 net.cpp:436] res3a_branch2b_relu <- res3a_branch2b
02-28 10:10:32.062  7153  7153 I caffe_jni: I0228 10:10:32.062644  7153 net.cpp:397] res3a_branch2b_relu -> res3a_branch2b (in-place)
02-28 10:10:32.062  7153  7153 I caffe_jni: I0228 10:10:32.062664  7153 net.cpp:152] Setting up res3a_branch2b_relu
02-28 10:10:32.062  7153  7153 I caffe_jni: I0228 10:10:32.062681  7153 net.cpp:159] Top shape: 1 128 28 28 (100352)
02-28 10:10:32.062  7153  7153 I caffe_jni: I0228 10:10:32.062700  7153 net.cpp:167] Memory required for data: 120221708
02-28 10:10:32.062  7153  7153 I caffe_jni: I0228 10:10:32.062716  7153 layer_factory.hpp:77] Creating layer res3a_branch2c
02-28 10:10:32.062  7153  7153 I caffe_jni: I0228 10:10:32.062741  7153 net.cpp:102] Creating Layer res3a_branch2c
02-28 10:10:32.062  7153  7153 I caffe_jni: I0228 10:10:32.062757  7153 net.cpp:436] res3a_branch2c <- res3a_branch2b
02-28 10:10:32.062  7153  7153 I caffe_jni: I0228 10:10:32.062775  7153 net.cpp:410] res3a_branch2c -> res3a_branch2c
02-28 10:10:32.062  7153  7153 I caffe_jni: I0228 10:10:32.062947  7153 net.cpp:152] Setting up res3a_branch2c
02-28 10:10:32.062  7153  7153 I caffe_jni: I0228 10:10:32.062966  7153 net.cpp:159] Top shape: 1 512 28 28 (401408)
…
02-28 10:10:32.110  7153  7153 I caffe_jni: I0228 10:10:32.110255  7153 net.cpp:159] Top shape: 1 2048 14 14 (401408)
02-28 10:10:32.110  7153  7153 I caffe_jni: I0228 10:10:32.110273  7153 net.cpp:167] Memory required for data: 224587788
02-28 10:10:32.110  7153  7153 I caffe_jni: I0228 10:10:32.110296  7153 layer_factory.hpp:77] Creating layer scale5a_branch1
02-28 10:10:32.110  7153  7153 I caffe_jni: I0228 10:10:32.110319  7153 net.cpp:102] Creating Layer scale5a_branch1
02-28 10:10:32.110  7153  7153 I caffe_jni: I0228 10:10:32.110337  7153 net.cpp:436] scale5a_branch1 <- res5a_branch1
02-28 10:10:32.110  7153  7153 I caffe_jni: I0228 10:10:32.110357  7153 net.cpp:397] scale5a_branch1 -> res5a_branch1 (in-place)
02-28 10:10:32.110  7153  7153 I caffe_jni: I0228 10:10:32.110400  7153 layer_factory.hpp:77] Creating layer scale5a_branch1
02-28 10:10:32.110  7153  7153 I caffe_jni: I0228 10:10:32.110443  7153 net.cpp:152] Setting up scale5a_branch1
02-28 10:10:32.110  7153  7153 I caffe_jni: I0228 10:10:32.110462  7153 net.cpp:159] Top shape: 1 2048 14 14 (401408)
02-28 10:10:32.110  7153  7153 I caffe_jni: I0228 10:10:32.110481  7153 net.cpp:167] Memory required for data: 226193420
02-28 10:10:32.110  7153  7153 I caffe_jni: I0228 10:10:32.110502  7153 layer_factory.hpp:77] Creating layer res5a_branch2a
02-28 10:10:32.110  7153  7153 I caffe_jni: I0228 10:10:32.110530  7153 net.cpp:102] Creating Layer res5a_branch2a
02-28 10:10:32.110  7153  7153 I caffe_jni: I0228 10:10:32.110549  7153 net.cpp:436] res5a_branch2a <- res4f_res4f_relu_0_split_1
02-28 10:10:32.110  7153  7153 I caffe_jni: I0228 10:10:32.110569  7153 net.cpp:410] res5a_branch2a -> res5a_branch2a
02-28 10:10:32.111  7153  7153 I caffe_jni: I0228 10:10:32.111701  7153 net.cpp:152] Setting up res5a_branch2a
02-28 10:10:32.111  7153  7153 I caffe_jni: I0228 10:10:32.111773  7153 net.cpp:159] Top shape: 1 512 14 14 (100352)
02-28 10:10:32.111  7153  7153 I caffe_jni: I0228 10:10:32.111809  7153 net.cpp:167] Memory required for data: 226594828
02-28 10:10:32.111  7153  7153 I caffe_jni: I0228 10:10:32.111836  7153 layer_factory.hpp:77] Creating layer bn5a_branch2a
02-28 10:10:32.111  7153  7153 I caffe_jni: I0228 10:10:32.111868  7153 net.cpp:102] Creating Layer bn5a_branch2a
02-28 10:10:32.111  7153  7153 I caffe_jni: I0228 10:10:32.111891  7153 net.cpp:436] bn5a_branch2a <- res5a_branch2a
02-28 10:10:32.111  7153  7153 I caffe_jni: I0228 10:10:32.111918  7153 net.cpp:397] bn5a_branch2a -> res5a_branch2a (in-place)
02-28 10:10:32.111  7153  7153 I caffe_jni: I0228 10:10:32.111966  7153 net.cpp:152] Setting up bn5a_branch2a
02-28 10:10:32.111  7153  7153 I caffe_jni: I0228 10:10:32.111985  7153 net.cpp:159] Top shape: 1 512 14 14 (100352)
02-28 10:10:32.112  7153  7153 I caffe_jni: I0228 10:10:32.112006  7153 net.cpp:167] Memory required for data: 226996236
02-28 10:10:32.112  7153  7153 I caffe_jni: I0228 10:10:32.112035  7153 layer_factory.hpp:77] Creating layer scale5a_branch2a
02-28 10:10:32.112  7153  7153 I caffe_jni: I0228 10:10:32.112058  7153 net.cpp:102] Creating Layer scale5a_branch2a
02-28 10:10:32.112  7153  7153 I caffe_jni: I0228 10:10:32.112076  7153 net.cpp:436] scale5a_branch2a <- res5a_branch2a
02-28 10:10:32.112  7153  7153 I caffe_jni: I0228 10:10:32.112093  7153 net.cpp:397] scale5a_branch2a -> res5a_branch2a (in-place)
02-28 10:10:32.112  7153  7153 I caffe_jni: I0228 10:10:32.112126  7153 layer_factory.hpp:77] Creating layer scale5a_branch2a
02-28 10:10:32.112  7153  7153 I caffe_jni: I0228 10:10:32.112167  7153 net.cpp:152] Setting up scale5a_branch2a
02-28 10:10:32.112  7153  7153 I caffe_jni: I0228 10:10:32.112190  7153 net.cpp:159] Top shape: 1 512 14 14 (100352)
02-28 10:10:32.112  7153  7153 I caffe_jni: I0228 10:10:32.112210  7153 net.cpp:167] Memory required for data: 227397644
02-28 10:10:32.112  7153  7153 I caffe_jni: I0228 10:10:32.112231  7153 layer_factory.hpp:77] Creating layer res5a_branch2a_relu
02-28 10:10:32.112  7153  7153 I caffe_jni: I0228 10:10:32.112251  7153 net.cpp:102] Creating Layer res5a_branch2a_relu
02-28 10:10:32.112  7153  7153 I caffe_jni: I0228 10:10:32.112267  7153 net.cpp:436] res5a_branch2a_relu <- res5a_branch2a
02-28 10:10:32.112  7153  7153 I caffe_jni: I0228 10:10:32.112287  7153 net.cpp:397] res5a_branch2a_relu -> res5a_branch2a (in-place)
02-28 10:10:32.112  7153  7153 I caffe_jni: I0228 10:10:32.112306  7153 net.cpp:152] Setting up res5a_branch2a_relu
02-28 10:10:32.112  7153  7153 I caffe_jni: I0228 10:10:32.112325  7153 net.cpp:159] Top shape: 1 512 14 14 (100352)
02-28 10:10:32.112  7153  7153 I caffe_jni: I0228 10:10:32.112349  7153 net.cpp:167] Memory required for data: 227799052
02-28 10:10:32.112  7153  7153 I caffe_jni: I0228 10:10:32.112365  7153 layer_factory.hpp:77] Creating layer res5a_branch2b
02-28 10:10:32.112  7153  7153 I caffe_jni: I0228 10:10:32.112387  7153 net.cpp:102] Creating Layer res5a_branch2b
02-28 10:10:32.112  7153  7153 I caffe_jni: I0228 10:10:32.112404  7153 net.cpp:436] res5a_branch2b <- res5a_branch2a
02-28 10:10:32.112  7153  7153 I caffe_jni: I0228 10:10:32.112424  7153 net.cpp:410] res5a_branch2b -> res5a_branch2b
02-28 10:10:32.117  7153  7153 I caffe_jni: I0228 10:10:32.117182  7153 net.cpp:152] Setting up res5a_branch2b
02-28 10:10:32.117  7153  7153 I caffe_jni: I0228 10:10:32.117283  7153 net.cpp:159] Top shape: 1 512 14 14 (100352)
02-28 10:10:32.117  7153  7153 I caffe_jni: I0228 10:10:32.117323  7153 net.cpp:167] Memory required for data: 228200460
02-28 10:10:32.117  7153  7153 I caffe_jni: I0228 10:10:32.117349  7153 layer_factory.hpp:77] Creating layer bn5a_branch2b
02-28 10:10:32.117  7153  7153 I caffe_jni: I0228 10:10:32.117378  7153 net.cpp:102] Creating Layer bn5a_branch2b
02-28 10:10:32.117  7153  7153 I caffe_jni: I0228 10:10:32.117401  7153 net.cpp:436] bn5a_branch2b <- res5a_branch2b
02-28 10:10:32.117  7153  7153 I caffe_jni: I0228 10:10:32.117429  7153 net.cpp:397] bn5a_branch2b -> res5a_branch2b (in-place)
02-28 10:10:32.117  7153  7153 I caffe_jni: I0228 10:10:32.117476  7153 net.cpp:152] Setting up bn5a_branch2b
02-28 10:10:32.117  7153  7153 I caffe_jni: I0228 10:10:32.117504  7153 net.cpp:159] Top shape: 1 512 14 14 (100352)
02-28 10:10:32.117  7153  7153 I caffe_jni: I0228 10:10:32.117523  7153 net.cpp:167] Memory required for data: 228601868
02-28 10:10:32.117  7153  7153 I caffe_jni: I0228 10:10:32.117547  7153 layer_factory.hpp:77] Creating layer scale5a_branch2b
02-28 10:10:32.117  7153  7153 I caffe_jni: I0228 10:10:32.117573  7153 net.cpp:102] Creating Layer scale5a_branch2b
02-28 10:10:32.117  7153  7153 I caffe_jni: I0228 10:10:32.117589  7153 net.cpp:436] scale5a_branch2b <- res5a_branch2b
02-28 10:10:32.117  7153  7153 I caffe_jni: I0228 10:10:32.117611  7153 net.cpp:397] scale5a_branch2b -> res5a_branch2b (in-place)
02-28 10:10:32.117  7153  7153 I caffe_jni: I0228 10:10:32.117647  7153 layer_factory.hpp:77] Creating layer scale5a_branch2b
02-28 10:10:32.117  7153  7153 I caffe_jni: I0228 10:10:32.117691  7153 net.cpp:152] Setting up scale5a_branch2b
02-28 10:10:32.117  7153  7153 I caffe_jni: I0228 10:10:32.117708  7153 net.cpp:159] Top shape: 1 512 14 14 (100352)
02-28 10:10:32.117  7153  7153 I caffe_jni: I0228 10:10:32.117727  7153 net.cpp:167] Memory required for data: 229003276
02-28 10:10:32.117  7153  7153 I caffe_jni: I0228 10:10:32.117748  7153 layer_factory.hpp:77] Creating layer res5a_branch2b_relu
02-28 10:10:32.117  7153  7153 I caffe_jni: I0228 10:10:32.117768  7153 net.cpp:102] Creating Layer res5a_branch2b_relu
02-28 10:10:32.117  7153  7153 I caffe_jni: I0228 10:10:32.117787  7153 net.cpp:436] res5a_branch2b_relu <- res5a_branch2b
02-28 10:10:32.117  7153  7153 I caffe_jni: I0228 10:10:32.117806  7153 net.cpp:397] res5a_branch2b_relu -> res5a_branch2b (in-place)
02-28 10:10:32.117  7153  7153 I caffe_jni: I0228 10:10:32.117827  7153 net.cpp:152] Setting up res5a_branch2b_relu
02-28 10:10:32.117  7153  7153 I caffe_jni: I0228 10:10:32.117843  7153 net.cpp:159] Top shape: 1 512 14 14 (100352)
02-28 10:10:32.117  7153  7153 I caffe_jni: I0228 10:10:32.117862  7153 net.cpp:167] Memory required for data: 229404684
02-28 10:10:32.117  7153  7153 I caffe_jni: I0228 10:10:32.117878  7153 layer_factory.hpp:77] Creating layer res5a_branch2c
02-28 10:10:32.117  7153  7153 I caffe_jni: I0228 10:10:32.117902  7153 net.cpp:102] Creating Layer res5a_branch2c
02-28 10:10:32.117  7153  7153 I caffe_jni: I0228 10:10:32.117919  7153 net.cpp:436] res5a_branch2c <- res5a_branch2b
02-28 10:10:32.117  7153  7153 I caffe_jni: I0228 10:10:32.117940  7153 net.cpp:410] res5a_branch2c -> res5a_branch2c
02-28 10:10:32.120  7153  7153 I caffe_jni: I0228 10:10:32.120126  7153 net.cpp:152] Setting up res5a_branch2c
02-28 10:10:32.120  7153  7153 I caffe_jni: I0228 10:10:32.120219  7153 net.cpp:159] Top shape: 1 2048 14 14 (401408)
02-28 10:10:32.120  7153  7153 I caffe_jni: I0228 10:10:32.120254  7153 net.cpp:167] Memory required for data: 231010316
02-28 10:10:32.120  7153  7153 I caffe_jni: I0228 10:10:32.120285  7153 layer_factory.hpp:77] Creating layer bn5a_branch2c
02-28 10:10:32.120  7153  7153 I caffe_jni: I0228 10:10:32.120314  7153 net.cpp:102] Creating Layer bn5a_branch2c
02-28 10:10:32.120  7153  7153 I caffe_jni: I0228 10:10:32.120337  7153 net.cpp:436] bn5a_branch2c <- res5a_branch2c
02-28 10:10:32.120  7153  7153 I caffe_jni: I0228 10:10:32.120360  7153 net.cpp:397] bn5a_branch2c -> res5a_branch2c (in-place)
02-28 10:10:32.120  7153  7153 I caffe_jni: I0228 10:10:32.120417  7153 net.cpp:152] Setting up bn5a_branch2c
02-28 10:10:32.120  7153  7153 I caffe_jni: I0228 10:10:32.120442  7153 net.cpp:159] Top shape: 1 2048 14 14 (401408)
02-28 10:10:32.120  7153  7153 I caffe_jni: I0228 10:10:32.120460  7153 net.cpp:167] Memory required for data: 232615948
02-28 10:10:32.120  7153  7153 I caffe_jni: I0228 10:10:32.120483  7153 layer_factory.hpp:77] Creating layer scale5a_branch2c
02-28 10:10:32.120  7153  7153 I caffe_jni: I0228 10:10:32.120507  7153 net.cpp:102] Creating Layer scale5a_branch2c
02-28 10:10:32.120  7153  7153 I caffe_jni: I0228 10:10:32.120524  7153 net.cpp:436] scale5a_branch2c <- res5a_branch2c
02-28 10:10:32.120  7153  7153 I caffe_jni: I0228 10:10:32.120544  7153 net.cpp:397] scale5a_branch2c -> res5a_branch2c (in-place)
02-28 10:10:32.120  7153  7153 I caffe_jni: I0228 10:10:32.120585  7153 layer_factory.hpp:77] Creating layer scale5a_branch2c
02-28 10:10:32.120  7153  7153 I caffe_jni: I0228 10:10:32.120626  7153 net.cpp:152] Setting up scale5a_branch2c
02-28 10:10:32.120  7153  7153 I caffe_jni: I0228 10:10:32.120643  7153 net.cpp:159] Top shape: 1 2048 14 14 (401408)
02-28 10:10:32.120  7153  7153 I caffe_jni: I0228 10:10:32.120661  7153 net.cpp:167] Memory required for data: 234221580
02-28 10:10:32.120  7153  7153 I caffe_jni: I0228 10:10:32.120685  7153 layer_factory.hpp:77] Creating layer res5a
02-28 10:10:32.120  7153  7153 I caffe_jni: I0228 10:10:32.120710  7153 net.cpp:102] Creating Layer res5a
02-28 10:10:32.120  7153  7153 I caffe_jni: I0228 10:10:32.120728  7153 net.cpp:436] res5a <- res5a_branch1
02-28 10:10:32.120  7153  7153 I caffe_jni: I0228 10:10:32.120744  7153 net.cpp:436] res5a <- res5a_branch2c
02-28 10:10:32.120  7153  7153 I caffe_jni: I0228 10:10:32.120764  7153 net.cpp:410] res5a -> res5a
02-28 10:10:32.120  7153  7153 I caffe_jni: I0228 10:10:32.120790  7153 net.cpp:152] Setting up res5a
02-28 10:10:32.120  7153  7153 I caffe_jni: I0228 10:10:32.120808  7153 net.cpp:159] Top shape: 1 2048 14 14 (401408)
02-28 10:10:32.120  7153  7153 I caffe_jni: I0228 10:10:32.120831  7153 net.cpp:167] Memory required for data: 235827212
02-28 10:10:32.120  7153  7153 I caffe_jni: I0228 10:10:32.120847  7153 layer_factory.hpp:77] Creating layer res5a_relu
02-28 10:10:32.120  7153  7153 I caffe_jni: I0228 10:10:32.120865  7153 net.cpp:102] Creating Layer res5a_relu
02-28 10:10:32.120  7153  7153 I caffe_jni: I0228 10:10:32.120882  7153 net.cpp:436] res5a_relu <- res5a
02-28 10:10:32.120  7153  7153 I caffe_jni: I0228 10:10:32.120899  7153 net.cpp:397] res5a_relu -> res5a (in-place)
02-28 10:10:32.120  7153  7153 I caffe_jni: I0228 10:10:32.120919  7153 net.cpp:152] Setting up res5a_relu
02-28 10:10:32.120  7153  7153 I caffe_jni: I0228 10:10:32.120937  7153 net.cpp:159] Top shape: 1 2048 14 14 (401408)
02-28 10:10:32.120  7153  7153 I caffe_jni: I0228 10:10:32.120959  7153 net.cpp:167] Memory required for data: 237432844
02-28 10:10:32.120  7153  7153 I caffe_jni: I0228 10:10:32.120975  7153 layer_factory.hpp:77] Creating layer res5a_res5a_relu_0_split
02-28 10:10:32.120  7153  7153 I caffe_jni: I0228 10:10:32.120993  7153 net.cpp:102] Creating Layer res5a_res5a_relu_0_split
02-28 10:10:32.121  7153  7153 I caffe_jni: I0228 10:10:32.121011  7153 net.cpp:436] res5a_res5a_relu_0_split <- res5a
02-28 10:10:32.121  7153  7153 I caffe_jni: I0228 10:10:32.121027  7153 net.cpp:410] res5a_res5a_relu_0_split -> res5a_res5a_relu_0_split_0
02-28 10:10:32.121  7153  7153 I caffe_jni: I0228 10:10:32.121048  7153 net.cpp:410] res5a_res5a_relu_0_split -> res5a_res5a_relu_0_split_1
02-28 10:10:32.121  7153  7153 I caffe_jni: I0228 10:10:32.121073  7153 net.cpp:152] Setting up res5a_res5a_relu_0_split
02-28 10:10:32.121  7153  7153 I caffe_jni: I0228 10:10:32.121091  7153 net.cpp:159] Top shape: 1 2048 14 14 (401408)
02-28 10:10:32.121  7153  7153 I caffe_jni: I0228 10:10:32.121114  7153 net.cpp:159] Top shape: 1 2048 14 14 (401408)
02-28 10:10:32.121  7153  7153 I caffe_jni: I0228 10:10:32.121132  7153 net.cpp:167] Memory required for data: 240644108
02-28 10:10:32.121  7153  7153 I caffe_jni: I0228 10:10:32.121148  7153 layer_factory.hpp:77] Creating layer res5b_branch2a
02-28 10:10:32.121  7153  7153 I caffe_jni: I0228 10:10:32.121170  7153 net.cpp:102] Creating Layer res5b_branch2a
02-28 10:10:32.121  7153  7153 I caffe_jni: I0228 10:10:32.121187  7153 net.cpp:436] res5b_branch2a <- res5a_res5a_relu_0_split_0
02-28 10:10:32.121  7153  7153 I caffe_jni: I0228 10:10:32.121206  7153 net.cpp:410] res5b_branch2a -> res5b_branch2a
02-28 10:10:32.124  7153  7153 I caffe_jni: I0228 10:10:32.124234  7153 net.cpp:152] Setting up res5b_branch2a
02-28 10:10:32.124  7153  7153 I caffe_jni: I0228 10:10:32.124325  7153 net.cpp:159] Top shape: 1 512 14 14 (100352)
02-28 10:10:32.124  7153  7153 I caffe_jni: I0228 10:10:32.124361  7153 net.cpp:167] Memory required for data: 241045516
02-28 10:10:32.124  7153  7153 I caffe_jni: I0228 10:10:32.124387  7153 layer_factory.hpp:77] Creating layer bn5b_branch2a
02-28 10:10:32.124  7153  7153 I caffe_jni: I0228 10:10:32.124418  7153 net.cpp:102] Creating Layer bn5b_branch2a
02-28 10:10:32.124  7153  7153 I caffe_jni: I0228 10:10:32.124444  7153 net.cpp:436] bn5b_branch2a <- res5b_branch2a
02-28 10:10:32.124  7153  7153 I caffe_jni: I0228 10:10:32.124469  7153 net.cpp:397] bn5b_branch2a -> res5b_branch2a (in-place)
02-28 10:10:32.124  7153  7153 I caffe_jni: I0228 10:10:32.124518  7153 net.cpp:152] Setting up bn5b_branch2a
02-28 10:10:32.124  7153  7153 I caffe_jni: I0228 10:10:32.124544  7153 net.cpp:159] Top shape: 1 512 14 14 (100352)
02-28 10:10:32.124  7153  7153 I caffe_jni: I0228 10:10:32.124564  7153 net.cpp:167] Memory required for data: 241446924
02-28 10:10:32.124  7153  7153 I caffe_jni: I0228 10:10:32.124588  7153 layer_factory.hpp:77] Creating layer scale5b_branch2a
02-28 10:10:32.124  7153  7153 I caffe_jni: I0228 10:10:32.124614  7153 net.cpp:102] Creating Layer scale5b_branch2a
02-28 10:10:32.124  7153  7153 I caffe_jni: I0228 10:10:32.124631  7153 net.cpp:436] scale5b_branch2a <- res5b_branch2a
02-28 10:10:32.124  7153  7153 I caffe_jni: I0228 10:10:32.124655  7153 net.cpp:397] scale5b_branch2a -> res5b_branch2a (in-place)
02-28 10:10:32.124  7153  7153 I caffe_jni: I0228 10:10:32.124691  7153 layer_factory.hpp:77] Creating layer scale5b_branch2a
02-28 10:10:32.124  7153  7153 I caffe_jni: I0228 10:10:32.124727  7153 net.cpp:152] Setting up scale5b_branch2a
02-28 10:10:32.124  7153  7153 I caffe_jni: I0228 10:10:32.124745  7153 net.cpp:159] Top shape: 1 512 14 14 (100352)
02-28 10:10:32.124  7153  7153 I caffe_jni: I0228 10:10:32.124763  7153 net.cpp:167] Memory required for data: 241848332
02-28 10:10:32.124  7153  7153 I caffe_jni: I0228 10:10:32.124783  7153 layer_factory.hpp:77] Creating layer res5b_branch2a_relu
02-28 10:10:32.124  7153  7153 I caffe_jni: I0228 10:10:32.124804  7153 net.cpp:102] Creating Layer res5b_branch2a_relu
02-28 10:10:32.124  7153  7153 I caffe_jni: I0228 10:10:32.124824  7153 net.cpp:436] res5b_branch2a_relu <- res5b_branch2a
02-28 10:10:32.125  7153  7153 I caffe_jni: I0228 10:10:32.125113  7153 net.cpp:397] res5b_branch2a_relu -> res5b_branch2a (in-place)
02-28 10:10:32.125  7153  7153 I caffe_jni: I0228 10:10:32.125154  7153 net.cpp:152] Setting up res5b_branch2a_relu
02-28 10:10:32.125  7153  7153 I caffe_jni: I0228 10:10:32.125175  7153 net.cpp:159] Top shape: 1 512 14 14 (100352)
02-28 10:10:32.125  7153  7153 I caffe_jni: I0228 10:10:32.125196  7153 net.cpp:167] Memory required for data: 242249740
02-28 10:10:32.125  7153  7153 I caffe_jni: I0228 10:10:32.125213  7153 layer_factory.hpp:77] Creating layer res5b_branch2b
02-28 10:10:32.125  7153  7153 I caffe_jni: I0228 10:10:32.125238  7153 net.cpp:102] Creating Layer res5b_branch2b
02-28 10:10:32.125  7153  7153 I caffe_jni: I0228 10:10:32.125259  7153 net.cpp:436] res5b_branch2b <- res5b_branch2a
02-28 10:10:32.125  7153  7153 I caffe_jni: I0228 10:10:32.125285  7153 net.cpp:410] res5b_branch2b -> res5b_branch2b
02-28 10:10:32.130  7153  7153 I caffe_jni: I0228 10:10:32.130029  7153 net.cpp:152] Setting up res5b_branch2b
02-28 10:10:32.130  7153  7153 I caffe_jni: I0228 10:10:32.130146  7153 net.cpp:159] Top shape: 1 512 14 14 (100352)
02-28 10:10:32.130  7153  7153 I caffe_jni: I0228 10:10:32.130187  7153 net.cpp:167] Memory required for data: 242651148
02-28 10:10:32.130  7153  7153 I caffe_jni: I0228 10:10:32.130213  7153 layer_factory.hpp:77] Creating layer bn5b_branch2b
02-28 10:10:32.130  7153  7153 I caffe_jni: I0228 10:10:32.130244  7153 net.cpp:102] Creating Layer bn5b_branch2b
02-28 10:10:32.130  7153  7153 I caffe_jni: I0228 10:10:32.130270  7153 net.cpp:436] bn5b_branch2b <- res5b_branch2b
02-28 10:10:32.130  7153  7153 I caffe_jni: I0228 10:10:32.130295  7153 net.cpp:397] bn5b_branch2b -> res5b_branch2b (in-place)
02-28 10:10:32.130  7153  7153 I caffe_jni: I0228 10:10:32.130347  7153 net.cpp:152] Setting up bn5b_branch2b
02-28 10:10:32.130  7153  7153 I caffe_jni: I0228 10:10:32.130372  7153 net.cpp:159] Top shape: 1 512 14 14 (100352)
02-28 10:10:32.130  7153  7153 I caffe_jni: I0228 10:10:32.130390  7153 net.cpp:167] Memory required for data: 243052556
02-28 10:10:32.130  7153  7153 I caffe_jni: I0228 10:10:32.130412  7153 layer_factory.hpp:77] Creating layer scale5b_branch2b
02-28 10:10:32.130  7153  7153 I caffe_jni: I0228 10:10:32.130435  7153 net.cpp:102] Creating Layer scale5b_branch2b
02-28 10:10:32.130  7153  7153 I caffe_jni: I0228 10:10:32.130452  7153 net.cpp:436] scale5b_branch2b <- res5b_branch2b
02-28 10:10:32.130  7153  7153 I caffe_jni: I0228 10:10:32.130471  7153 net.cpp:397] scale5b_branch2b -> res5b_branch2b (in-place)
02-28 10:10:32.130  7153  7153 I caffe_jni: I0228 10:10:32.130508  7153 layer_factory.hpp:77] Creating layer scale5b_branch2b
02-28 10:10:32.130  7153  7153 I caffe_jni: I0228 10:10:32.130553  7153 net.cpp:152] Setting up scale5b_branch2b
02-28 10:10:32.130  7153  7153 I caffe_jni: I0228 10:10:32.130571  7153 net.cpp:159] Top shape: 1 512 14 14 (100352)
02-28 10:10:32.130  7153  7153 I caffe_jni: I0228 10:10:32.130590  7153 net.cpp:167] Memory required for data: 243453964
02-28 10:10:32.130  7153  7153 I caffe_jni: I0228 10:10:32.130611  7153 layer_factory.hpp:77] Creating layer res5b_branch2b_relu
02-28 10:10:32.130  7153  7153 I caffe_jni: I0228 10:10:32.130633  7153 net.cpp:102] Creating Layer res5b_branch2b_relu
02-28 10:10:32.130  7153  7153 I caffe_jni: I0228 10:10:32.130653  7153 net.cpp:436] res5b_branch2b_relu <- res5b_branch2b
02-28 10:10:32.130  7153  7153 I caffe_jni: I0228 10:10:32.130676  7153 net.cpp:397] res5b_branch2b_relu -> res5b_branch2b (in-place)
02-28 10:10:32.130  7153  7153 I caffe_jni: I0228 10:10:32.130697  7153 net.cpp:152] Setting up res5b_branch2b_relu
02-28 10:10:32.130  7153  7153 I caffe_jni: I0228 10:10:32.130712  7153 net.cpp:159] Top shape: 1 512 14 14 (100352)
02-28 10:10:32.130  7153  7153 I caffe_jni: I0228 10:10:32.130729  7153 net.cpp:167] Memory required for data: 243855372
02-28 10:10:32.130  7153  7153 I caffe_jni: I0228 10:10:32.130746  7153 layer_factory.hpp:77] Creating layer res5b_branch2c
02-28 10:10:32.130  7153  7153 I caffe_jni: I0228 10:10:32.130769  7153 net.cpp:102] Creating Layer res5b_branch2c
02-28 10:10:32.130  7153  7153 I caffe_jni: I0228 10:10:32.130789  7153 net.cpp:436] res5b_branch2c <- res5b_branch2b
02-28 10:10:32.130  7153  7153 I caffe_jni: I0228 10:10:32.130812  7153 net.cpp:410] res5b_branch2c -> res5b_branch2c
02-28 10:10:32.133  7153  7153 I caffe_jni: I0228 10:10:32.132987  7153 net.cpp:152] Setting up res5b_branch2c
02-28 10:10:32.133  7153  7153 I caffe_jni: I0228 10:10:32.133074  7153 net.cpp:159] Top shape: 1 2048 14 14 (401408)
02-28 10:10:32.133  7153  7153 I caffe_jni: I0228 10:10:32.133112  7153 net.cpp:167] Memory required for data: 245461004
02-28 10:10:32.133  7153  7153 I caffe_jni: I0228 10:10:32.133141  7153 layer_factory.hpp:77] Creating layer bn5b_branch2c
02-28 10:10:32.133  7153  7153 I caffe_jni: I0228 10:10:32.133172  7153 net.cpp:102] Creating Layer bn5b_branch2c
02-28 10:10:32.133  7153  7153 I caffe_jni: I0228 10:10:32.133194  7153 net.cpp:436] bn5b_branch2c <- res5b_branch2c
02-28 10:10:32.133  7153  7153 I caffe_jni: I0228 10:10:32.133219  7153 net.cpp:397] bn5b_branch2c -> res5b_branch2c (in-place)
02-28 10:10:32.133  7153  7153 I caffe_jni: I0228 10:10:32.133276  7153 net.cpp:152] Setting up bn5b_branch2c
02-28 10:10:32.133  7153  7153 I caffe_jni: I0228 10:10:32.133299  7153 net.cpp:159] Top shape: 1 2048 14 14 (401408)
02-28 10:10:32.133  7153  7153 I caffe_jni: I0228 10:10:32.133318  7153 net.cpp:167] Memory required for data: 247066636
02-28 10:10:32.133  7153  7153 I caffe_jni: I0228 10:10:32.133342  7153 layer_factory.hpp:77] Creating layer scale5b_branch2c
02-28 10:10:32.133  7153  7153 I caffe_jni: I0228 10:10:32.133364  7153 net.cpp:102] Creating Layer scale5b_branch2c
02-28 10:10:32.133  7153  7153 I caffe_jni: I0228 10:10:32.133384  7153 net.cpp:436] scale5b_branch2c <- res5b_branch2c
02-28 10:10:32.133  7153  7153 I caffe_jni: I0228 10:10:32.133407  7153 net.cpp:397] scale5b_branch2c -> res5b_branch2c (in-place)
02-28 10:10:32.133  7153  7153 I caffe_jni: I0228 10:10:32.133440  7153 layer_factory.hpp:77] Creating layer scale5b_branch2c
02-28 10:10:32.133  7153  7153 I caffe_jni: I0228 10:10:32.133482  7153 net.cpp:152] Setting up scale5b_branch2c
02-28 10:10:32.133  7153  7153 I caffe_jni: I0228 10:10:32.133500  7153 net.cpp:159] Top shape: 1 2048 14 14 (401408)
02-28 10:10:32.133  7153  7153 I caffe_jni: I0228 10:10:32.133522  7153 net.cpp:167] Memory required for data: 248672268
02-28 10:10:32.133  7153  7153 I caffe_jni: I0228 10:10:32.133544  7153 layer_factory.hpp:77] Creating layer res5b
02-28 10:10:32.133  7153  7153 I caffe_jni: I0228 10:10:32.133565  7153 net.cpp:102] Creating Layer res5b
02-28 10:10:32.133  7153  7153 I caffe_jni: I0228 10:10:32.133582  7153 net.cpp:436] res5b <- res5a_res5a_relu_0_split_1
02-28 10:10:32.133  7153  7153 I caffe_jni: I0228 10:10:32.133600  7153 net.cpp:436] res5b <- res5b_branch2c
02-28 10:10:32.133  7153  7153 I caffe_jni: I0228 10:10:32.133620  7153 net.cpp:410] res5b -> res5b
02-28 10:10:32.133  7153  7153 I caffe_jni: I0228 10:10:32.133653  7153 net.cpp:152] Setting up res5b
02-28 10:10:32.133  7153  7153 I caffe_jni: I0228 10:10:32.133672  7153 net.cpp:159] Top shape: 1 2048 14 14 (401408)
02-28 10:10:32.133  7153  7153 I caffe_jni: I0228 10:10:32.133694  7153 net.cpp:167] Memory required for data: 250277900
02-28 10:10:32.133  7153  7153 I caffe_jni: I0228 10:10:32.133710  7153 layer_factory.hpp:77] Creating layer res5b_relu
02-28 10:10:32.133  7153  7153 I caffe_jni: I0228 10:10:32.133733  7153 net.cpp:102] Creating Layer res5b_relu
02-28 10:10:32.133  7153  7153 I caffe_jni: I0228 10:10:32.133751  7153 net.cpp:436] res5b_relu <- res5b
02-28 10:10:32.133  7153  7153 I caffe_jni: I0228 10:10:32.133769  7153 net.cpp:397] res5b_relu -> res5b (in-place)
02-28 10:10:32.133  7153  7153 I caffe_jni: I0228 10:10:32.133788  7153 net.cpp:152] Setting up res5b_relu
02-28 10:10:32.133  7153  7153 I caffe_jni: I0228 10:10:32.133805  7153 net.cpp:159] Top shape: 1 2048 14 14 (401408)
02-28 10:10:32.133  7153  7153 I caffe_jni: I0228 10:10:32.133827  7153 net.cpp:167] Memory required for data: 251883532
02-28 10:10:32.133  7153  7153 I caffe_jni: I0228 10:10:32.133842  7153 layer_factory.hpp:77] Creating layer res5b_res5b_relu_0_split
02-28 10:10:32.133  7153  7153 I caffe_jni: I0228 10:10:32.133862  7153 net.cpp:102] Creating Layer res5b_res5b_relu_0_split
02-28 10:10:32.133  7153  7153 I caffe_jni: I0228 10:10:32.133879  7153 net.cpp:436] res5b_res5b_relu_0_split <- res5b
02-28 10:10:32.133  7153  7153 I caffe_jni: I0228 10:10:32.133899  7153 net.cpp:410] res5b_res5b_relu_0_split -> res5b_res5b_relu_0_split_0
02-28 10:10:32.133  7153  7153 I caffe_jni: I0228 10:10:32.133921  7153 net.cpp:410] res5b_res5b_relu_0_split -> res5b_res5b_relu_0_split_1
02-28 10:10:32.133  7153  7153 I caffe_jni: I0228 10:10:32.133950  7153 net.cpp:152] Setting up res5b_res5b_relu_0_split
02-28 10:10:32.133  7153  7153 I caffe_jni: I0228 10:10:32.133973  7153 net.cpp:159] Top shape: 1 2048 14 14 (401408)
02-28 10:10:32.133  7153  7153 I caffe_jni: I0228 10:10:32.133991  7153 net.cpp:159] Top shape: 1 2048 14 14 (401408)
02-28 10:10:32.134  7153  7153 I caffe_jni: I0228 10:10:32.134011  7153 net.cpp:167] Memory required for data: 255094796
02-28 10:10:32.134  7153  7153 I caffe_jni: I0228 10:10:32.134025  7153 layer_factory.hpp:77] Creating layer res5c_branch2a
02-28 10:10:32.134  7153  7153 I caffe_jni: I0228 10:10:32.134048  7153 net.cpp:102] Creating Layer res5c_branch2a
02-28 10:10:32.134  7153  7153 I caffe_jni: I0228 10:10:32.134065  7153 net.cpp:436] res5c_branch2a <- res5b_res5b_relu_0_split_0
02-28 10:10:32.134  7153  7153 I caffe_jni: I0228 10:10:32.134086  7153 net.cpp:410] res5c_branch2a -> res5c_branch2a
02-28 10:10:32.136  7153  7153 I caffe_jni: I0228 10:10:32.136255  7153 net.cpp:152] Setting up res5c_branch2a
02-28 10:10:32.136  7153  7153 I caffe_jni: I0228 10:10:32.136348  7153 net.cpp:159] Top shape: 1 512 14 14 (100352)
02-28 10:10:32.136  7153  7153 I caffe_jni: I0228 10:10:32.136385  7153 net.cpp:167] Memory required for data: 255496204
02-28 10:10:32.136  7153  7153 I caffe_jni: I0228 10:10:32.136412  7153 layer_factory.hpp:77] Creating layer bn5c_branch2a
02-28 10:10:32.136  7153  7153 I caffe_jni: I0228 10:10:32.136441  7153 net.cpp:102] Creating Layer bn5c_branch2a
02-28 10:10:32.136  7153  7153 I caffe_jni: I0228 10:10:32.136464  7153 net.cpp:436] bn5c_branch2a <- res5c_branch2a
02-28 10:10:32.136  7153  7153 I caffe_jni: I0228 10:10:32.136489  7153 net.cpp:397] bn5c_branch2a -> res5c_branch2a (in-place)
02-28 10:10:32.136  7153  7153 I caffe_jni: I0228 10:10:32.136539  7153 net.cpp:152] Setting up bn5c_branch2a
02-28 10:10:32.136  7153  7153 I caffe_jni: I0228 10:10:32.136562  7153 net.cpp:159] Top shape: 1 512 14 14 (100352)
02-28 10:10:32.136  7153  7153 I caffe_jni: I0228 10:10:32.136580  7153 net.cpp:167] Memory required for data: 255897612
02-28 10:10:32.136  7153  7153 I caffe_jni: I0228 10:10:32.136603  7153 layer_factory.hpp:77] Creating layer scale5c_branch2a
02-28 10:10:32.136  7153  7153 I caffe_jni: I0228 10:10:32.136626  7153 net.cpp:102] Creating Layer scale5c_branch2a
02-28 10:10:32.136  7153  7153 I caffe_jni: I0228 10:10:32.136643  7153 net.cpp:436] scale5c_branch2a <- res5c_branch2a
02-28 10:10:32.136  7153  7153 I caffe_jni: I0228 10:10:32.136667  7153 net.cpp:397] scale5c_branch2a -> res5c_branch2a (in-place)
02-28 10:10:32.136  7153  7153 I caffe_jni: I0228 10:10:32.136703  7153 layer_factory.hpp:77] Creating layer scale5c_branch2a
02-28 10:10:32.136  7153  7153 I caffe_jni: I0228 10:10:32.136747  7153 net.cpp:152] Setting up scale5c_branch2a
02-28 10:10:32.136  7153  7153 I caffe_jni: I0228 10:10:32.136765  7153 net.cpp:159] Top shape: 1 512 14 14 (100352)
02-28 10:10:32.136  7153  7153 I caffe_jni: I0228 10:10:32.136782  7153 net.cpp:167] Memory required for data: 256299020
02-28 10:10:32.136  7153  7153 I caffe_jni: I0228 10:10:32.136804  7153 layer_factory.hpp:77] Creating layer res5c_branch2a_relu
02-28 10:10:32.136  7153  7153 I caffe_jni: I0228 10:10:32.136828  7153 net.cpp:102] Creating Layer res5c_branch2a_relu
02-28 10:10:32.136  7153  7153 I caffe_jni: I0228 10:10:32.136845  7153 net.cpp:436] res5c_branch2a_relu <- res5c_branch2a
02-28 10:10:32.136  7153  7153 I caffe_jni: I0228 10:10:32.136864  7153 net.cpp:397] res5c_branch2a_relu -> res5c_branch2a (in-place)
02-28 10:10:32.136  7153  7153 I caffe_jni: I0228 10:10:32.136884  7153 net.cpp:152] Setting up res5c_branch2a_relu
02-28 10:10:32.136  7153  7153 I caffe_jni: I0228 10:10:32.136901  7153 net.cpp:159] Top shape: 1 512 14 14 (100352)
02-28 10:10:32.136  7153  7153 I caffe_jni: I0228 10:10:32.136919  7153 net.cpp:167] Memory required for data: 256700428
02-28 10:10:32.136  7153  7153 I caffe_jni: I0228 10:10:32.136936  7153 layer_factory.hpp:77] Creating layer res5c_branch2b
02-28 10:10:32.136  7153  7153 I caffe_jni: I0228 10:10:32.136960  7153 net.cpp:102] Creating Layer res5c_branch2b
02-28 10:10:32.136  7153  7153 I caffe_jni: I0228 10:10:32.136976  7153 net.cpp:436] res5c_branch2b <- res5c_branch2a
02-28 10:10:32.137  7153  7153 I caffe_jni: I0228 10:10:32.136996  7153 net.cpp:410] res5c_branch2b -> res5c_branch2b
02-28 10:10:32.142  7153  7153 I caffe_jni: I0228 10:10:32.142567  7153 net.cpp:152] Setting up res5c_branch2b
02-28 10:10:32.142  7153  7153 I caffe_jni: I0228 10:10:32.142670  7153 net.cpp:159] Top shape: 1 512 14 14 (100352)
02-28 10:10:32.142  7153  7153 I caffe_jni: I0228 10:10:32.142702  7153 net.cpp:167] Memory required for data: 257101836
02-28 10:10:32.142  7153  7153 I caffe_jni: I0228 10:10:32.142729  7153 layer_factory.hpp:77] Creating layer bn5c_branch2b
02-28 10:10:32.142  7153  7153 I caffe_jni: I0228 10:10:32.142761  7153 net.cpp:102] Creating Layer bn5c_branch2b
02-28 10:10:32.142  7153  7153 I caffe_jni: I0228 10:10:32.142786  7153 net.cpp:436] bn5c_branch2b <- res5c_branch2b
02-28 10:10:32.142  7153  7153 I caffe_jni: I0228 10:10:32.142809  7153 net.cpp:397] bn5c_branch2b -> res5c_branch2b (in-place)
02-28 10:10:32.142  7153  7153 I caffe_jni: I0228 10:10:32.142858  7153 net.cpp:152] Setting up bn5c_branch2b
02-28 10:10:32.142  7153  7153 I caffe_jni: I0228 10:10:32.142879  7153 net.cpp:159] Top shape: 1 512 14 14 (100352)
02-28 10:10:32.142  7153  7153 I caffe_jni: I0228 10:10:32.142900  7153 net.cpp:167] Memory required for data: 257503244
02-28 10:10:32.142  7153  7153 I caffe_jni: I0228 10:10:32.142922  7153 layer_factory.hpp:77] Creating layer scale5c_branch2b
02-28 10:10:32.142  3560  7240 I DecodeUtils: decodeThumbnail filePath not exist : /storage/emulated/0/Download/demo_android/tensorflow/dataset/imagenet/crop224/0000098.png
02-28 10:10:32.142  7153  7153 I caffe_jni: I0228 10:10:32.142944  7153 net.cpp:102] Creating Layer scale5c_branch2b
02-28 10:10:32.142  7153  7153 I caffe_jni: I0228 10:10:32.142962  7153 net.cpp:436] scale5c_branch2b <- res5c_branch2b
02-28 10:10:32.142  7153  7153 I caffe_jni: I0228 10:10:32.142980  7153 net.cpp:397] scale5c_branch2b -> res5c_branch2b (in-place)
02-28 10:10:32.143  7153  7153 I caffe_jni: I0228 10:10:32.143014  7153 layer_factory.hpp:77] Creating layer scale5c_branch2b
02-28 10:10:32.143  7153  7153 I caffe_jni: I0228 10:10:32.143059  7153 net.cpp:152] Setting up scale5c_branch2b
02-28 10:10:32.143  7153  7153 I caffe_jni: I0228 10:10:32.143091  7153 net.cpp:159] Top shape: 1 512 14 14 (100352)
02-28 10:10:32.143  7153  7153 I caffe_jni: I0228 10:10:32.143110  7153 net.cpp:167] Memory required for data: 257904652
02-28 10:10:32.143  7153  7153 I caffe_jni: I0228 10:10:32.143131  7153 layer_factory.hpp:77] Creating layer res5c_branch2b_relu
02-28 10:10:32.143  7153  7153 I caffe_jni: I0228 10:10:32.143151  7153 net.cpp:102] Creating Layer res5c_branch2b_relu
02-28 10:10:32.143  7153  7153 I caffe_jni: I0228 10:10:32.143167  7153 net.cpp:436] res5c_branch2b_relu <- res5c_branch2b
02-28 10:10:32.143  7153  7153 I caffe_jni: I0228 10:10:32.143187  7153 net.cpp:397] res5c_branch2b_relu -> res5c_branch2b (in-place)
02-28 10:10:32.143  7153  7153 I caffe_jni: I0228 10:10:32.143211  7153 net.cpp:152] Setting up res5c_branch2b_relu
02-28 10:10:32.143  7153  7153 I caffe_jni: I0228 10:10:32.143227  7153 net.cpp:159] Top shape: 1 512 14 14 (100352)
02-28 10:10:32.143  7153  7153 I caffe_jni: I0228 10:10:32.143244  7153 net.cpp:167] Memory required for data: 258306060
02-28 10:10:32.143  7153  7153 I caffe_jni: I0228 10:10:32.143260  7153 layer_factory.hpp:77] Creating layer res5c_branch2c
02-28 10:10:32.143  7153  7153 I caffe_jni: I0228 10:10:32.143283  7153 net.cpp:102] Creating Layer res5c_branch2c
02-28 10:10:32.143  7153  7153 I caffe_jni: I0228 10:10:32.143299  7153 net.cpp:436] res5c_branch2c <- res5c_branch2b
02-28 10:10:32.143  7153  7153 I caffe_jni: I0228 10:10:32.143322  7153 net.cpp:410] res5c_branch2c -> res5c_branch2c
02-28 10:10:32.145  7153  7153 I caffe_jni: I0228 10:10:32.145527  7153 net.cpp:152] Setting up res5c_branch2c
02-28 10:10:32.145  7153  7153 I caffe_jni: I0228 10:10:32.145623  7153 net.cpp:159] Top shape: 1 2048 14 14 (401408)
02-28 10:10:32.145  7153  7153 I caffe_jni: I0228 10:10:32.145666  7153 net.cpp:167] Memory required for data: 259911692
02-28 10:10:32.145  7153  7153 I caffe_jni: I0228 10:10:32.145694  7153 layer_factory.hpp:77] Creating layer bn5c_branch2c
02-28 10:10:32.145  7153  7153 I caffe_jni: I0228 10:10:32.145725  7153 net.cpp:102] Creating Layer bn5c_branch2c
02-28 10:10:32.145  7153  7153 I caffe_jni: I0228 10:10:32.145747  7153 net.cpp:436] bn5c_branch2c <- res5c_branch2c
02-28 10:10:32.145  7153  7153 I caffe_jni: I0228 10:10:32.145771  7153 net.cpp:397] bn5c_branch2c -> res5c_branch2c (in-place)
02-28 10:10:32.145  7153  7153 I caffe_jni: I0228 10:10:32.145828  7153 net.cpp:152] Setting up bn5c_branch2c
02-28 10:10:32.145  7153  7153 I caffe_jni: I0228 10:10:32.145853  7153 net.cpp:159] Top shape: 1 2048 14 14 (401408)
02-28 10:10:32.145  7153  7153 I caffe_jni: I0228 10:10:32.145869  7153 net.cpp:167] Memory required for data: 261517324
02-28 10:10:32.145  7153  7153 I caffe_jni: I0228 10:10:32.145893  7153 layer_factory.hpp:77] Creating layer scale5c_branch2c
02-28 10:10:32.145  7153  7153 I caffe_jni: I0228 10:10:32.145923  7153 net.cpp:102] Creating Layer scale5c_branch2c
02-28 10:10:32.145  7153  7153 I caffe_jni: I0228 10:10:32.145941  7153 net.cpp:436] scale5c_branch2c <- res5c_branch2c
02-28 10:10:32.145  7153  7153 I caffe_jni: I0228 10:10:32.145961  7153 net.cpp:397] scale5c_branch2c -> res5c_branch2c (in-place)
02-28 10:10:32.146  7153  7153 I caffe_jni: I0228 10:10:32.145994  7153 layer_factory.hpp:77] Creating layer scale5c_branch2c
02-28 10:10:32.146  7153  7153 I caffe_jni: I0228 10:10:32.146036  7153 net.cpp:152] Setting up scale5c_branch2c
02-28 10:10:32.146  7153  7153 I caffe_jni: I0228 10:10:32.146054  7153 net.cpp:159] Top shape: 1 2048 14 14 (401408)
02-28 10:10:32.146  7153  7153 I caffe_jni: I0228 10:10:32.146073  7153 net.cpp:167] Memory required for data: 263122956
02-28 10:10:32.146  7153  7153 I caffe_jni: I0228 10:10:32.146093  7153 layer_factory.hpp:77] Creating layer res5c
02-28 10:10:32.146  7153  7153 I caffe_jni: I0228 10:10:32.146140  7153 net.cpp:102] Creating Layer res5c
02-28 10:10:32.146  7153  7153 I caffe_jni: I0228 10:10:32.146160  7153 net.cpp:436] res5c <- res5b_res5b_relu_0_split_1
02-28 10:10:32.146  7153  7153 I caffe_jni: I0228 10:10:32.146178  7153 net.cpp:436] res5c <- res5c_branch2c
02-28 10:10:32.146  7153  7153 I caffe_jni: I0228 10:10:32.146198  7153 net.cpp:410] res5c -> res5c
02-28 10:10:32.146  7153  7153 I caffe_jni: I0228 10:10:32.146221  7153 net.cpp:152] Setting up res5c
02-28 10:10:32.146  7153  7153 I caffe_jni: I0228 10:10:32.146244  7153 net.cpp:159] Top shape: 1 2048 14 14 (401408)
02-28 10:10:32.146  7153  7153 I caffe_jni: I0228 10:10:32.146267  7153 net.cpp:167] Memory required for data: 264728588
02-28 10:10:32.146  7153  7153 I caffe_jni: I0228 10:10:32.146284  7153 layer_factory.hpp:77] Creating layer res5c_relu
02-28 10:10:32.146  7153  7153 I caffe_jni: I0228 10:10:32.146303  7153 net.cpp:102] Creating Layer res5c_relu
02-28 10:10:32.146  7153  7153 I caffe_jni: I0228 10:10:32.146319  7153 net.cpp:436] res5c_relu <- res5c
02-28 10:10:32.146  7153  7153 I caffe_jni: I0228 10:10:32.146337  7153 net.cpp:397] res5c_relu -> res5c (in-place)
02-28 10:10:32.146  7153  7153 I caffe_jni: I0228 10:10:32.146358  7153 net.cpp:152] Setting up res5c_relu
02-28 10:10:32.146  7153  7153 I caffe_jni: I0228 10:10:32.146373  7153 net.cpp:159] Top shape: 1 2048 14 14 (401408)
02-28 10:10:32.146  7153  7153 I caffe_jni: I0228 10:10:32.146401  7153 net.cpp:167] Memory required for data: 266334220
02-28 10:10:32.146  7153  7153 I caffe_jni: I0228 10:10:32.146423  7153 layer_factory.hpp:77] Creating layer rpn_conv/3x3
02-28 10:10:32.146  7153  7153 I caffe_jni: I0228 10:10:32.146450  7153 net.cpp:102] Creating Layer rpn_conv/3x3
02-28 10:10:32.146  7153  7153 I caffe_jni: I0228 10:10:32.146467  7153 net.cpp:436] rpn_conv/3x3 <- res4f_res4f_relu_0_split_2
…
02-28 10:10:32.713   742  1826 D DE N VH : run:148: Stop
02-28 10:10:32.785  3560  7240 I DecodeUtils: decodeThumbnail filePath not exist : /storage/emulated/0/Download/demo_android/tensorflow/dataset/imagenet/crop224/0000079.png
02-28 10:10:32.836  1256  1453 I HwNormalizedSpline: DayMode:getBrightnessLevel lux =696.0, mDefaultBrightnessFromLux =68.00194
02-28 10:10:32.837  1256  1453 E libc    : Access denied finding property "persist.sys.smart_power"
02-28 10:10:32.850  7153  7153 I caffe_jni: I0228 10:10:32.850749  7153 net.cpp:152] Setting up conv_new_1
02-28 10:10:32.850  7153  7153 I caffe_jni: I0228 10:10:32.850864  7153 net.cpp:159] Top shape: 1 1024 14 14 (200704)
02-28 10:10:32.850  7153  7153 I caffe_jni: I0228 10:10:32.850903  7153 net.cpp:167] Memory required for data: 268845340
02-28 10:10:32.850  7153  7153 I caffe_jni: I0228 10:10:32.850934  7153 layer_factory.hpp:77] Creating layer conv_new_1_relu
02-28 10:10:32.850  7153  7153 I caffe_jni: I0228 10:10:32.850963  7153 net.cpp:102] Creating Layer conv_new_1_relu
02-28 10:10:32.850  7153  7153 I caffe_jni: I0228 10:10:32.850986  7153 net.cpp:436] conv_new_1_relu <- conv_new_1
02-28 10:10:32.851  7153  7153 I caffe_jni: I0228 10:10:32.851012  7153 net.cpp:397] conv_new_1_relu -> conv_new_1 (in-place)
02-28 10:10:32.851  7153  7153 I caffe_jni: I0228 10:10:32.851042  7153 net.cpp:152] Setting up conv_new_1_relu
02-28 10:10:32.851  7153  7153 I caffe_jni: I0228 10:10:32.851065  7153 net.cpp:159] Top shape: 1 1024 14 14 (200704)
02-28 10:10:32.851  7153  7153 I caffe_jni: I0228 10:10:32.851092  7153 net.cpp:167] Memory required for data: 269648156
02-28 10:10:32.851  7153  7153 I caffe_jni: I0228 10:10:32.851111  7153 layer_factory.hpp:77] Creating layer conv_new_1_conv_new_1_relu_0_split
02-28 10:10:32.851  7153  7153 I caffe_jni: I0228 10:10:32.851140  7153 net.cpp:102] Creating Layer conv_new_1_conv_new_1_relu_0_split
02-28 10:10:32.851  7153  7153 I caffe_jni: I0228 10:10:32.851160  7153 net.cpp:436] conv_new_1_conv_new_1_relu_0_split <- conv_new_1
02-28 10:10:32.851  7153  7153 I caffe_jni: I0228 10:10:32.851181  7153 net.cpp:410] conv_new_1_conv_new_1_relu_0_split -> conv_new_1_conv_new_1_relu_0_split_0
02-28 10:10:32.851  7153  7153 I caffe_jni: I0228 10:10:32.851205  7153 net.cpp:410] conv_new_1_conv_new_1_relu_0_split -> conv_new_1_conv_new_1_relu_0_split_1
02-28 10:10:32.851  7153  7153 I caffe_jni: I0228 10:10:32.851236  7153 net.cpp:152] Setting up conv_new_1_conv_new_1_relu_0_split
02-28 10:10:32.851  7153  7153 I caffe_jni: I0228 10:10:32.851259  7153 net.cpp:159] Top shape: 1 1024 14 14 (200704)
02-28 10:10:32.851  7153  7153 I caffe_jni: I0228 10:10:32.851286  7153 net.cpp:159] Top shape: 1 1024 14 14 (200704)
02-28 10:10:32.851  7153  7153 I caffe_jni: I0228 10:10:32.851308  7153 net.cpp:167] Memory required for data: 271253788
02-28 10:10:32.851  7153  7153 I caffe_jni: I0228 10:10:32.851327  7153 layer_factory.hpp:77] Creating layer rfcn_cls
02-28 10:10:32.851  7153  7153 I caffe_jni: I0228 10:10:32.851356  7153 net.cpp:102] Creating Layer rfcn_cls
02-28 10:10:32.851  7153  7153 I caffe_jni: I0228 10:10:32.851377  7153 net.cpp:436] rfcn_cls <- conv_new_1_conv_new_1_relu_0_split_0
02-28 10:10:32.851  7153  7153 I caffe_jni: I0228 10:10:32.851403  7153 net.cpp:410] rfcn_cls -> rfcn_cls
02-28 10:10:32.945  3560  7240 I DecodeUtils: decodeThumbnail filePath not exist : /storage/emulated/0/Download/demo_android/tensorflow/dataset/imagenet/crop224/0000034.png
02-28 10:10:32.948   742  1825 D DE N ^EP: onChange:103:  mode=0x1c mAmbientLux=300 mAmbientLuxOffset=0 biasedAmbientLux=0 r=32768 g=32768 b=32768
02-28 10:10:32.948   742  1825 D DE N VH : start:45: Wake up
02-28 10:10:32.949   742  1826 D DE N VH : run:118: Start
02-28 10:10:32.959  7153  7153 I caffe_jni: I0228 10:10:32.959656  7153 net.cpp:152] Setting up rfcn_cls
02-28 10:10:32.959  7153  7153 I caffe_jni: I0228 10:10:32.959775  7153 net.cpp:159] Top shape: 1 1029 14 14 (201684)
02-28 10:10:32.959  7153  7153 I caffe_jni: I0228 10:10:32.959810  7153 net.cpp:167] Memory required for data: 272060524
02-28 10:10:32.959  7153  7153 I caffe_jni: I0228 10:10:32.959838  7153 layer_factory.hpp:77] Creating layer rfcn_bbox
02-28 10:10:32.959  7153  7153 I caffe_jni: I0228 10:10:32.959887  7153 net.cpp:102] Creating Layer rfcn_bbox
02-28 10:10:32.959  7153  7153 I caffe_jni: I0228 10:10:32.959913  7153 net.cpp:436] rfcn_bbox <- conv_new_1_conv_new_1_relu_0_split_1
…
02-28 10:10:32.997   742  1828 D DE N HWC: apply:55: FEATURE_HUE: mEnable=0 enable=0
02-28 10:10:32.997   742  1828 D DE N HWC: apply:55: FEATURE_SAT: mEnable=0 enable=0
02-28 10:10:32.997   742  1828 D DE N HWC: apply:55: FEATURE_PANEL_INFO: mEnable=0 enable=0
02-28 10:10:32.997   742  1828 D DE N HWC: apply:55: FEATURE_DDIC_RGBW: mEnable=0 enable=0
02-28 10:10:32.997   742  1828 D DE N HWC: apply:55: FEATURE_DDIC_CABC: mEnable=0 enable=0
02-28 10:10:33.001  7153  7153 I caffe_jni: I0228 10:10:33.001183  7153 net.cpp:152] Setting up rfcn_bbox
02-28 10:10:33.001  7153  7153 I caffe_jni: I0228 10:10:33.001257  7153 net.cpp:159] Top shape: 1 392 14 14 (76832)
02-28 10:10:33.001  7153  7153 I caffe_jni: I0228 10:10:33.001291  7153 net.cpp:167] Memory required for data: 272367852
02-28 10:10:33.001  7153  7153 I caffe_jni: I0228 10:10:33.001317  7153 layer_factory.hpp:77] Creating layer psroipooled_cls_rois
02-28 10:10:33.001  7153  7153 I caffe_jni: I0228 10:10:33.001358  7153 net.cpp:102] Creating Layer psroipooled_cls_rois
02-28 10:10:33.001  7153  7153 I caffe_jni: I0228 10:10:33.001381  7153 net.cpp:436] psroipooled_cls_rois <- rfcn_cls
02-28 10:10:33.001  7153  7153 I caffe_jni: I0228 10:10:33.001401  7153 net.cpp:436] psroipooled_cls_rois <- rois_proposal_0_split_0
02-28 10:10:33.001  7153  7153 I caffe_jni: I0228 10:10:33.001430  7153 net.cpp:410] psroipooled_cls_rois -> psroipooled_cls_rois
02-28 10:10:33.001  7153  7153 I caffe_jni: I0228 10:10:33.001463  7153 psroi_pooling_layer.cpp:28] Spatial scale: 0.0625
02-28 10:10:33.001  7153  7153 I caffe_jni: I0228 10:10:33.001509  7153 psroi_pooling_layer.cpp:44] psroipooling reshape
02-28 10:10:33.001  7153  7153 I caffe_jni: I0228 10:10:33.001530  7153 net.cpp:152] Setting up psroipooled_cls_rois
02-28 10:10:33.001  7153  7153 I caffe_jni: I0228 10:10:33.001546  7153 net.cpp:159] Top shape: 300 21 7 7 (308700)
02-28 10:10:33.001  7153  7153 I caffe_jni: I0228 10:10:33.001565  7153 net.cpp:167] Memory required for data: 273602652
02-28 10:10:33.001  7153  7153 I caffe_jni: I0228 10:10:33.001581  7153 layer_factory.hpp:77] Creating layer ave_cls_score_rois
02-28 10:10:33.001  7153  7153 I caffe_jni: I0228 10:10:33.001607  7153 net.cpp:102] Creating Layer ave_cls_score_rois
02-28 10:10:33.001  7153  7153 I caffe_jni: I0228 10:10:33.001631  7153 net.cpp:436] ave_cls_score_rois <- psroipooled_cls_rois
02-28 10:10:33.001  7153  7153 I caffe_jni: I0228 10:10:33.001652  7153 net.cpp:410] ave_cls_score_rois -> cls_score
02-28 10:10:33.001  7153  7153 I caffe_jni: I0228 10:10:33.001678  7153 net.cpp:152] Setting up ave_cls_score_rois
02-28 10:10:33.001  7153  7153 I caffe_jni: I0228 10:10:33.001696  7153 net.cpp:159] Top shape: 300 21 1 1 (6300)
02-28 10:10:33.001  7153  7153 I caffe_jni: I0228 10:10:33.001715  7153 net.cpp:167] Memory required for data: 273627852
02-28 10:10:33.001  7153  7153 I caffe_jni: I0228 10:10:33.001731  7153 layer_factory.hpp:77] Creating layer psroipooled_loc_rois
02-28 10:10:33.001  7153  7153 I caffe_jni: I0228 10:10:33.001750  7153 net.cpp:102] Creating Layer psroipooled_loc_rois
02-28 10:10:33.001  7153  7153 I caffe_jni: I0228 10:10:33.001770  7153 net.cpp:436] psroipooled_loc_rois <- rfcn_bbox
02-28 10:10:33.001  7153  7153 I caffe_jni: I0228 10:10:33.001794  7153 net.cpp:436] psroipooled_loc_rois <- rois_proposal_0_split_1
02-28 10:10:33.001  7153  7153 I caffe_jni: I0228 10:10:33.001813  7153 net.cpp:410] psroipooled_loc_rois -> psroipooled_loc_rois
02-28 10:10:33.001  7153  7153 I caffe_jni: I0228 10:10:33.001834  7153 psroi_pooling_layer.cpp:28] Spatial scale: 0.0625
02-28 10:10:33.001  7153  7153 I caffe_jni: I0228 10:10:33.001853  7153 psroi_pooling_layer.cpp:44] psroipooling reshape
02-28 10:10:33.001  7153  7153 I caffe_jni: I0228 10:10:33.001873  7153 net.cpp:152] Setting up psroipooled_loc_rois
02-28 10:10:33.001  7153  7153 I caffe_jni: I0228 10:10:33.001890  7153 net.cpp:159] Top shape: 300 8 7 7 (117600)
02-28 10:10:33.001  7153  7153 I caffe_jni: I0228 10:10:33.001914  7153 net.cpp:167] Memory required for data: 274098252
02-28 10:10:33.001  7153  7153 I caffe_jni: I0228 10:10:33.001935  7153 layer_factory.hpp:77] Creating layer ave_bbox_pred_rois
02-28 10:10:33.001  7153  7153 I caffe_jni: I0228 10:10:33.001955  7153 net.cpp:102] Creating Layer ave_bbox_pred_rois
02-28 10:10:33.001  7153  7153 I caffe_jni: I0228 10:10:33.001971  7153 net.cpp:436] ave_bbox_pred_rois <- psroipooled_loc_rois
02-28 10:10:33.001  7153  7153 I caffe_jni: I0228 10:10:33.001992  7153 net.cpp:410] ave_bbox_pred_rois -> bbox_pred_pre
02-28 10:10:33.002  7153  7153 I caffe_jni: I0228 10:10:33.002017  7153 net.cpp:152] Setting up ave_bbox_pred_rois
02-28 10:10:33.002  7153  7153 I caffe_jni: I0228 10:10:33.002034  7153 net.cpp:159] Top shape: 300 8 1 1 (2400)
02-28 10:10:33.002  7153  7153 I caffe_jni: I0228 10:10:33.002058  7153 net.cpp:167] Memory required for data: 274107852
02-28 10:10:33.002  7153  7153 I caffe_jni: I0228 10:10:33.002079  7153 layer_factory.hpp:77] Creating layer cls_prob
02-28 10:10:33.002  7153  7153 I caffe_jni: I0228 10:10:33.002099  7153 net.cpp:102] Creating Layer cls_prob
02-28 10:10:33.002  7153  7153 I caffe_jni: I0228 10:10:33.002135  7153 net.cpp:436] cls_prob <- cls_score
02-28 10:10:33.002  7153  7153 I caffe_jni: I0228 10:10:33.002156  7153 net.cpp:410] cls_prob -> cls_prob_pre
02-28 10:10:33.002  7153  7153 I caffe_jni: I0228 10:10:33.002182  7153 net.cpp:152] Setting up cls_prob
02-28 10:10:33.002  7153  7153 I caffe_jni: I0228 10:10:33.002198  7153 net.cpp:159] Top shape: 300 21 1 1 (6300)
02-28 10:10:33.002  7153  7153 I caffe_jni: I0228 10:10:33.002223  7153 net.cpp:167] Memory required for data: 274133052
02-28 10:10:33.002  7153  7153 I caffe_jni: I0228 10:10:33.002244  7153 layer_factory.hpp:77] Creating layer cls_prob_reshape
02-28 10:10:33.002  7153  7153 I caffe_jni: I0228 10:10:33.002266  7153 net.cpp:102] Creating Layer cls_prob_reshape
02-28 10:10:33.002  7153  7153 I caffe_jni: I0228 10:10:33.002284  7153 net.cpp:436] cls_prob_reshape <- cls_prob_pre
02-28 10:10:33.002  7153  7153 I caffe_jni: I0228 10:10:33.002300  7153 net.cpp:410] cls_prob_reshape -> cls_prob
02-28 10:10:33.002  7153  7153 I caffe_jni: I0228 10:10:33.002327  7153 net.cpp:152] Setting up cls_prob_reshape
02-28 10:10:33.002  7153  7153 I caffe_jni: I0228 10:10:33.002343  7153 net.cpp:159] Top shape: 300 21 (6300)
02-28 10:10:33.002  7153  7153 I caffe_jni: I0228 10:10:33.002364  7153 net.cpp:167] Memory required for data: 274158252
02-28 10:10:33.002  7153  7153 I caffe_jni: I0228 10:10:33.002385  7153 layer_factory.hpp:77] Creating layer bbox_pred_reshape
02-28 10:10:33.002  7153  7153 I caffe_jni: I0228 10:10:33.002404  7153 net.cpp:102] Creating Layer bbox_pred_reshape
02-28 10:10:33.002  7153  7153 I caffe_jni: I0228 10:10:33.002421  7153 net.cpp:436] bbox_pred_reshape <- bbox_pred_pre
02-28 10:10:33.002  7153  7153 I caffe_jni: I0228 10:10:33.002439  7153 net.cpp:410] bbox_pred_reshape -> bbox_pred
02-28 10:10:33.002  7153  7153 I caffe_jni: I0228 10:10:33.002463  7153 net.cpp:152] Setting up bbox_pred_reshape
02-28 10:10:33.002  7153  7153 I caffe_jni: I0228 10:10:33.002480  7153 net.cpp:159] Top shape: 300 8 (2400)
02-28 10:10:33.002  7153  7153 I caffe_jni: I0228 10:10:33.002497  7153 net.cpp:167] Memory required for data: 274167852
02-28 10:10:33.002  7153  7153 I caffe_jni: I0228 10:10:33.002516  7153 net.cpp:230] bbox_pred_reshape does not need backward computation.
02-28 10:10:33.002  7153  7153 I caffe_jni: I0228 10:10:33.002538  7153 net.cpp:230] cls_prob_reshape does not need backward computation.
…
